models/discriminator_epoch_9.pth (torch, 951720 bytes, 7 tensors)

model.0.weight f4 [512, 141]
000000 93 c5 3e bc 3d ce 0b 3c 23 5a 25 3d 3e 17 dd bd
       -0.011643785 0.008533058 0.040369164 -0.10795449
000010 69 5c 6b bd 7f be 78 3d 9e 3d 36 bd 7a bd 37 3d
       -0.057461176 0.060728546 -0.044492356 0.044858433
000020 d0 80 8a bc 1c 71 3e bd 94 d0 78 bd 8a 0b 7b 3d
       -0.016907126 -0.04649459 -0.06074579 0.0612903
000030 83 ce 87 bd f9 c9 00 be 58 a0 9f bd 3c 20 5e bd
       -0.06631186 -0.12577046 -0.07794255 -0.05422996
000040 aa dd 10 be 91 76 b8 3d f8 31 f0 3d be 8e 29 3c
       -0.14147058 0.0900699 0.11728281 0.010348974
000050 0e 21 63 bd ed 94 8b 3d 9e c6 68 3c 55 24 b3 bc
       -0.055451445 0.06815515 0.01420751 -0.02186791
000060 f6 66 84 bd a9 ea 7e 3d c1 0b 33 3d b8 0e 53 3d
       -0.06464951 0.062235508 0.04371238 0.05152771
000070 13 37 89 bd 80 87 93 bc bd d4 88 bd 08 53 88 3d
       -0.06699958 -0.018008947 -0.066812016 0.06656462
000080 a2 f7 fb bc 60 58 20 bd f3 62 41 3d 96 f2 ac 3d
       -0.030757729 -0.03914678 0.047213506 0.08444707
000090 cb 26 bb 3d 5c 83 26 bd 89 14 36 3d 89 6d e7 bc
       0.091382585 -0.040652618 0.044453178 -0.028250473
0000a0 96 c2 fb 3c 67 80 7c 3d 90 2d da bc ef 53 68 3d
       0.030732434 0.06164589 -0.026633054 0.05672067
0000b0 84 19 01 bd 7e 31 be bd cd 93 04 be d1 05 09 bd
       -0.031518474 -0.09286784 -0.12947007 -0.033452813
0000c0 5f c2 58 bd fb d0 4a bd d6 49 57 bd 9b fd c5 bd
       -0.05291974 -0.049515706 -0.05256065 -0.09667512
0000d0 9d 92 af 3d d1 8a 17 bd 13 a4 37 3d f1 d5 87 bd
       0.08572886 -0.03699762 0.044834208 -0.06632603
0000e0 71 a9 26 3c 12 7f 3b 3d 82 7b c8 bd b3 4e 10 3d
       0.010172234 0.04577548 -0.09789182 0.035231303
0000f0 2d bb d7 bc cd 15 c6 3d 56 5b bb bd 00 20 75 bc
       -0.02633437 0.09672127 -0.0914828 -0.014961243
000100 ff d2 9e 3d 61 af f8 bb 45 ce 01 3d 8a 4b 91 bd
       0.07755088 -0.007589266 0.031690855 -0.07094486
000110 82 57 18 bd 6e c0 3b 3d 4d 4f a9 3d c6 b7 88 bc
       -0.03719283 0.045837812 0.082670785 -0.016689193
000120 2f 29 4c bc 59 3a 83 3d 99 18 5d 3c 00 69 7c 3c
       -0.012460991 0.06407613 0.013494634 0.015405893
000130 79 3e 83 bd 1c 60 fb 3c 26 d9 a7 3d 4f 91 62 bd
       -0.064084 0.030685477 0.08195715 -0.05531436
000140 01 e6 82 3d 11 b2 e5 3b f1 94 02 3d 8c 17 03 3d
       0.06391526 0.0070097526 0.031880323 0.032004878
000150 ea ea 88 3d 2f 4f fd bd 0e 35 48 3c a6 7a 37 bc
       0.06685431 -0.12368619 0.0122196805 -0.011198675
000160 df ea e0 3c 82 c5 5c bd 40 a2 27 bc aa fd 92 3d
       0.027455745 -0.053899296 -0.0102315545 0.07177289
000170 27 3b c4 bd 15 2e 80 bd 65 9e 2b 3d ae fe 0c 3c
       -0.09581595 -0.062587894 0.041899104 0.008605642
000180 cc d9 a5 bc 2f c7 b6 bd 44 b0 de 3b 57 cc 66 3d
       -0.020245455 -0.0892471 0.006795915 0.056347217
000190 f1 13 86 bc eb 31 9c bd c8 5f f9 3c 3f 67 6a bd
       -0.01636693 -0.076267086 0.03044118 -0.05722737
0001a0 79 b6 92 bd a4 43 7e bd 5d 73 26 be 60 99 c7 bd
       -0.0716371 -0.062076226 -0.16254945 -0.09746051
0001b0 e0 2c 28 3d 2e 16 ad 3c 1f d0 0b bd 43 9f 83 3d
       0.04105842 0.02112874 -0.034134027 0.06426861
0001c0 45 c3 ff bb 01 41 89 3d a0 42 8f bd 7d 49 ac bd
       -0.0078052604 0.06701852 -0.069951296 -0.08412454
0001d0 21 90 d5 bb 8a 08 56 bd d2 f1 aa bd 8d 8f 39 bd
       -0.0065174256 -0.052254237 -0.08346905 -0.045302916
0001e0 e9 32 d7 3d 78 25 21 bd 5e 7e f5 bd 3a 02 e3 3b
       0.10507757 -0.039342374 -0.11986993 0.0069277557
0001f0 2c 24 25 bd 3e cf 86 3d 31 ba 11 bd ef 9d 92 bd
       -0.0403177 0.06582497 -0.035577957 -0.0715903
000200 3d 68 9f 3d b2 11 85 bb 32 f5 c3 bd b6 85 dc 3d
       0.07783554 -0.0040609473 -0.09568252 0.10767691
000210 96 80 95 3c ae 98 a7 bd 93 87 9c bd f2 b2 0b bc
       0.018249791 -0.08183418 -0.07643046 -0.008526551
000220 d2 7e 48 3c 26 b5 c7 bc 6b 14 3e bd e9 1a 93 3d
       0.012237268 -0.02437837 -0.04640619 0.07182867
000230 d6 53 3d bb 81 ac 25 3d b4 01 2c 3b 6b 57 fa bc
       -0.0028889081 0.040447716 0.0026246132 -0.030559262
000240 e4 69 15 3c 66 7c 54 3c 8d de 7b 3c 65 b2 49 bb
       0.009119485 0.012969112 0.015372884 -0.0030776497
000250 87 a4 8e bc 7d 87 f7 3c 38 58 59 3d 72 06 8d bc
       -0.017412437 0.030215973 0.053062648 -0.017214987
000260 dd ca 26 bb 90 fa 1b 3c 1f 21 03 3d eb 92 46 3d
       -0.0025450506 0.009520188 0.03201401 0.048479956
000270 71 17 24 3d 0f 14 51 3c 33 df cd 3c 74 1a b3 bc
       0.040061418 0.01276113 0.025130844 -0.0218632
000280 09 cc e4 ba b5 78 69 3d 97 10 d6 3c 2b 72 cc bc
       -0.0017455827 0.05699988 0.026130958 -0.024956783
000290 77 2f 62 3d 63 3a 3f bd 2f 0b 3a 3c 99 3f 3e bc
       0.055221047 -0.04668654 0.011355205 -0.011611843
0002a0 fb 2a 83 3d ec 52 77 bd bc dd 4e bd a9 1a ac 3b
       0.06404682 -0.060381815 -0.05050443 0.0052522016
0002b0 94 be 59 3d 75 40 5f bd dd 18 ae 3c 51 9c 82 3c
       0.053160265 -0.05450483 0.02125209 0.015943678
0002c0 85 5b 4d 3c 9d 31 a1 3c 80 b9 a0 bc 8f e0 11 bd
       0.012534027 0.019676978 -0.019619703 -0.035614546
0002d0 af aa cd 3c bb 4a 07 3d d6 e9 86 3c e4 a5 dd bb
       0.025105802 0.033030253 0.016468924 -0.0067641605
0002e0 c0 66 31 bb 66 3d 2c 3d b8 4b 36 3b cc 5c 00 bc
       -0.00270693 0.04205074 0.0027816128 -0.0078346245
0002f0 9a a9 11 3d 35 72 0e bd 6e 40 5a 3d 7f 83 17 3d
       0.035562135 -0.034776885 0.0532841 0.03699064
000300 eb f2 90 bd db 00 51 3d 61 3d 19 3d 9b 8f 63 bc
       -0.07077583 0.051026206 0.03741205 -0.013889219
000310 fb 39 f9 3c 44 2b 86 bd 85 cb 09 bd eb 4b 4f 3c
       0.030423155 -0.06551221 -0.033641357 0.012652378
000320 d8 6f 0a 3d 30 a8 f8 bc 04 6b 79 bd fc c5 13 bd
       0.03379807 -0.030353636 -0.060893074 -0.036077484
000330 0b 0a 08 bd ca a7 ac 3d 77 37 e6 3b a4 74 31 3d
       -0.033212703 0.08430441 0.007025655 0.043324128
000340 de ba f2 bc 6b 87 2b 3b 5f c3 4d bb 31 c9 4b b9
       -0.02963012 0.0026173245 -0.0031396968 -0.00019434538
000350 11 ca 71 3d 1b a3 88 bd ec 89 df 3a 97 1f 24 bd
       0.059030596 -0.06671735 0.0017054654 -0.04006919
000360 51 96 f0 bc d0 32 aa bd d2 e9 d5 3c fc 4d b8 3c
       -0.029368551 -0.08310473 0.02611247 0.022498123
000370 c0 4c 1b bd c0 80 fb bc 43 28 b2 3c 1c d8 dd 3c
       -0.03791499 -0.030701041 0.021747714 0.027080588
000380 43 5a 13 3d f8 22 7c bc e6 6c 01 bd 7e 16 c8 3c
       0.035974752 -0.015389197 -0.031597994 0.024424788
000390 71 f5 8c bc 9b 9c 25 bc 8b 27 40 bd fe 8b b1 3a
       -0.01720688 -0.010108138 -0.04691271 0.0013545749
0003a0 c0 9b 55 3d e6 33 c1 3b c7 fc 80 3d d0 58 3e 3d
       0.052150488 0.0058960794 0.062982135 0.046471417
0003b0 9c 72 1b bd 4b f5 06 3d f8 6a a0 bc 07 74 1f 3c
       -0.037951097 0.032948773 -0.019582257 0.009732253
0003c0 29 07 11 bd f2 c0 6c bd bf 7a 4d bd 04 ce 59 3d
       -0.03540722 -0.057801194 -0.050165888 0.053174987
0003d0 9f e4 35 bd b6 71 3d 3d f2 f4 45 3d a1 a6 ba bb
       -0.044407483 0.04625102 0.0483293 -0.0056961332
0003e0 c2 d3 16 3c ad 9b 87 bc 85 e3 11 bd 30 62 c3 bc
       0.00920576 -0.016553724 -0.03561737 -0.02385053
0003f0 eb ae 78 3c 4a 9e 42 3b 3d 17 20 bd 15 09 2c 3d
       0.015178422 0.0029696398 -0.03908466 0.04200085

model.0.bias f4 [512]
000000 22 48 0c 3e 80 26 52 be 9b 20 36 3d 6c d4 2a be
       0.13699391 -0.20522499 0.04446469 -0.16682595
000010 00 0e 1c 3e 11 2a 99 bc 09 3f 8a 3e 67 42 6c 3e
       0.15239716 -0.018696817 0.27001217 0.23072205
000020 9e 63 6b be 7c af 35 be 9b c9 62 be ed 6d 40 3d
       -0.2298722 -0.17742723 -0.22147219 0.046979833
000030 66 3f 52 be 24 d2 89 be 50 dd 6d 3e 70 94 92 3d
       -0.20531997 -0.26918137 0.23228955 0.071572185
000040 9d d6 2f 3e 19 b2 1a 3e 60 02 26 bd 48 8d d4 bd
       0.17171712 0.15107001 -0.04052961 -0.1037851
000050 6a 3b 70 be d7 4a 13 be 1e 75 cd bd 51 2d dc 3d
       -0.23460165 -0.14384018 -0.10032104 0.10750831
000060 da 82 bb bd 90 d1 10 3e a2 f2 49 3e f5 8b 47 be
       -0.09155817 0.14142442 0.19721463 -0.19486983
000070 1d d7 4d be 62 ac 5d 3d 98 6e 11 be 98 c4 52 3e
       -0.2010159 0.054119475 -0.14202344 0.20582807
000080 f0 ff 5f 3d a6 d1 53 3e 3f 6a e4 3d 0a fe 28 3d
       0.05468744 0.20685443 0.11153077 0.041257896
000090 fa cf 81 3d 2e 71 37 3e 93 dd 52 3e 1d 5b 2d be
       0.063384965 0.17914268 0.20592336 -0.16929288
0000a0 fe de 4a be 2b 27 e4 3d 58 87 50 be 55 58 8d 3d
       -0.19811627 0.11140283 -0.2036413 0.069016136
0000b0 fe af 3b be c0 9e de 3d b8 d3 80 bd 45 a2 78 3e
       -0.18328854 0.10870123 -0.06290382 0.24280651
0000c0 5e 52 39 be ed c9 a3 bd 30 d0 d6 3d 55 e4 43 be
       -0.18097827 -0.07997499 0.10488927 -0.1913007
0000d0 2e 18 81 be f5 89 5b be 8c 3b 40 be 8d bc ba 3d
       -0.2521376 -0.21439345 -0.18772715 0.091179945
0000e0 a3 60 85 be 0a fc 58 3e b4 e1 09 3e 93 27 f3 bd
       -0.2605029 0.21189895 0.13465005 -0.118727826
0000f0 9a d8 d5 3d e3 89 d8 3d d9 8e cc bd ad a3 2b be
       0.10441704 0.10573175 -0.099881835 -0.16761656
000100 e6 26 55 be 80 8b 16 3e ff 1e 5b be 2d 1e 26 3e
       -0.2081562 0.14701653 -0.21398543 0.16222449
000110 f7 0c 06 3e d2 d7 af ba b5 89 5d be 38 41 23 be
       0.13090883 -0.001341576 -0.21634562 -0.15942848
000120 9a 7b 88 3c 02 2d 56 3e b5 d5 00 3e 60 e4 50 be
       0.0166605 0.20915607 0.12581523 -0.20399618
000130 9c 46 e9 bd d8 77 26 be b2 bd 15 3e b1 86 67 bc
       -0.11390421 -0.16256654 0.14623144 -0.014131234
000140 c6 70 33 3e 11 94 82 3e fe 54 05 be c7 38 84 3e
       0.17523488 0.2550359 -0.13020703 0.25824568
000150 b8 c3 14 be 6a 2c df bc e2 57 33 3e b5 c0 46 3e
       -0.14527786 -0.027242858 0.17513993 0.1940945
000160 c2 de 46 3e e3 fe 63 3e 1a 1f 10 bd 28 5a af 3e
       0.19420913 0.222652 -0.03518591 0.3424847
000170 e4 86 5e 3e 74 21 ee 3d 3d bd 57 be 8b 11 35 be
       0.21731144 0.116274744 -0.21068282 -0.17682473
000180 56 38 81 be ff be eb bd a5 28 76 bd db ab 3f be
       -0.25238293 -0.11511039 -0.060097355 -0.18717901
000190 22 ad e7 3d 08 19 53 3c 38 3e 4d 3e 67 35 4a 3e
       0.11312319 0.012884386 0.20043266 0.19746934
0001a0 91 ad af bb 73 d1 56 be 2a 4b 50 be 63 8d 49 3e
       -0.005361267 -0.20978336 -0.20341173 0.19682841
0001b0 69 59 6c 3e 36 46 75 3e 7e 0c 0f 3e ed 40 83 be
       0.23080982 0.23952565 0.13969609 -0.25635472
0001c0 09 38 32 be 19 f7 f5 3d 1a 0d 55 3e 7e f3 74 be
       -0.17404188 0.12010021 0.20805779 -0.2392101
0001d0 50 9c 37 be 04 01 30 3e 5e 3b 3b be dd b1 27 3e
       -0.17930722 0.17187887 -0.18284366 0.16376443
0001e0 1b e2 5a 3e 67 a8 a5 bc 61 67 65 3e 1d d2 77 be
       0.21375315 -0.020221902 0.22402717 -0.24201246
0001f0 51 47 20 be 36 2c 3e 3e 3f ac 06 bd f0 8c 8d bd
       -0.15652205 0.18571553 -0.03287911 -0.06911647
000200 bf 0d 4c 3e 8a 3b 16 be c0 70 b5 bd ec e4 69 be
       0.19927119 -0.1467115 -0.08859396 -0.22841233
000210 a6 0b 2b be 52 3a 4b be db cf b9 3c 54 be 67 be
       -0.16703662 -0.19846466 0.022682121 -0.22631198
000220 f3 5a 44 bd d6 cf 21 3e d5 e4 b9 bd f2 69 cc 3d
       -0.0479383 0.1580194 -0.09076849 0.09981145
000230 a1 f6 5c 3e 53 bd ac bd 94 cd 06 bd 3e c4 2e be
       0.21578456 -0.08434548 -0.0329109 -0.17067048
000240 4f a6 c4 bd ea bf ae 3d ba 26 4a be f4 68 44 be
       -0.09602033 0.085326985 -0.19741336 -0.19180661
000250 45 48 db bd d4 2e e9 bd 58 ff 59 be 43 54 06 be
       -0.10707144 -0.11385885 -0.21288812 -0.13118081
000260 92 36 15 3e 98 9e e1 bd 9f 1e 3f be 75 ca 58 3e
       0.14571598 -0.110165775 -0.18664025 0.21170981
000270 cf 6b 8a 3e 32 79 3a 3d a5 b5 53 3e 2e d8 5c 3e
       0.27035376 0.045525737 0.2067476 0.21566841
000280 32 01 64 bd f7 40 45 3e 08 97 53 be d7 1b 61 be
       -0.055665202 0.19263063 -0.20663083 -0.21983276
000290 ef 4c 42 bd ed a8 07 3e a0 f3 1b 3e 1d a1 18 be
       -0.04743665 0.13248034 0.15229654 -0.1490521
0002a0 96 3d 6c 3e 5b 9d 1d 3e d8 53 59 be ba c9 43 3e
       0.23070368 0.15392058 -0.2122339 0.19119921
0002b0 87 9b d3 bd 65 72 31 be 7b ac 23 be 55 5f 4d 3e
       -0.10332399 -0.17328794 -0.15983765 0.20055898
0002c0 99 2c 80 be 91 eb 23 be ff a0 66 3d 22 82 01 3e
       -0.25034025 -0.1600783 0.05630588 0.12647298
0002d0 60 ad 43 3e 17 f1 2c 3e dc a8 70 be 57 2f 70 3e
       0.19109106 0.16888843 -0.23501915 0.23455559
0002e0 35 dd 80 3e 26 c0 1a be b2 13 e1 3d b2 8a 59 3e
       0.25168768 -0.15112361 0.10990085 0.21244314
0002f0 d5 0a 8d 3d d2 e8 61 3e 2d d5 49 3e 84 77 d9 bd
       0.06886832 0.2206147 0.19710226 -0.10618499
000300 3d 88 fe 3d 36 79 3a 3e 6b 78 6e be d6 95 44 be
       0.12428329 0.18210301 -0.23288123 -0.19197783
000310 fe 9d 09 be 42 26 81 be 94 9c 55 be 2e a1 83 be
       -0.13439175 -0.252245 -0.20860511 -0.25708908
000320 da 43 41 3d 1f 9e 2e 3e b7 ee 41 be 9e f5 7f 3e
       0.04718385 0.17052506 -0.18938719 0.2499604
000330 d7 9a 38 3e 99 a0 26 3e bc c7 30 be c1 3c 5f 3e
       0.18027817 0.162722 -0.17263693 0.2180052
000340 86 7c a7 3d 56 f1 d0 bd 9a bc 99 3e fb 6a c4 bd
       0.08178048 -0.10202281 0.30026704 -0.095907174
000350 f0 1d 13 be c2 8f 5e 3e fd 5a de 3d 58 80 47 be
       -0.14366889 0.21734527 0.108571984 -0.19482553
000360 e8 19 4b 3e 81 5f da 3d a8 55 15 be da 1a c1 3d
       0.19834101 0.10662747 -0.14583457 0.0942895
000370 a3 ec fa bd 04 36 78 3e e8 ba 12 3e 6f ba 1c 3e
       -0.12252166 0.24239355 0.14329112 0.15305494
000380 38 e1 03 be 93 d9 33 3e 6c 2e 39 3e 94 be 24 3c
       -0.12878883 0.17563467 0.18084115 0.010055203
000390 d9 e7 37 3e f7 9b 22 be 79 67 02 3e 1b a1 42 3c
       0.17959537 -0.15879808 0.12734784 0.011879231
0003a0 82 14 7b 3e d4 79 57 be ad be d1 3d af 94 13 be
       0.24519542 -0.21042567 0.10241447 -0.14412187
0003b0 55 12 84 be d9 c9 1b 3e 7e 3e 18 be f2 99 1a be
       -0.25795236 0.15213718 -0.14867589 -0.15097788
0003c0 e2 7e f2 3d 69 ca 13 be f9 02 41 3e 0c aa 48 be
       0.11840607 -0.14432682 0.1884879 -0.19596118
0003d0 f5 a5 19 3e 3e 38 be 3c d5 3c c6 3d 2e 0e dd bd
       0.15004714 0.023220178 0.096795715 -0.1079372
0003e0 96 fe 1a be 81 66 77 be f2 39 28 be c0 90 ea bd
       -0.1513618 -0.24160196 -0.16428354 -0.1145339
0003f0 3c ba 7d be 9e 6f a9 bd e1 5f 3a 3e 77 3b 95 3e
       -0.24778074 -0.082732424 0.18200637 0.2914693

model.2.weight f4 [256, 512]
000000 ff ef 95 3c 8f 4e 7a bc ea 7d 01 3d 3e b9 3d 3c
       0.018302916 -0.015277519 0.03161422 0.01157981
000010 e1 6f 93 3a e7 58 2c bb 4f 0d 62 3d c0 ae 01 3e
       0.0011248552 -0.0026298107 0.055188473 0.12664318
000020 16 78 5d bd e6 c3 5d bd 14 1e b5 bc 47 6e 90 3d
       -0.0540696 -0.0541419 -0.022109069 0.07052284
000030 cb 4e 81 3c 68 a2 3a bd bb a0 8b 3d a6 0a 29 3d
       0.015784642 -0.04556504 0.06817766 0.04126992
000040 8e 77 cc 3c b1 2e 25 3d f9 09 fe bb 9b 95 03 bc
       0.024959352 0.04032773 -0.0077526537 -0.008031274
000050 64 39 3d bd 4f e1 9e bc 32 e5 07 bd 95 fb d4 3c
       -0.04619731 -0.019394545 -0.033177562 0.02599887
000060 1c 87 0a 3d 16 a4 2c bc b3 9d 99 3c 74 26 5a bd
       0.033820257 -0.010537168 0.018751955 -0.053259328
000070 f7 cd 85 bc 98 57 96 3c 04 f9 5b 3b 38 37 a1 bc
       -0.016333563 0.018352315 0.0033565173 -0.01967965
000080 c1 88 ec 3c f2 71 7d bb bd ed 01 bc f2 91 57 3d
       0.028873803 -0.0038672653 -0.007930216 0.05262942
000090 3a 19 db 3c ad d8 51 3d bc fd 84 3d 35 f7 57 bd
       0.026745427 0.05123203 0.064937085 -0.05272599
0000a0 40 e1 38 bd ca 7a b9 bb 30 26 75 bc 12 f8 6f 3d
       -0.04513669 -0.0056603896 -0.014962718 0.058586188
0000b0 b0 9d 75 bd 10 f6 8a 3c 8f 96 2f bd 6e d6 01 3d
       -0.059964836 0.016963035 -0.042868193 0.031698637
0000c0 55 ee 93 3a 4a 7c b7 bc 44 ef 7a 3a eb 36 57 bd
       0.0011286238 -0.022398133 0.00095723965 -0.05254261
0000d0 ec 85 87 bd 02 82 87 bd 47 0a fe bc ae bf 0c 3d
       -0.066173404 -0.06616594 -0.03101076 0.034362487
0000e0 31 f5 eb bc 1f f9 fd 3c f0 5e 4d bb 73 bd ba bc
       -0.02880344 0.03100258 -0.0031337105 -0.022795415
0000f0 3d 4f 43 3d 9a 61 c4 bc d8 18 83 3c 2d c9 fe 3c
       0.04768299 -0.023972321 0.016003057 0.031101787
000100 32 af 1e bb c8 3e 04 3d 4e da 6d bd 15 24 42 3d
       -0.0024213311 0.032286435 -0.05806952 0.04739769
000110 67 3d 9b 3d f9 69 61 3c e9 96 18 bd ca 8c 8e 3c
       0.07580071 0.013758176 -0.037253294 0.017401118
000120 aa 23 88 3d d6 8d 6f 3c 43 ca 6c 3d de 67 87 bd
       0.066474274 0.014621219 0.05781008 -0.06611608
000130 e9 ed eb 3c 96 8e 07 bd 94 0b 84 bc 44 6a 81 3c
       0.028799968 -0.033094965 -0.016118802 0.015797742
000140 61 88 e7 3c c8 3c c4 3d 60 8c 4e bd 8b 15 99 3d
       0.028263273 0.095819056 -0.05042684 0.07474812
000150 2f d2 01 3c 34 60 b7 bb 08 3f 61 3d d8 95 ec 3c
       0.007923647 -0.005596185 0.054991752 0.028880045
000160 66 37 7c 3c 9e 19 6b 3d aa 56 85 bc 5c 14 fb 3d
       0.015394067 0.057397477 -0.016276676 0.122597426
000170 cc 14 f3 3c 17 03 31 3d 08 88 62 bc 1b 60 da 3a
       0.029673003 0.043215837 -0.013826378 0.0016660722
000180 78 8f e6 3a fc 04 02 bd ba 7d 18 bd b5 be a2 bd
       0.0017590364 -0.031743035 -0.037229277 -0.07946531
000190 44 c9 59 3c 78 87 78 3c 6b 4f a1 3c 04 ca 6d 3d
       0.013292614 0.015169017 0.01969119 0.058053985
0001a0 5a 78 de 3c ae f8 9f bc 41 1d 69 3b 22 20 86 3d
       0.027156997 -0.01952776 0.0035570415 0.065490976
0001b0 f7 9f 02 bc 28 e6 be bc e0 14 3c 3c b4 0d 92 bd
       -0.007972709 -0.023303106 0.011479586 -0.0713152
0001c0 f4 fb 0f bd 1b f0 d0 3b c7 66 24 3c 44 1f 4f 3c
       -0.03515239 0.006376279 0.01003427 0.012641732
0001d0 fb 05 1c 3b 4e 88 8a 3c b4 7c b9 bb 34 62 fe 3c
       0.0023807276 0.016910698 -0.0056606177 0.031052686
0001e0 76 0d 38 3d ab b0 46 3d 16 d3 c7 3c 7b c5 45 bc
       0.044934712 0.048508327 0.024392646 -0.012071009
0001f0 cb 3c 0e 3c 36 04 c1 3c 35 b4 bc 3c 2a d6 2d 3b
       0.008681486 0.023561578 0.023035148 0.0026525357
000200 a6 52 0f 3d 54 27 d7 3c 4f 82 12 bd db 52 97 bd
       0.03499093 0.02626387 -0.035768803 -0.0738885
000210 56 ae 66 bd 00 27 42 bd 7c 5d 00 3d 9c 75 88 bd
       -0.056318603 -0.047400475 0.031339154 -0.06663057
000220 c4 f0 0d 3d 62 72 23 3a 87 08 c7 bc 6d 3b 24 bb
       0.03465344 0.0006235001 -0.024296058 -0.0025059835
000230 50 34 27 3c 15 b2 dd bc ed 74 ab bc 09 46 1c ba
       0.010205343 -0.027062455 -0.020929778 -0.0005961364
000240 b0 13 d9 bc a7 99 19 3d e3 0c 8e bd f3 63 fc bb
       -0.026498646 0.03750005 -0.06936052 -0.0077023446
000250 41 bd 83 3c 48 1b 19 3d 9d dd 38 3c 50 3c 79 bc
       0.016081454 0.037379533 0.0112833055 -0.0152121335
000260 1e 0b 2f 3c b2 09 9e bc 54 0f da 3c bb 40 11 bd
       0.010683803 -0.019291732 0.026618637 -0.035462122
000270 c5 a3 80 3d 3b 67 49 3c 34 05 2a 3d 51 31 4c 3d
       0.062812366 0.0122926785 0.04150887 0.04985172
000280 27 62 f2 bc 65 ce cc 3c ff 49 04 3c 0b d3 61 3b
       -0.029587818 0.02500076 0.008074283 0.0034458067
000290 56 fa 23 3d 3a d0 13 3d 1d 24 83 3d 53 d8 11 bc
       0.04003366 0.036087252 0.064033724 -0.008901673
0002a0 d3 32 cd 3c 43 8c e5 3b e1 80 3a bd 3f e8 0e 3d
       0.025048649 0.007005246 -0.045533065 0.034889456
0002b0 f0 39 17 bd 7d 43 1d 3c c0 19 0d bc da 58 6f bb
       -0.036920488 0.00959861 -0.008612096 -0.0036521466
0002c0 0c 11 78 bd 04 dd c0 bc 26 a4 ee 3c 7a b8 97 3c
       -0.060563132 -0.023542888 0.029131006 0.018520582
0002d0 f5 ac 12 3c 55 1e bb 3c 8f 09 ec bc 2a 13 c9 ba
       0.008952369 0.022841612 -0.028813152 -0.0015340794
0002e0 87 48 bb 3d b9 3b 87 b9 64 0b 33 39 eb 35 37 3b
       0.09144693 -0.00025793703 0.00017075014 0.0027955722
0002f0 db c9 84 bc 95 53 ea 3c fd ca d0 3c 18 32 90 bc
       -0.016209533 0.028604308 0.025487417 -0.017602012
000300 7c 81 e1 bc f7 22 ae bc bb e7 72 bd 8b 24 4c bd
       -0.027527563 -0.021256907 -0.059303027 -0.049839538
000310 1f 84 a3 bc 88 1e a6 bd 8d 85 3e bd e5 b7 2d bd
       -0.019960461 -0.08111292 -0.046514083 -0.042411704
000320 90 54 33 bc d6 6c 95 3d 40 19 dc 3c 95 a2 7b 3d
       -0.010945454 0.072961494 0.026867509 0.061434347
000330 7a 56 35 3d 5e 71 2e 3c f3 69 22 bd bb bb 5e 3d
       0.044271924 0.010647146 -0.039651822 0.054378252
000340 d8 b4 2e 3d 72 4c f9 bc 57 f6 01 3e 82 9d 28 bd
       0.042652935 -0.03043196 0.12691627 -0.041165836
000350 29 36 33 bd 5b 53 84 3d c9 be 74 bc 57 9d 40 bc
       -0.043752823 0.06461211 -0.014938065 -0.011756263
000360 ab 11 f1 3b 87 3e 81 3d 77 4e b0 3c b3 d4 04 bd
       0.0073568425 0.06310754 0.02152179 -0.03242941
000370 a9 80 84 3c e4 82 ca 3d b2 3e 20 3a c5 ce f4 3c
       0.016174631 0.09888247 0.0006112858 0.029883752
000380 59 a5 80 3a 51 23 b7 3c 35 3a 92 3d fa 57 8b bc
       0.0009814902 0.022355707 0.07140008 -0.017009724
000390 4b 7d 24 3d 51 30 ab 3a 3a c6 60 3d 0c 8e e1 bc
       0.04015855 0.0013060664 0.054876544 -0.027533554
0003a0 cc e6 13 3c 61 be 49 bd b5 97 13 3d e9 29 47 bb
       0.009027194 -0.049253825 0.03603335 -0.003038997
0003b0 5c 48 0a bd 7a 9b 4c 3d 00 d2 9d bb 0d 22 cc bc
       -0.033760414 0.04995296 -0.0048162937 -0.02491858
0003c0 1a b2 1a 3d 83 91 28 bd b0 c2 3d 3d 88 0a 8e bd
       0.037767507 -0.041154396 0.046328247 -0.069356024
0003d0 8c 0f 3e bc 05 8c 76 3d ca 58 84 bc 29 1b 54 bc
       -0.011600386 0.060192127 -0.01615562 -0.012945929
0003e0 92 4f e8 3c 69 e3 d8 3c 8c 57 bf 3c 77 c0 75 bc
       0.028358255 0.026475625 0.023357175 -0.0149995005
0003f0 91 72 ab bd 4a ce ae bc db 3f a3 bc 8f 4d 09 3e
       -0.08371461 -0.0213386 -0.01992791 0.13408493

model.2.bias f4 [256]
000000 a0 17 54 3e c6 3c 4b 3e d1 b0 61 bd 72 d6 24 bc
       0.20712137 0.19847402 -0.055100266 -0.010060893
000010 36 08 ee 3c 6c 4f e5 3d 50 ef 22 3e a2 a0 d6 bd
       0.02905665 0.11196789 0.15911603 -0.10479857
000020 62 e0 2c 3e d5 76 e8 3d bc 31 0d 3e 6d 87 e1 bd
       0.1688247 0.113507904 0.13788503 -0.110121585
000030 56 84 43 3e 4f 6a de bd 23 81 17 be 0c 55 93 bc
       0.19093451 -0.108601205 -0.14795355 -0.01798489
000040 f7 76 ec bd 1c 66 4d 3d af 0b 17 be db fe 08 be
       -0.11546128 0.050146207 -0.1475055 -0.1337847
000050 02 ed 27 be 62 73 60 bd 9d f5 1c 3e a6 fa 2d be
       -0.16399005 -0.054797538 0.15328069 -0.16990146
000060 9a 7b a8 bd 4a 25 66 3e cb 61 02 3e b8 cb 37 3e
       -0.082267 0.22475162 0.12732618 0.17948806
000070 6a c9 f0 bd 52 35 5d be ca 2a 3a 3d 74 a7 4b 3e
       -0.11757167 -0.21602371 0.045450963 0.19888097
000080 b8 d9 2c 3d 8d 5b c9 bd cd 48 4b 3c 9b 29 21 be
       0.04219982 -0.09831915 0.012407494 -0.15738527
000090 3b 93 ee bd f0 da a2 3d 2e ad a2 bd c8 dd 50 bd
       -0.11649176 0.07951915 -0.07943188 -0.050992757
0000a0 db ba dc bd 33 52 16 be 05 a7 43 be 42 d7 a9 b9
       -0.10777827 -0.14679794 -0.19106682 -0.00032394571
0000b0 9b f6 10 3e 64 b1 a7 bc 77 0a 0f be ed 40 b1 bd
       0.14156573 -0.020470329 -0.13968836 -0.08654962
0000c0 83 bb be 3d f1 6f e4 3d 42 a1 96 3b 6e 62 48 3e
       0.09313109 0.11154164 0.00459686 0.19568798
0000d0 90 e8 0c be 4c c7 3f 3c 56 22 21 3e 53 18 24 3e
       -0.1376059 0.011705231 0.15735754 0.16024904
0000e0 54 a2 62 bd a6 a1 0d 3e a6 91 e1 bd 4a 7b 32 3e
       -0.05533059 0.13831195 -0.11014108 0.17429844
0000f0 af b3 dc 3b 57 c5 28 3e a2 a0 a5 3d a0 30 23 3b
       0.006735287 0.16481529 0.08087279 0.002490081
000100 d0 60 29 be 02 e4 d1 bd be 78 15 3e d3 7c 9a 3d
       -0.16540837 -0.10248567 0.1459684 0.075433396
000110 f2 44 6c bd f8 9b be bd 6d 3c 12 3e 3b 17 96 bd
       -0.05768294 -0.093070924 0.14280863 -0.073286496
000120 89 e8 09 bd 41 95 30 3e c9 36 32 3e b9 56 df 3d
       -0.03366903 0.17244436 0.17403711 0.10905213
000130 eb d6 8f bd 34 6d 2e 3e 9f f0 f9 3d 5c 22 fe 3d
       -0.07023414 0.17033845 0.12204098 0.12408897
000140 00 55 52 bd 1a e3 5f 3e de 81 b3 bd 7c 8b 22 3e
       -0.051350594 0.21863976 -0.087650046 0.15873522
000150 20 bd 12 3e 9a 77 a0 3c 27 c5 26 3e c0 f9 8e bd
       0.14329958 0.01958828 0.16286145 -0.0698123
000160 4d bc 92 bd 1f 78 f4 bd 09 17 db bd ef 41 f0 bd
       -0.07164822 -0.11936974 -0.10697753 -0.11731326
000170 76 01 11 bd 98 46 02 3e a0 86 20 3e 6b 68 b0 bc
       -0.035401784 0.12722242 0.15676355 -0.021534165
000180 ce dc e2 3b 32 93 d0 bd 68 1a db bd 9d 48 60 3e
       0.0069232946 -0.10184325 -0.10698396 0.219027
000190 9e 71 1a 3e 57 39 af 3d 04 fe ca 3c b4 4c 2d be
       0.15082404 0.085558586 0.024779327 -0.16923791
0001a0 3a b3 31 3e 2b 06 e4 bd 95 66 47 3e b8 70 e3 3d
       0.17353526 -0.11133989 0.19472726 0.11105484
0001b0 43 69 b9 bd 3d 3e 0f 3e 31 3e 22 be 7e a3 e4 bd
       -0.0905328 0.13988586 -0.15844037 -0.11163996
0001c0 90 85 4a be bc ec 29 3d 55 1a db 3d 90 88 dc bd
       -0.19777513 0.041485533 0.10698382 -0.10768235
0001d0 92 04 3e 3d 1f 7d 2c 3d 5f 09 b9 bd 24 31 2b 3e
       0.046391077 0.042111512 -0.090349905 0.16717964
0001e0 4e 3b 3d 3e 3a 1a 4a 3e d6 ed ad bd 1c ff 74 3d
       0.18479654 0.19736567 -0.08492629 0.059813604
0001f0 23 a1 37 be 22 19 39 3e 2f ad 0c 3e f4 77 2d be
       -0.17932563 0.18075994 0.1373794 -0.1694029
000200 37 14 8f bd e1 d2 06 be 91 4b e7 bd e2 11 45 3e
       -0.069862776 -0.13166381 -0.1129371 0.19245103
000210 ad 0c 08 3e 84 c7 36 be df 27 2a 3e 89 e0 0a 3e
       0.13286085 -0.17849547 0.16616772 0.13562216
000220 12 3a f8 bd 24 88 ef bd 60 4e 35 3d f5 89 2b be
       -0.12120451 -0.11695889 0.044264197 -0.16751845
000230 c6 8f 77 3e 87 a4 54 be 53 1e 23 be 10 da c2 39
       0.24175939 -0.20765887 -0.15929537 0.00037165033
000240 7d 42 85 bd 60 2f 16 be 52 5f c7 bd c5 54 6b 3e
       -0.06506822 -0.1466651 -0.09734978 0.22981556
000250 2f e6 53 3d 29 34 38 3e 9c b4 40 be cd 29 3d be
       0.051733192 0.17988648 -0.18818897 -0.18472977
000260 9f df f3 3d 20 de 1c be ce f8 21 3e a7 77 66 bd
       0.11907887 -0.15319109 0.15817568 -0.056266453
000270 19 70 c2 3d 4c fb 0c be 38 94 87 bd ed 2a 28 3e
       0.09494037 -0.13767737 -0.06620067 0.16422625
000280 7e d9 7c bd 9c 99 38 3e 44 8b da 3d e1 3a 6a 3d
       -0.061730854 0.18027347 0.10671094 0.057185058
000290 4d 4b 22 be dc de 2b 3e 12 2e 0b 3e 0f 73 17 3e
       -0.15849037 0.16784233 0.13591793 0.14789985
0002a0 af 9c 38 be 5d ab a7 bd c9 10 8d 3d 7e 86 0c be
       -0.1802852 -0.08186982 0.06887967 -0.1372318
0002b0 a3 e0 3d 3e 18 2b 83 3d 20 6b 31 3e 84 05 73 3d
       0.18542723 0.06404704 0.17326021 0.059331432
0002c0 7a 1e b0 3d 7e 1f f0 bd 6d 7b 4a 3e 71 9f 3a be
       0.08599563 -0.11724757 0.19773646 -0.18224885
0002d0 55 99 45 3e 4b 32 f9 bd 1b 1c 40 3e 61 50 fe 3d
       0.19296773 -0.12167796 0.18760721 0.12417675
0002e0 b8 3e 2c 3e d9 f3 4a 3e 25 82 0a 3e 2a 4f 3a 3e
       0.168208 0.19819583 0.13526209 0.18194261
0002f0 24 98 b4 bd bc 17 63 3e 31 84 1c 3e 40 18 5f 3e
       -0.08818081 0.22177023 0.15284802 0.21786594
000300 a3 ff 33 be fd 92 10 be c8 39 b0 bc 45 84 94 3d
       -0.17577986 -0.14118572 -0.021511927 0.07251791
000310 15 39 7d bd 07 76 63 3e 6e a2 e6 bd 11 c1 27 be
       -0.061822016 0.22212993 -0.1126145 -0.16382243
000320 ec 9e 4c be 78 03 2f bc d6 4d 52 3e 96 2e f3 bd
       -0.19982499 -0.010681979 0.20537505 -0.1187412
000330 ca 48 d8 bd 41 73 a8 bd 9c 97 db bd eb 0d 42 3e
       -0.105607584 -0.08225108 -0.107222766 0.18950622
000340 c0 aa 10 be 96 0a 24 3e 32 1d 27 3e ca 11 12 3e
       -0.14127636 0.16019663 0.16319731 0.14264598
000350 d3 c0 58 3e 95 b3 f8 3d c5 d8 39 3e 9d 8f 06 bc
       0.21167307 0.121436276 0.18149097 -0.008212951
000360 47 d8 37 be f0 5b 18 be a0 24 0e be 75 d3 c9 3d
       -0.17953597 -0.14878821 -0.13881159 0.09854785
000370 5b 40 9d bd e7 ff 16 be 51 28 d4 3d 6d 46 d4 bd
       -0.076782905 -0.14746056 0.10359252 -0.10364995
000380 6f 19 0a be c7 65 c2 bd 42 d2 47 3d 26 97 12 3e
       -0.13486265 -0.09492069 0.0487845 0.14315471
000390 ba d3 5d 3e 33 49 90 bd 43 7b 05 3e 55 ef fd 3d
       0.21662799 -0.07045212 0.13035302 0.123991646
0003a0 02 7c 08 3e 5f 69 61 bd 76 e9 c0 bd 86 33 23 be
       0.13328555 -0.05503213 -0.09419529 -0.15937623
0003b0 b8 3a a4 bd f2 45 aa bd 6a fd 17 3e 7e cf c4 bd
       -0.08019012 -0.08314122 0.14842764 -0.096098885
0003c0 b7 f8 aa bc 26 83 30 bc 23 79 3f 3e 82 fe ba 3d
       -0.02087055 -0.010773456 0.18698554 0.09130575
0003d0 91 7c f4 bd ce 44 f0 bd 65 4c 38 3e 08 fd 0b 3e
       -0.11937822 -0.117318735 0.17997892 0.13670743
0003e0 9f 86 00 bd e8 25 8a 3c 7c f6 84 3d 67 72 88 3d
       -0.031378385 0.016863778 0.06492326 0.066624455
0003f0 e0 81 b5 3d 86 39 24 be 1c 58 b6 bd 97 22 08 3e
       0.08862662 -0.16037568 -0.08903524 0.13294445

model.4.weight f4 [128, 256]
000000 6f 75 bf 3c ae 34 7a 3d 23 ef 50 3c dd 83 f1 ba
       0.023371426 0.061085396 0.012752327 -0.0018426139
000010 b0 2f 59 3b b8 1c 67 3d d1 0f f9 bb cb 9c 05 bd
       0.0033139996 0.056423873 -0.0076007624 -0.032620233
000020 cf 3f 38 3d c6 5b 24 3d 37 74 dd 3c 6d 93 e6 bb
       0.044982728 0.040126584 0.027032955 -0.0070366175
000030 b2 11 89 3d f4 d9 cb bc d3 76 91 bd 30 27 84 3d
       0.06692828 -0.024884202 -0.07102742 0.06452787
000040 35 55 7d bd 46 81 eb 3c 6d da 16 bd e8 61 03 bd
       -0.061848838 0.028748166 -0.0368294 -0.032075793
000050 70 16 ca 3c 95 56 07 bd d4 f3 85 ba 97 4b 13 bd
       0.024668902 -0.033041555 -0.0010219761 -0.03596076
000060 b8 0f 56 bd 7e 18 81 3d e3 65 11 3d 58 f6 93 bc
       -0.052261084 0.063035 0.035497557 -0.018061802
000070 ff 06 90 3c 5e 66 33 bd 78 0c 70 bd 2c 22 57 ba
       0.017581461 -0.043798797 -0.05860564 -0.0008206691
000080 06 1e 5e bd 76 f7 0c bc 5b 4e 94 bd 62 72 f3 bc
       -0.05422785 -0.008603921 -0.072415076 -0.029717628
000090 79 db 98 bd 8c 6f 2b 3d 95 19 2e 3d 82 84 fe bc
       -0.07463736 0.041854426 0.042504866 -0.031069044
0000a0 75 02 34 3b d3 20 23 3d b9 8f 65 3b 4c 5c 83 bc
       0.0027467285 0.039826225 0.0035028292 -0.016035222
0000b0 5e bd fc 3c f1 65 73 bd d0 2c 33 3d 1a fe 17 3d
       0.030852016 -0.05942339 0.04374391 0.037107565
0000c0 f7 a0 c9 bc c6 13 90 3c 37 4f 0e 3d 05 49 ec 3d
       -0.024612887 0.017587554 0.034743514 0.11537365
0000d0 6d 87 62 bc bf 27 9b bb 38 4f 6b bc 4d 15 03 bc
       -0.013826233 -0.0047349627 -0.014362149 -0.008000684
0000e0 70 21 1f bd 63 1a ce 3c 16 06 4a 3d b8 8e de 3b
       -0.038850248 0.025159067 0.04932221 0.0067919157
0000f0 66 1d 10 3c d9 d5 6d 3c c9 9b c3 bc 90 3b 23 3d
       0.008796072 0.014516317 -0.023877995 0.039851725
000100 28 d8 a9 bb 5a 23 1a bc 41 27 18 3d 0f 0b 2b 3d
       -0.0051832385 -0.0094078425 0.03714681 0.041758593
000110 8e 8a 9c 3d 10 b8 b2 3b b8 5d 81 3d 20 8e c5 3c
       0.07643615 0.005454071 0.063167036 0.024115622
000120 e4 c1 20 bd d3 88 44 bd d5 70 84 bd 89 c1 56 3d
       -0.03924741 -0.04798205 -0.064668335 0.052430663
000130 92 fc 11 bd 3e fa 94 3c 7d 94 54 bc 28 89 3a bd
       -0.03564126 0.018185731 -0.0129748555 -0.04554096
000140 8c c8 29 3d 6c 43 2a 3d ac cc 62 bd 58 83 06 3b
       0.041451022 0.041568205 -0.05537097 0.0020525064
000150 fe 82 6f 3d 4e 08 30 bd 96 d6 36 bd 3c 69 62 3d
       0.058474533 -0.04297667 -0.04463824 0.05527614
000160 56 84 ac bc 93 f8 7f bd 2f 14 42 3b 67 f8 2d bd
       -0.021059196 -0.06249292 0.002961408 -0.042473223
000170 66 41 c7 3c 77 63 81 3d e4 22 5a 3d b2 f0 0a 3d
       0.024323177 0.063177995 0.05325593 0.03392095
000180 7f f2 39 3d 6e fb 60 3d 04 5a bf 3c 67 65 18 3d
       0.045397278 0.054927282 0.023358352 0.03720608
000190 76 a8 d1 bc 82 a7 02 bd 6f 83 9c bd 8e a3 ba bd
       -0.025593024 -0.03189803 -0.076422565 -0.09113227
0001a0 da 73 e6 3c cb 86 59 bd 22 a5 f2 3c a0 ae 02 bd
       0.028131414 -0.053107064 0.029619757 -0.031904817
0001b0 bd ae 91 bc 44 96 bc 3b 81 a6 cc 3a cc 65 e8 3c
       -0.017783517 0.0057552177 0.0015613587 0.028368853
0001c0 94 63 e6 bc e2 dc 1e bd 90 02 68 bd 31 ca 45 bd
       -0.028123654 -0.03878487 -0.05664307 -0.048288528
0001d0 70 bd 20 bd ad a8 91 bc 7a 26 28 bc 39 bd bc bc
       -0.03924316 -0.017780626 -0.01026308 -0.023039447
0001e0 b8 c5 8f 3d 18 5d 77 3d 22 3a c8 3c 5f 5e 71 3a
       0.07020134 0.060391515 0.024441782 0.0009207483
0001f0 04 42 cf bc c6 12 24 bd 0e 38 36 3d 1d 9a 49 3c
       -0.025300033 -0.040056966 0.04448705 0.01230481
000200 37 f6 d0 3c a0 a9 f3 bb a2 0b f7 bc 69 0c 5a 3c
       0.02550803 -0.0074359924 -0.030156914 0.013308623
000210 a1 e2 08 bd ba 3e e2 bc b5 20 14 bd d8 0c 27 3d
       -0.033419255 -0.027617801 -0.036164004 0.040783733
000220 9e 2f a0 3b 28 08 46 3c 3c 15 80 bb 53 8a 31 bc
       0.004888489 0.012086906 -0.0039087813 -0.010836202
000230 32 24 69 3c 8b 48 5c bd 7d f6 fe bc 83 4f 82 bd
       0.014229821 -0.05378012 -0.031123394 -0.06362822
000240 58 1d 23 bd 24 09 85 ba 7f 88 85 bd 2e 8b ec 3d
       -0.039822906 -0.0010149819 -0.06520175 0.11549984
000250 3f 9b 78 3c a0 c5 81 3d 7f 4c 85 bd f5 8d c5 bc
       0.015173732 0.06336522 -0.06508731 -0.024115542
000260 89 61 2c 3d bc 2d 5e 3d cf d7 4c 3c 9e 36 3a bd
       0.042085204 0.054242834 0.012502625 -0.045462243
000270 02 65 67 3d 95 d7 79 bd 39 3d ff bc 6c 9b 10 3c
       0.056492813 -0.06099661 -0.031157123 0.008826118
000280 8e 1d 08 bd 15 66 83 3d 3b 33 f3 3a 7d e9 07 bd
       -0.03323131 0.06415955 0.0018554697 -0.033181656
000290 61 ee 4e bd 31 68 80 3c ea 74 36 bd f6 bd 64 3d
       -0.050520305 0.015674682 -0.04454509 0.055845223
0002a0 cc 71 48 3d 5e 63 04 bd 78 79 72 bc 84 00 29 bc
       0.04893665 -0.032321326 -0.014799468 -0.010315064
0002b0 0d 51 89 b9 59 00 04 3c f8 52 27 bd cf 7a 94 bc
       -0.00026191064 0.0080567235 -0.04085061 -0.018124966
0002c0 3b fa 81 bd ab 1a 3d bd 77 2b b8 bb ed 36 46 bd
       -0.06346556 -0.04616801 -0.005620416 -0.048392225
0002d0 24 1a 53 3b da cb f7 bc 53 dc 99 3d 4c 51 49 3d
       0.0032211626 -0.030248571 0.07512727 0.049149796
0002e0 4d 0b e5 3c a5 20 ad 3d 89 01 4d bc 50 d9 59 bd
       0.02795949 0.08453492 -0.012512573 -0.05318576
0002f0 d4 ad 9d bc 13 9f e3 3d f5 be c7 3b f3 4f 0b bd
       -0.019247927 0.111143254 0.006095762 -0.034011792
000300 e5 da d7 3b 88 b3 2d bd c5 9b dc 3c 3e d9 95 3c
       0.0065873736 -0.042407542 0.026929745 0.018292066
000310 57 e5 4e 3b da f6 f0 3c 47 70 60 3c 72 98 0d bd
       0.0031569803 0.029414583 0.013698644 -0.03456921
000320 79 21 50 bc 24 88 da bc eb 64 95 3d c6 7c 6d 3c
       -0.012703293 -0.026676245 0.07294639 0.01449508
000330 97 c7 cd bb 38 2d 26 3d 84 64 60 bd a3 54 9d 3c
       -0.0062798965 0.040570468 -0.05478336 0.019205397
000340 fc 5e 2c 3c a8 e0 f9 3b 65 b2 2f b9 57 9b 23 3d
       0.010520693 0.007625658 -0.00016755758 0.039943065
000350 09 4e 06 bc 88 75 8b ba 5d a6 f7 bb e9 8a 9b 3d
       -0.008197316 -0.0010639885 -0.007557674 0.075948544
000360 5b c2 17 bd 3b 57 79 3c 2d 4f a2 3b 2f 24 58 3d
       -0.037050586 0.015218551 0.004953286 0.052768882
000370 b9 98 3c 3b f4 b4 4f bd 11 7e 43 bc 27 a8 78 bc
       0.0028777553 -0.05070968 -0.011931912 -0.015176809
000380 c9 9f 05 bc b2 4e 98 bd f0 82 54 bd 43 8b 6a 3d
       -0.0081557715 -0.07436885 -0.051882684 0.057261717
000390 a2 a1 55 3d 5f 47 b8 3c b8 5a ea b9 59 83 b9 bc
       0.0521561 0.02249497 -0.0004469955 -0.02264564
0003a0 a0 68 af bd 39 82 07 bd 1d a0 18 bd 80 88 7d bc
       -0.085648775 -0.033083174 -0.03726207 -0.015474439
0003b0 88 f1 d1 3c f5 8a 62 bc c7 b1 76 bc fb 82 62 3d
       0.025627866 -0.013827075 -0.015057034 0.055300694
0003c0 66 6a 43 bd b3 91 fa bb b2 1a bc 3c 51 93 d8 3c
       -0.04770889 -0.007646763 0.022961948 0.026437433
0003d0 ce 14 3b bd a9 02 2a bd 35 e9 61 3d 31 64 13 bd
       -0.045674138 -0.041506443 0.055154044 -0.03598422
0003e0 28 9a 2b 3d 11 3d c8 3c 6c 17 57 3c e2 18 30 3c
       0.04189506 0.024443181 0.013128143 0.01074812
0003f0 ec 70 71 3d c0 ea 86 bc e0 fb f6 3c c5 a0 33 3c
       0.05894558 -0.01646936 0.0301494 0.010963623

model.4.bias f4 [128]
000000 08 75 d5 3d 4c 8a ca 3d 8e 47 0f be c4 64 e1 3d
       0.104227126 0.09889659 -0.1399214 0.11005548
000010 65 cb ea 3d 69 f8 22 3e 5f bf 34 3e 7c 6c dc 3d
       0.11464576 0.15915073 0.17651127 0.10762879
000020 83 f3 c3 bd 8b b1 ef 3d 6c c4 2d 3e e7 d3 1d 3e
       -0.095679305 0.117037855 0.1696946 0.15412866
000030 85 b9 a0 3d 3e 80 0f 3e e4 39 fd 3d 85 b5 11 3e
       0.07847885 0.14013764 0.123645574 0.142294
000040 b9 95 e5 3d 19 30 23 bd 2d fb 28 3e 1a 75 c6 3d
       0.11210198 -0.03984079 0.16502066 0.09690304
000050 45 a0 0d 3e dc 7e 2c 3e 38 77 a8 3b 49 9c e1 bd
       0.13830669 0.16845268 0.005141165 -0.11016137
000060 cc fe 38 bd c5 45 cd 3d 48 70 f6 bd 34 8a 87 bd
       -0.04516487 0.10023073 -0.12033135 -0.06618157
000070 92 f2 d7 bc e2 5d 1e 3e c9 a7 ef bc d7 79 05 be
       -0.026360784 0.15465501 -0.02925481 -0.1303476
000080 61 18 07 3e a2 29 f6 bd 9b 4f bb bc 4f 93 38 3b
       0.13192894 -0.120196596 -0.022865107 0.0028163975
000090 df 38 a5 bd c0 ce 27 bd 2b dc 35 3e f4 c3 a6 3c
       -0.08067488 -0.040968657 0.17759769 0.02035711
0000a0 75 8c 1d 3e da a4 ec 3d 03 8a d5 3d 3e a3 15 3e
       0.15385611 0.115548804 0.10426714 0.14613053
0000b0 51 b9 b7 bc c0 6d dd 3d bf 67 3a bb ab ad 12 39
       -0.022427233 0.10811949 -0.0028443185 0.00013988341
0000c0 f7 4a cf 3d c6 93 dd 3b 9e 61 b5 3d 1f ed 00 3e
       0.1012172 0.0067620007 0.088565096 0.12590455
0000d0 dc 07 ab 3d 6d aa cd bb 16 c4 79 bd f9 0e 11 3e
       0.083511084 -0.00627642 -0.060978018 0.14165868
0000e0 6d 0e c1 bd 50 09 cc 3d e6 88 c8 3d ad c8 b9 3d
       -0.094265796 0.09962714 0.09791736 0.09071479
0000f0 54 7f 0c 3e 71 cf 38 be 22 95 35 3b 2c 81 9d bd
       0.13720447 -0.18047883 0.0027707298 -0.07690653
000100 91 5d 32 bd 85 bd d6 bc 10 d3 94 bb 92 e4 5f bd
       -0.043546263 -0.026213417 -0.004541762 -0.05466134
000110 42 d3 dc 3d 5b 77 c4 bd a8 90 bf bd f9 15 1f 3e
       0.10782482 -0.09593078 -0.09353763 0.15535726
000120 31 d5 07 3e c9 0f 24 3e 42 c9 2d bd 6a 39 e3 3d
       0.1326492 0.16021647 -0.042428263 0.11094935
000130 46 d0 02 be 96 ad e8 bd 0a e2 f6 3d b5 83 09 3e
       -0.12774763 -0.11361234 0.12054832 0.13429148
000140 bb 88 01 3e 48 17 d4 bc fa 80 d4 3d c1 f6 d6 bb
       0.12649815 -0.025890008 0.10376163 -0.006560177
000150 e7 98 92 3c 91 d4 05 be da a1 a2 3b a5 16 e9 3c
       0.017895175 -0.13069369 0.004963142 0.02845318
000160 37 a0 31 3e ec bb c7 b9 5f d4 cd 3d ad 8c 13 be
       0.17346273 -0.0003809625 0.10050272 -0.14409132
000170 f6 41 15 3e b2 51 f7 bd b5 d9 dd bd 08 89 08 be
       0.14575943 -0.12076129 -0.1083254 -0.13333523
000180 31 e5 ad bd b3 ff 0d bd 3d a1 76 bd e6 b7 76 3d
       -0.084909804 -0.034667682 -0.060212363 0.060233973
000190 3b 98 f1 bd ad 2c 1c be 94 c4 cc bd 5f 99 97 bd
       -0.11796614 -0.15251417 -0.09998432 -0.074023
0001a0 c2 c1 6e bd 77 59 1d 3e 57 48 d8 3d b2 86 07 3e
       -0.05829025 0.1536616 0.10560673 0.13234976
0001b0 50 67 f0 bd 64 99 02 3e ed 61 a5 bd b4 40 00 3e
       -0.11738455 0.12753826 -0.080753185 0.12524682
0001c0 31 08 23 3e 57 8d 11 be 5d 20 a7 bc ab 64 87 bd
       0.15921094 -0.14214073 -0.020401174 -0.06610998
0001d0 dc bb 44 3e 38 92 cb bd a9 78 57 3e 10 e9 2a 3e
       0.19212288 -0.099399984 0.21042122 0.16690469
0001e0 1b 9f 2e bc b5 c1 23 be 19 62 a9 3d 8e c6 ee bd
       -0.010658051 -0.15991862 0.08270664 -0.11658965
0001f0 ee 7d 05 3e 78 14 0e 3e 04 58 13 3e 60 7d 10 3c
       0.1303632 0.13874996 0.14389044 0.008818954

model.6.weight f4 [1, 128]
000000 ee 35 ae bd 10 a5 34 bd 7e c5 c0 3d e7 0a 3e bb
       -0.0850638 -0.04410273 0.09412669 -0.0028998198
000010 00 f4 29 bd de 2b b0 bc 43 76 0b be 14 ad 46 bd
       -0.041492462 -0.021505293 -0.13619332 -0.048504904
000020 51 ff e1 3d 10 39 a9 bd e5 a3 f3 bd 3e a6 a4 bd
       0.11035026 -0.08262837 -0.11896495 -0.08039521
000030 ad c6 b4 bd d4 71 93 bd 03 05 9f bd 1c 01 51 bd
       -0.08826957 -0.07199445 -0.07764628 -0.05102645
000040 2d 4d eb bd ee ea a4 3d b3 56 28 bd 26 73 e7 bd
       -0.114893295 0.08052622 -0.041098308 -0.1130126
000050 b2 30 84 bd cf 1c 21 be 7a f4 07 3d 9f 17 0e 3e
       -0.064546004 -0.15733646 0.033192135 0.13876198
000060 aa 55 64 3d 8e 5a ae bc 73 29 d3 3d e6 5c 5c 3d
       0.055745758 -0.021283414 0.1031064 0.053799532
000070 66 1a 9d 3d 53 ae 82 bc 38 f0 9c 3d da 92 4b 3d
       0.07671051 -0.015952265 0.076630056 0.049700595
000080 86 df f0 bd b6 d2 af 3d b9 ce a9 3c 97 1c c0 3d
       -0.11761384 0.08585112 0.020728456 0.09380453
000090 9c 12 c2 3d 8f ad 96 3d d0 b2 da bd 32 86 00 3e
       0.09476206 0.073573224 -0.10678637 0.12551191
0000a0 8d 95 74 bc f4 56 5f bd 73 df ca bd 91 55 f3 bd
       -0.014928234 -0.054526284 -0.09905901 -0.11881555
0000b0 4d 40 4b 3d b5 7b ab bd f7 09 43 3d d8 75 72 3c
       0.04962187 -0.083732046 0.047616925 0.014798604
0000c0 40 a0 cf bd 8a 8d 2e 39 d1 91 0c bc f5 ae d5 bd
       -0.10137987 0.0001664666 -0.008579687 -0.10433761
0000d0 59 b8 82 bd 4d ef 6f 3d 24 15 1f 3d 4a 9d 29 bc
       -0.06382818 0.058577824 0.03883852 -0.010352442
0000e0 c5 e3 b3 3d 8c 49 ff bd 04 66 ec bd f9 07 ba bd
       0.08783678 -0.124652 -0.115428954 -0.09083552
0000f0 50 8b d2 bd f0 2d 4c 3d fd ee 13 3d ab c0 07 3e
       -0.10280478 0.049848497 0.03611659 0.13257091
000100 10 0e 14 3d f6 25 c2 3d e0 eb 18 3d 14 03 1a 3d
       0.036146224 0.09479897 0.037334323 0.03760059
000110 d0 8d 4d bd 5e 1b 73 3d c9 f3 12 3e 05 25 67 bd
       -0.05018407 0.05935227 0.14350809 -0.05643179
000120 e9 6d db bd af 7c cc bd 40 91 e8 3d 7e 70 be bd
       -0.10714323 -0.09984719 0.11355829 -0.092988
000130 72 fe 32 3d 95 ee 96 3d 01 fa b2 bd d2 53 ea bd
       0.04369969 0.07369725 -0.08739091 -0.11441769
000140 b3 e5 16 bd 0b 7c 50 3d 84 4a dd bd 07 54 c8 3d
       -0.036840152 0.050899547 -0.10805228 0.09781652
000150 65 2a a9 3d 6e 58 8d 3d 76 9f 11 3d 0f 17 50 bd
       0.08260039 0.06901632 0.035552464 -0.05080324
000160 ea b7 e0 bc 7f c7 af 3d 42 99 96 bb 38 52 b6 3d
       -0.027431447 0.08582973 -0.0045959065 0.08902401
000170 65 98 03 be 0e 2e ab 3d cb 02 91 3d fe 07 85 3d
       -0.12851103 0.083583936 0.07080611 0.06495665
000180 93 a0 72 3d 8b 45 57 3d 6a d2 60 3d 56 67 8b bd
       0.059235167 0.052556556 0.054888166 -0.06806819
000190 48 16 af 3d 0a 89 a6 3d 6b 14 3a 3d f5 2f a8 3d
       0.08549172 0.08131607 0.04542963 0.08212272
0001a0 8f 20 c2 3d be 48 f7 bd 33 b0 97 bd f0 5b f0 bc
       0.09478866 -0.12074421 -0.07406654 -0.029340714
0001b0 83 ca 99 3d 8e 1b 19 be 5a 90 4b 3e 7b 65 8b bd
       0.07509329 -0.14951918 0.19879285 -0.06806465
0001c0 4c 18 0f be 78 48 b4 3d cd e7 a3 3c 4a 08 c9 3d
       -0.13974112 0.08802885 0.020007992 0.09816034
0001d0 a3 c0 e0 bc 8b ac a8 3c c3 15 24 bd 65 55 6d bd
       -0.027435606 0.020590087 -0.040059816 -0.057942767
0001e0 25 00 c2 3c 13 c7 b1 3d 97 32 b0 bd 99 76 cd 3c
       0.02368171 0.086805485 -0.08603399 0.025080966
0001f0 ef 43 6c bd 9f 68 a5 bd ea 35 43 bd 8c 6d 4f 3d
       -0.057681974 -0.080765955 -0.04765884 0.05064158
