models/discriminator_epoch_3.pth (torch, 951720 bytes, 7 tensors)

model.0.weight f4 [512, 141]
000000 f4 4c 3e bc 69 6b fd 3a 38 2d 22 3d a9 cf b2 bd
       -0.011615027 0.0019334379 0.039593905 -0.08731014
000010 c7 35 52 bd bd c8 6f 3d 31 7d 25 bd a0 a9 1d 3d
       -0.051320817 0.05854105 -0.040402595 0.038491845
000020 37 c4 34 bd d6 c8 37 bd e3 4c 99 bd c6 19 85 3d
       -0.044132438 -0.044869266 -0.07485368 0.064990565
000030 c7 09 95 bd b0 78 c1 bd 7a 6c 59 bd 25 64 3f bd
       -0.072772555 -0.094468474 -0.053081967 -0.046726365
000040 75 87 c1 bd e5 00 97 3d 10 1c cb 3d 14 7a dc 3c
       -0.094496645 0.073732175 0.09917462 0.02691368
000050 da 20 b6 bc 6a 18 97 3d 50 f8 d1 3c 4a 44 c0 bc
       -0.022232462 0.073777035 0.0256311 -0.023470063
000060 5b f5 89 bd fd cf 91 3d 72 de 69 3d 95 2b 58 3d
       -0.06736251 0.07119749 0.057096906 0.052775938
000070 27 c6 57 bd 6b 17 34 bc 67 b5 8e bd 98 88 74 3d
       -0.052679207 -0.010991911 -0.069681935 0.05970058
000080 85 af 14 bd d3 92 40 bd db aa 47 3d 3c c7 b9 3d
       -0.0363002 -0.047015022 0.048746925 0.09071204
000090 01 45 8b 3d 6d f9 81 bd 2a 55 74 3d 81 b4 5f bd
       0.06800271 -0.06346402 0.05965153 -0.0546155
0000a0 4a 0d f2 3c 18 6a 53 3d b1 77 2d bc f2 86 4f 3d
       0.029547352 0.05161485 -0.010587619 0.050665803
0000b0 22 43 0c bd ab e4 d2 bd ce 5a d2 bd ba 6d 25 bd
       -0.03424371 -0.10297521 -0.10271226 -0.040387847
0000c0 eb cf f5 bc 27 04 38 bd 13 59 7d bd a3 31 50 bd
       -0.03000637 -0.044925835 -0.061852526 -0.050828587
0000d0 12 66 b1 3d f5 06 78 bd 6d 5a cc 3c c7 e2 a1 bd
       0.086620465 -0.06055351 0.024945462 -0.079045825
0000e0 c2 74 23 3b 29 05 5c 3d 97 fc a3 bd b9 71 83 3c
       0.002494142 0.05371586 -0.08007162 0.016045438
0000f0 7d 28 ac bc ec 89 a2 3d 80 6c 95 bd 6c d7 c9 bb
       -0.0210154 0.07936463 -0.07296085 -0.0061597135
000100 ac fe 90 3d a9 10 fc bb a3 6b b1 3c 44 87 b7 bd
       0.07079825 -0.0076924157 0.02165777 -0.08961347
000110 3d fa 57 bd c9 36 98 3c f6 f0 9a 3d 78 33 68 bc
       -0.05272888 0.018580811 0.07565491 -0.014172427
000120 6e c7 f4 bc 14 f4 76 3d 04 e5 8b 3c 42 3a 95 3c
       -0.029880252 0.060291365 0.017076977 0.018216256
000130 f2 43 55 bd 09 84 6a 3d fe 08 ab 3d 37 c2 56 bd
       -0.05206675 0.057254825 0.083513245 -0.05243131
000140 7f 49 00 3d 07 b6 71 3b f4 a7 52 3d d5 ee b7 3b
       0.03132009 0.0036882178 0.051429704 0.005613188
000150 38 77 72 3d f4 0c b8 bd 28 fb b0 3c ef 46 6b bd
       0.059195727 -0.089868456 0.021604136 -0.057440694
000160 f7 23 03 3d 11 57 2f bd 32 bd 99 bc 5d 93 b0 3d
       0.03201672 -0.042807642 -0.018766973 0.08621857
000170 ea 7d 77 bd 00 5b b3 bd c4 fc bf 3c fe 53 01 3d
       -0.060422815 -0.08757591 0.023435958 0.03157424
000180 f7 c6 96 3c 5c df 49 bd 81 47 3b 3c d3 ec 94 3d
       0.01840542 -0.049285278 0.011430622 0.07271733
000190 98 fb 86 bc 3d 50 e3 bd fe 62 ba 3c 69 8a 3e bd
       -0.016477391 -0.110992886 0.022752281 -0.046518717
0001a0 ed 73 86 bd 72 c8 19 bd 44 3f 05 be e8 42 bd bd
       -0.0656508 -0.037544675 -0.13012415 -0.09241277
0001b0 92 74 50 3d ed f4 8d 3c 76 43 9b bd 8b 81 19 3d
       0.05089242 0.017328704 -0.075812265 0.037477057
0001c0 76 84 88 bb 9a 5f a1 3d 2f 5b 87 bd 91 c0 6e bd
       -0.004166181 0.07879563 -0.06609189 -0.058289114
0001d0 0a a0 fe ba 72 82 4d bd 3c ce 7b bd c0 ef 35 bd
       -0.0019426357 -0.05017323 -0.061475977 -0.044418097
0001e0 48 43 c7 3d e9 b2 05 bc 78 9c 9b bd 5e 22 05 3c
       0.0972963 -0.008160331 -0.075982034 0.00812587
0001f0 86 b7 2d bd af d8 91 3d 4b 4c 12 bc 69 c5 66 bd
       -0.04241135 0.07121407 -0.0089293225 -0.05634061
000200 1c 49 72 3d e9 3e db 3b ee 3c 81 bd ac d8 d4 3d
       0.059151754 0.006690849 -0.063104495 0.103928894
000210 96 a6 06 3d 03 f2 a0 bd c7 49 d9 bd f3 fb a3 bc
       0.032873712 -0.0785866 -0.10609775 -0.0200176
000220 fb 74 0b 3d 08 30 17 bd 51 ed 34 bc 15 4f 56 3d
       0.03404711 -0.03691104 -0.011042909 0.052321512
000230 64 da 80 bc ad 6d 4a 3d ec fc ce ba 0b 28 14 bd
       -0.015729137 0.049421 -0.0015791929 -0.036171
000240 41 32 a3 3b e3 3a 8e 3c 61 8a b6 3c e9 39 c0 3b
       0.004980356 0.017362064 0.022282781 0.0058662784
000250 47 32 c7 bc af 3e a0 3c 3c 0b 2a 3d 05 75 f3 bc
       -0.024315966 0.01956114 0.04151462 -0.029718885
000260 ca 2e 8b 3c b2 f7 09 bb 3f 15 45 3d 0f f9 6e 3d
       0.016990084 -0.002105218 0.048115965 0.05834299
000270 04 e7 02 3d b0 01 c0 3c 0f 75 1f 3d e5 5c 3a bd
       0.031958595 0.023438305 0.038929995 -0.045498747
000280 3b fb 5a bc 7b 80 05 3d 3b 61 0f 3c 8e d2 2b bd
       -0.013365562 0.03259323 0.008751209 -0.041948847
000290 d5 4a 1b 3d 07 ce 8a bd 13 07 82 bb bf 91 0d bc
       0.037913162 -0.06777578 -0.0039681285 -0.008640706
0002a0 69 56 6a 3d 3a 0e 9c bd 12 8a 7e bd 3e cc 24 bc
       0.057211313 -0.07619901 -0.062143393 -0.010058461
0002b0 6d a6 1d 3d 4b 94 8e bd 85 3e be bb 76 2e 7a 3a
       0.038488794 -0.069618784 -0.0058057928 0.00095436664
0002c0 8c e0 6e bb 16 65 cc 3c fd 64 3f bd 00 6a 60 bd
       -0.0036449758 0.024950545 -0.04672717 -0.05478859
0002d0 34 96 ae 3c ed a6 6e 3d 01 e2 2c bb cc 04 7a bc
       0.021311857 0.05826466 -0.0026379826 -0.015259933
0002e0 8a 95 74 3b a3 78 aa 3c 67 31 1d bc 5d 3d d5 bc
       0.0037320578 0.020809477 -0.009594298 -0.026030237
0002f0 a9 e7 6c 3d 3a fa 0d bd aa e0 21 3d 4d 68 05 3d
       0.057838116 -0.034662463 0.039520897 0.032570172
000300 96 6a a4 bd 8a e7 7b 3d 23 83 20 3d d0 c5 e6 bc
       -0.08028142 0.06150011 0.03918756 -0.028170496
000310 7f 0f 84 3c 4e 62 54 bd 73 d6 3b bd 2d 31 29 3c
       0.01612067 -0.051851563 -0.04585881 0.010326666
000320 f0 8a 1a 3d 1f a1 e8 bc 9d c2 4d bd ab 89 4b bd
       0.037730157 -0.028397141 -0.050234426 -0.049691837
000330 37 b8 57 bd 5d 8d 85 3d 99 1f 16 bc 01 26 6e 3d
       -0.052665915 0.065211035 -0.009162807 0.058141712
000340 71 1c ad bc f4 48 d1 bc 97 42 96 bc a8 ae a2 bc
       -0.021131726 -0.025547482 -0.0183423 -0.019858673
000350 c9 c4 52 3d c9 84 44 bd f0 f2 5b bc 22 91 81 bc
       0.0514572 -0.047978196 -0.01342462 -0.015816275
000360 d6 e7 0f bd 04 e2 b5 bd 33 2c 44 3d d3 b4 36 3c
       -0.035133205 -0.08881 0.047893714 0.01115151
000370 83 20 ab bc f7 18 39 bd 92 63 13 3b c5 f4 12 3d
       -0.020889526 -0.045189824 0.0022489768 0.03587796
000380 a5 99 0d 3d d1 97 c6 3b c8 e2 86 bc ed c2 33 3d
       0.034570355 0.0060605784 -0.01646556 0.043887068
000390 56 61 e9 bc 44 c5 e9 bc 08 8a 74 bd 26 cf 0e bc
       -0.028488796 -0.028536446 -0.05970195 -0.00871638
0003a0 e3 df 72 3d 3b 26 d0 3c 78 d5 48 3d 11 03 dd 3c
       0.059295546 0.025408855 0.049031705 0.026979001
0003b0 3c 10 ba bc b1 5c 17 3d e9 8d cb bb cb 3a 4c 3c
       -0.02271282 0.03695363 -0.0062119854 0.012465189
0003c0 13 ad e8 bc 15 3c 98 bd a3 89 46 bd 8c 4d 6e 3d
       -0.02840284 -0.07433335 -0.048471104 0.058179423
0003d0 49 ad 67 bd 9f f8 7e 3d c1 61 09 3d 03 7c 45 3c
       -0.056561742 0.062248822 0.03354049 0.0120534925
0003e0 45 07 a0 bb 27 03 83 bc ab b0 4d bd 14 60 1d bc
       -0.004883679 -0.015992714 -0.05021731 -0.009605426
0003f0 63 32 1e 3c 22 d3 ff bb 1e 7e 73 bd 55 14 fc 3c
       0.009655568 -0.0078071514 -0.059446447 0.030771414

model.0.bias f4 [512]
000000 f1 20 0b 3e ab 5b 4b be 5e 44 40 3d b0 4a 09 be
       0.13586785 -0.19859187 0.0469402 -0.13407397
000010 a8 e7 06 3e 1b 64 ad bc 21 b5 81 3e 98 cd 5c 3e
       0.13174307 -0.021165898 0.25333503 0.21562803
000020 3b a4 4a be 7e fc 21 be 4c c0 40 be e9 1b 8e 3d
       -0.19789211 -0.15818974 -0.18823355 0.06938917
000030 db d2 46 be 5f 71 6d be 8f 1a 5c 3e 45 3a 85 3d
       -0.19416372 -0.23187779 0.21494506 0.06505255
000040 70 df 24 3e a6 ec 0f 3e 86 c0 bb bb e6 8f 88 bd
       0.1610086 0.14055118 -0.0057297377 -0.066680714
000050 72 0d 4d be e2 8a dc bd ca 21 a3 bd 56 2a c1 3d
       -0.2002466 -0.10768677 -0.07965429 0.09431903
000060 06 a5 58 bd 75 f5 f1 3d 64 2c 43 3e 8c 4a 35 be
       -0.052891754 0.11814395 0.19059902 -0.17704219
000070 60 95 3e be b0 41 04 3d a9 53 29 be 92 36 40 3e
       -0.1861167 0.032289207 -0.1653582 0.18770817
000080 ba 3f 30 3d 33 c1 3d 3e a9 b9 d6 3d aa 72 70 3d
       0.043029524 0.18530731 0.104846306 0.058703102
000090 4f 0a 62 3d d5 5d 2a 3e 92 7d 4b 3e 3a 73 1a be
       0.055185612 0.16637357 0.1987212 -0.15083018
0000a0 a8 3f 36 be 0b 42 c9 3d 78 9b 3f be da 12 7c 3d
       -0.1779772 0.0982705 -0.1871165 0.061541416
0000b0 da 7a 24 be 78 99 ce 3d 41 98 ec bd be d3 69 3e
       -0.16062489 0.100878656 -0.11552478 0.2283468
0000c0 f1 fd 21 be 8e aa 58 bd 4b 4b de 3d 6f 89 2c be
       -0.15819527 -0.05289703 0.10854205 -0.16849302
0000d0 66 fd 6c be 00 d7 49 be 04 7f 2b be a2 07 81 3d
       -0.23143539 -0.19710922 -0.16747671 0.06300284
0000e0 bc a2 6b be d3 8f 4a 3e 73 06 03 3e b1 fc b8 bd
       -0.23011297 0.19781427 0.12795429 -0.09032572
0000f0 f9 fc c3 3d 97 38 d5 3d 71 1d d2 bd b1 0f 0c be
       0.09569735 0.10411184 -0.10259522 -0.13677861
000100 58 e0 32 be 4c 5b 11 3e 3e 9d 43 be c0 dd 14 3e
       -0.17468393 0.14194983 -0.19102952 0.14537716
000110 76 ce fe 3d 88 a0 14 3d 80 b7 42 be 37 15 06 be
       0.12441723 0.036285907 -0.19015312 -0.1309403
000120 29 bf 39 3b 97 5d 40 3e 48 64 03 3e 62 21 36 be
       0.00283427 0.18785702 0.12831223 -0.17786172
000130 d2 fb 9d bd ed a4 0c be 18 0a 14 3e 4b 01 4d bc
       -0.077140465 -0.13734789 0.14456975 -0.012512515
000140 ba 24 24 3e 05 2a 70 3e 54 90 e3 bd c4 1e 7e 3e
       0.16029635 0.23453529 -0.11111513 0.24816424
000150 89 76 e2 bd 99 e3 6c 3c d6 94 25 3e b7 ae 36 3e
       -0.11057765 0.01445856 0.16170058 0.17840086
000160 b5 05 3c 3e 94 ef 54 3e 76 c7 ac bd 23 56 a3 3e
       0.18361552 0.20794517 -0.08436482 0.31901655
000170 78 9a 4d 3e bb 65 d7 3d 4b 20 4b be 19 5d 1f be
       0.20078456 0.105174504 -0.19836538 -0.15562858
000180 c1 8d 66 be e6 3f 9d bd 96 82 8e bd b0 07 24 be
       -0.22515012 -0.07678203 -0.06958501 -0.16018558
000190 b8 45 c4 3d 6a be 1c 3b 62 17 44 3e 01 6a 3f 3e
       0.0958361 0.0023917207 0.19149545 0.18692781
0001a0 33 d7 f5 bc e5 0c 37 be a6 45 3a be 14 17 3f 3e
       -0.030009842 -0.17876013 -0.18190631 0.18661147
0001b0 06 79 5a 3e 16 be 68 3e a3 36 06 3e e1 5c 67 be
       0.2133523 0.22728762 0.1310678 -0.22594024
0001c0 4a 94 1d be f3 0b ec 3d 58 9d 51 3e 9f 34 50 be
       -0.15388599 0.11525717 0.20470178 -0.20332573
0001d0 3d 54 2d be 25 2a 18 3e 40 a8 33 be 12 83 17 3e
       -0.16926666 0.14859827 -0.17544651 0.14796093
0001e0 57 19 4c 3e d4 f3 01 bd c7 56 50 3e f4 d0 4e be
       0.19931541 -0.031726673 0.20345603 -0.20196897
0001f0 cb 80 11 be 3e 2f 2a 3e 1c df 47 bd 83 c1 09 bd
       -0.14209287 0.16619584 -0.048796758 -0.033631813
000200 4f ec 3a 3e b9 bb f2 bd eb dc 7c bd 54 33 57 be
       0.18254207 -0.118522115 -0.06173412 -0.21015674
000210 98 1a 11 be 96 93 3c be 0c 09 04 3c f6 33 49 be
       -0.14170301 -0.18415675 0.008058798 -0.19648728
000220 d4 5b 1d bd 5b 32 0f 3e 53 de 4f bd 64 d7 ed 3d
       -0.038417652 0.13984053 -0.050749134 0.11613348
000230 05 02 49 3e 05 06 e0 bc e9 f1 f2 bc f1 2b 1f be
       0.19629677 -0.02734662 -0.029656367 -0.15544106
000240 aa f2 81 bd 5c 5c ac 3d 2b 62 2e be 7d fc 20 be
       -0.063451126 0.08416054 -0.17029636 -0.15721317
000250 31 ef c5 bd b6 ab c8 bd d6 7e 36 be d3 8f ec bd
       -0.09664763 -0.09798376 -0.17821822 -0.1155087
000260 56 b4 0c 3e 82 1a a2 bd c0 bf 4a be a5 a7 5c 3e
       0.13740668 -0.07915212 -0.1979971 0.21548326
000270 88 4a 81 3e d7 d2 10 3d 94 5d 43 3e e7 c9 4d 3e
       0.25252175 0.035357323 0.19078666 0.20096551
000280 50 a0 10 bd 09 6d 36 3e b1 ad 3a be 9f 52 48 be
       -0.035309136 0.17815031 -0.1823032 -0.19562767
000290 8c b2 a4 bd 89 ba 04 3e 1d 1e 10 3e 3a e7 22 be
       -0.080418676 0.12961783 0.14073987 -0.15908518
0002a0 74 e6 5f 3e b5 47 0e 3e 6d c8 38 be d5 75 37 3e
       0.21865255 0.13894542 -0.18045206 0.17916043
0002b0 cc 98 a0 bd 00 2f 1a be ab 91 0c be fe 0c 3b 3e
       -0.07841644 -0.15056992 -0.13727443 0.18266675
0002c0 d7 39 5b be 99 89 0d be 4d 19 a3 3d 4e 56 f6 3d
       -0.21408783 -0.1382202 0.0796381 0.1202818
0002d0 81 b1 30 3e e3 70 1e 3e 94 d2 4b be c5 7d 65 3e
       0.17255212 0.1547275 -0.19904548 0.22411259
0002e0 dc 47 76 3e 0a 53 e9 bd a7 8d d5 3d fd 85 5b 3e
       0.2405085 -0.113927916 0.10427409 0.21437831
0002f0 a5 72 c5 3d 72 61 58 3e ee 7e 3a 3e e7 6f a0 bd
       0.09641007 0.21130922 0.18212482 -0.07833844
000300 25 18 0a 3e 00 eb 32 3e 55 8c 48 be 78 a9 25 be
       0.13485773 0.17472458 -0.19584782 -0.16177928
000310 18 70 d8 bd 84 e6 5f be 00 d1 41 be bf 85 6b be
       -0.10568255 -0.21865278 -0.18927383 -0.23000239
000320 52 5e 10 3d 6f 43 1b 3e 86 2e 16 be 1c 4b 70 3e
       0.0352462 0.15162443 -0.14666185 0.23466152
000330 92 92 2c 3e 56 24 19 3e 48 21 20 be 76 63 55 3e
       0.16852787 0.14955267 -0.15637696 0.20838723
000340 1f f7 93 3d fd 3d c7 bd dd c5 8d 3e af 92 a2 bd
       0.07224869 -0.0972862 0.2769002 -0.07938134
000350 f2 9a 07 be 7b 83 54 3e 65 3f e6 3d c3 e7 2b be
       -0.132427 0.20753281 0.1124256 -0.16787629
000360 55 f8 3e 3e 30 17 be 3d 34 bb 0e be f9 b6 d6 3d
       0.18649419 0.092817664 -0.139386 0.10484118
000370 e7 2a bf bd f0 8e 67 3e e1 c2 fe 3d de c2 18 3e
       -0.09334355 0.2261312 0.12439514 0.14918086
000380 70 09 13 be 69 c6 24 3e 1c 7e 2c 3e 90 19 17 3d
       -0.14359069 0.16091312 0.16844982 0.036889613
000390 a4 7b 31 3e b5 ec 1a be d0 65 df 3d 20 38 f2 3c
       0.17332321 -0.15129359 0.10908091 0.029567778
0003a0 4e e5 68 3e 4e 66 3c be 8d c5 c4 3d 4e 32 db bd
       0.22743723 -0.18398401 0.09607992 -0.10702954
0003b0 88 23 64 be da 68 1a 3e e4 19 ea bd 7f 78 fb bd
       -0.22279179 0.1507906 -0.114307195 -0.12278842
0003c0 81 04 e1 3d 2a ca e0 bd e6 3f 31 3e a7 70 2a be
       0.10987187 -0.1097606 0.17309532 -0.16644536
0003d0 df f8 1b 3e 11 e7 b9 3c 08 58 b8 3d da 98 92 bd
       0.15231656 0.022693189 0.09001166 -0.0715806
0003e0 80 af f3 bd 69 fc 5d be 5e de 0a be 94 97 69 bd
       -0.11898708 -0.21678318 -0.13561389 -0.05702932
0003f0 c7 89 62 be c0 c9 c9 bd 53 f5 36 3e 39 29 8b 3e
       -0.2212287 -0.09852934 0.17867021 0.27179888

model.2.weight f4 [256, 512]
000000 ff 0c e8 3c 04 87 83 bc 5e 94 27 3c af 4e a7 3b
       0.02832651 -0.016055591 0.010228245 0.0051058154
000010 69 44 0a 3a c0 c2 2d bc 94 f7 2a 3d 54 f0 02 3e
       0.0005274476 -0.010605514 0.041740015 0.1278699
000020 8c b8 5f bd 62 b7 4d bd 86 36 cd bc b9 57 1f 3d
       -0.054619357 -0.050223716 -0.025050413 0.03890202
000030 08 70 f0 3c 0b f6 42 bd 1e ca 82 3d 04 6f 30 3d
       0.029350296 -0.047597926 0.06386207 0.043074623
000040 f4 cd 6f 3c 8a 38 17 3d 99 cb 4b bc 71 f1 e7 bb
       0.014636505 0.036919154 -0.012438678 -0.0070783426
000050 7b ab c3 bc e5 01 d7 bc fd 34 93 bc 51 46 8b 3c
       -0.02388548 -0.02624602 -0.017969603 0.017001303
000060 00 04 c7 3c 8c c2 d5 bc fe 2e 8c 3c d9 b8 60 bd
       0.0242939 -0.026093744 0.017112251 -0.054863784
000070 a7 6e 2f bc e4 24 f9 3b 1a a7 ca 3b 3e 4d 8a bc
       -0.010707534 0.0076032747 0.006184471 -0.016882535
000080 6d 87 9e 3c 11 40 87 bc fb 8d 47 bc fe 63 3e 3d
       0.019351685 -0.016510041 -0.012179847 0.04648208
000090 1d ab cb 3c 2a ec 3c 3d 98 75 6f 3d be 5e 2a bd
       0.024861867 0.04612366 0.058461756 -0.04159426
0000a0 f0 4a 44 bd 65 46 0d 3c 12 c6 ba bb a5 09 75 3d
       -0.04792303 0.00862274 -0.0056998814 0.05982365
0000b0 03 21 45 bd 92 bc b4 3b 44 56 de bc d1 a3 a3 3c
       -0.048127186 0.0055156434 -0.027140744 0.019975575
0000c0 98 f9 2d 3b f5 3f a5 bc 2d ed a9 3a 88 d6 10 bd
       0.0026546475 -0.020172099 0.0012964361 -0.035360843
0000d0 b5 14 4e bd 05 05 94 bd ed 7d 1b bd 3d 1f b1 3c
       -0.050312717 -0.0722752 -0.03796189 0.02162134
0000e0 df db 4f bc 26 b3 0a 3d f2 9a db ba 88 86 af bc
       -0.012686699 0.033862256 -0.0016754551 -0.021426454
0000f0 18 d1 d8 3c 5b b2 cf bc 9c 51 33 3c b9 60 cf 3c
       0.026466891 -0.025353601 0.01094475 0.025314676
000100 09 de 64 bc dc 5a 1c 3d 4b 81 49 bd 3e 6e c3 3c
       -0.013968953 0.038172588 -0.04919557 0.023856279
000110 bf d2 a4 3d 86 d8 68 3b 57 be 3b bd f2 6a cd 3b
       0.08048009 0.0035529449 -0.04583582 0.0062688524
000120 c1 5f 57 3d 74 2e 2d bc 4c ed 17 3d 42 8d 44 bd
       0.052581552 -0.010570157 0.03709154 -0.047986276
000130 a0 b3 9a 3c 3d fd fc bc e9 8b 7d bc ae a0 78 3c
       0.01888448 -0.030882472 -0.015475252 0.015175028
000140 e0 8a 8b 3c 99 a3 b1 3d f2 4c 1f bd 22 b2 87 3d
       0.017033994 0.08673782 -0.03889174 0.06625773
000150 f6 8f 2b 3c bc 73 18 bc 26 25 2f 3d da 62 f7 3c
       0.010471335 -0.009304937 0.042760037 0.030198503
000160 a6 b6 d2 3c f2 c5 52 3d 3e 96 14 bd ed f6 e6 3d
       0.02572186 0.051458307 -0.036276095 0.11277566
000170 7e 02 b2 3c 31 cc ad 3c 78 d2 18 bc c2 9f a2 3c
       0.021729704 0.02121553 -0.009327523 0.01985157
000180 00 be 02 3a 98 63 04 bd eb b1 0e bd 04 8e 8f bd
       0.00049874187 -0.032321543 -0.034837645 -0.07009509
000190 d7 79 c0 3b 4d 04 82 ba 8a 9d 6f 3c c7 06 50 3d
       0.0058738994 -0.0009919495 0.014624963 0.050787713
0001a0 5b ad fc 3c 50 54 fa bc 6c 79 da 3b d1 b7 83 3d
       0.030844381 -0.030557781 0.0066673066 0.064315446
0001b0 39 64 23 bc d9 b5 ad bc 77 9b 09 3c 1c ff 8b bd
       -0.009972625 -0.021204876 0.008398882 -0.068357676
0001c0 57 fd a4 bc a7 f9 11 bb f3 67 42 3c 17 1b 28 3c
       -0.020140333 -0.0022274049 0.011865604 0.010260365
0001d0 c3 a1 44 3c e9 dc 85 bc ce 62 2d 3c 71 16 98 3c
       0.012001458 -0.01634069 0.010582639 0.018565388
0001e0 01 e1 cd 3c f7 e3 1e 3d 91 96 d9 3b 41 10 a2 bc
       0.025131704 0.038791623 0.0066402634 -0.019783141
0001f0 bf 92 42 3c 65 5a 9f 3c 85 c7 bf 3c 45 3f 86 bb
       0.011875807 0.019452283 0.023410568 -0.004096898
000200 da de de 3c 6a 2a 21 3c ac ad 1e bd e1 dc 8a bd
       0.027205873 0.009836772 -0.038739845 -0.067804106
000210 5b 2d 74 bd cb 24 28 bd ab 55 bf 3c 34 6b 66 bd
       -0.059613567 -0.041050714 0.02335628 -0.05625458
000220 75 58 18 3d 20 02 10 bc 03 22 ba bc bf ba d5 bb
       0.037193734 -0.008789569 -0.022721296 -0.006522506
000230 53 19 61 3c 67 53 85 bc 8e 27 23 bc 2f a8 a4 bb
       0.013738948 -0.01627512 -0.009958161 -0.005024932
000240 51 6a df bc e2 77 cd 3c f9 81 63 bd c8 82 17 bc
       -0.027272375 0.025081579 -0.055543873 -0.009247489
000250 95 83 c0 3c a7 8d 22 3d 7a b3 7a bb de 79 07 bb
       0.023500243 0.03968587 -0.003825395 -0.0020672004
000260 44 77 a1 3c 9e 11 6f bc ea d2 9a 3c 3f f8 0e bd
       0.01971019 -0.014591603 0.0188994 -0.034904715
000270 a0 2e 81 3d 0f 0c 78 3c 91 14 8c 3c 18 d7 4f 3d
       0.06307721 0.015139594 0.01709965 0.05074224
000280 0b 83 23 bd a1 9f 1c 3c 8f 4f 94 3c 9d 1b 52 3c
       -0.039919894 0.009559543 0.018104343 0.012823966
000290 ea e5 d1 3c 3a 96 14 3d d9 0e 6d 3d 83 c7 48 ba
       0.025622327 0.03627608 0.057875488 -0.0007659124
0002a0 b4 f9 dd 3c 9f 3d 2c bb 07 c7 27 bd 08 39 1a 3d
       0.027096607 -0.0026281846 -0.04096129 0.037652045
0002b0 bc 88 2b bd a4 96 e4 3c a0 99 8f bb 22 46 f6 bb
       -0.041878447 0.027903862 -0.004382327 -0.0075156847
0002c0 9a a4 79 bd d3 d6 39 bc 49 21 d2 3c 45 1d e6 3c
       -0.060947992 -0.011342722 0.025650637 0.028090129
0002d0 0c e8 f2 3b 3b d4 d4 3c 0c 3a 25 bd ac 6d 7a bb
       0.007412916 0.025980106 -0.04033856 -0.0038212342
0002e0 af 40 b5 3d 47 79 c3 bb 1f 07 fe bb f4 1a 17 3c
       0.08850228 -0.005965385 -0.0077523137 0.009222735
0002f0 2f b7 14 38 fa 44 af 3c 41 70 62 3c bb 26 06 bd
       3.5456553e-05 0.021395195 0.013820709 -0.03275178
000300 e6 34 63 bc 2f be b0 bb bf 27 81 bd 2a 2c 60 bd
       -0.013867592 -0.0053937654 -0.06306409 -0.054729618
000310 79 37 c3 bc 39 84 b7 bd 20 be 13 bd 5a 76 30 bd
       -0.023830162 -0.08960766 -0.03606999 -0.04308162
000320 3b 6d a0 bc 75 0f 43 3d 31 19 49 3c e5 2f 65 3d
       -0.019583335 0.047622163 0.0122740725 0.05595388
000330 53 19 2e 3d fe b8 e4 3b f2 71 f2 bc 98 c0 48 3d
       0.04250462 0.0069800606 -0.029595349 0.049011797
000340 38 dd d4 3c f6 f7 39 bd c6 85 04 3e 32 c7 ca bc
       0.025984392 -0.04540249 0.12941656 -0.024753187
000350 65 ff ec bc 06 3d 90 3d 8b 46 47 bc c6 20 4d bc
       -0.028930375 0.07042889 -0.012162815 -0.012520021
000360 b8 45 bf 3b 16 f1 60 3d e8 2a 9e 3c b7 ab 00 bd
       0.0058371685 0.054917417 0.019307569 -0.03141376
000370 92 6b a4 bb 37 03 c1 3d b7 be 86 bc 57 67 08 3d
       -0.005017706 0.09424441 -0.016448362 0.033301678
000380 3f 72 06 bc 2e e0 3e 3b 93 2e 56 3d a7 e4 f6 bc
       -0.008205949 0.002912532 0.05229051 -0.030138327
000390 0a e0 03 3d 04 1d 2f 3c 51 e7 4e 3d dd 4d 23 bd
       0.032196082 0.01068807 0.05051357 -0.039869178
0003a0 24 53 d7 3b 7c db f6 bc 88 a8 d2 3c 0c d8 3c bc
       0.0065711904 -0.030133955 0.025715128 -0.011526119
0003b0 3e a9 2c bd 67 63 46 3d c1 8f 54 bc e4 6a ef bc
       -0.04215359 0.04843464 -0.012973727 -0.029225774
0003c0 9d b3 f2 3c 3b 76 54 bd cc 29 0b 3d 58 45 85 bd
       0.029626662 -0.051870566 0.033975407 -0.06507367
0003d0 4e a4 25 bc a3 4a 09 3d 16 6f 40 bc 32 a9 d2 bc
       -0.010109974 0.033518445 -0.011745235 -0.025715444
0003e0 26 df fb 3c 24 fa e5 3c 72 eb 24 3c 23 de 98 bc
       0.030746054 0.028073378 0.0100659 -0.01866061
0003f0 ab ff 9b bd 63 b2 b4 bc e5 d4 fe bc 2e db fb 3d
       -0.07617124 -0.022057718 -0.031107375 0.122976646

model.2.bias f4 [256]
000000 5b 1c 37 3e 61 aa 2d 3e 2b c0 20 bd c1 33 75 bc
       0.1788191 0.16959526 -0.039245766 -0.014965952
000010 98 d6 57 3c 14 bf b4 3d 6a 69 0c 3e 7d 76 a3 bd
       0.013173722 0.08825508 0.13712087 -0.07981584
000020 49 8a 0f 3e c8 84 d7 3d 6f 69 fb 3d 1d 68 aa bd
       0.14017595 0.10523373 0.12275969 -0.08320639
000030 07 23 28 3e 7a e8 b3 bd 21 9b e9 bd 5c f0 04 bc
       0.16419612 -0.08784576 -0.114065416 -0.008113947
000040 34 f7 b7 bd bd 00 1e 3d 65 3a f7 bd fb 7e d6 bd
       -0.08982697 0.038574923 -0.12071685 -0.10473438
000050 0f 4f 11 be 9a fe 13 bd 23 9f 01 3e ef 0d 0f be
       -0.14190315 -0.03613148 0.12658362 -0.13970159
000060 93 af 80 bd 2f f6 49 3e 17 cd dc 3d 90 97 1c 3e
       -0.06283488 0.19722818 0.10781305 0.15292192
000070 09 aa be bd dd d2 40 be 0f db d7 3c 76 94 30 3e
       -0.093097754 -0.18830438 0.026349572 0.17244133
000080 19 f2 8f 3c 19 50 8d bd 2e 0a 7b bb e8 89 0a be
       0.017571496 -0.06900043 -0.0038305628 -0.1352917
000090 d5 f9 d3 bd 4c 4c a8 3d 0d 19 67 bd 40 58 bb bc
       -0.10350386 0.082176775 -0.056420375 -0.02286923
0000a0 ba c4 bf bd 65 fe ee bd 05 65 25 be 1c af 1b 3c
       -0.093636945 -0.11669616 -0.16151817 0.009502199
0000b0 da 58 ef 3d dd c3 93 bc 98 51 dd bd 94 67 73 bd
       0.11686869 -0.01803773 -0.108065784 -0.05942495
0000c0 71 56 a9 3d 34 69 c3 3d c2 30 f7 ba cb 88 2c 3e
       0.082684405 0.0954155 -0.0018859135 0.16849057
0000d0 57 24 e0 bd 00 aa ef 3c 2c d7 0f 3e 45 37 0f 3e
       -0.10944431 0.029255867 0.14046925 0.13985927
0000e0 81 90 fc bc 1b 03 ff 3d 08 79 eb bd e2 94 1a 3e
       -0.030830624 0.12451764 -0.11497694 0.15095857
0000f0 71 00 8d 3c 0e e1 0e 3e 66 3f 69 3d cd 91 6d bb
       0.017212125 0.13953039 0.056945227 -0.0036250234
000100 8d 3e 0c be 26 fb 94 bd aa a3 06 3e 90 40 b1 3d
       -0.13695736 -0.07274465 0.1314837 0.086548924
000110 8e b2 22 bd e6 1a 89 bd 97 d4 f0 3d bc 3c 41 bd
       -0.039721064 -0.066945836 0.11759298 -0.04717706
000120 28 9c dc bb 0f 76 14 3e d5 04 19 3e 9e f4 db 3d
       -0.0067324825 0.14498161 0.1494325 0.107400164
000130 de 37 aa bd 43 72 19 3e 4d 70 ce 3d dc 27 d1 3d
       -0.08311437 0.14984994 0.100800134 0.10212681
000140 7a 69 ed bc b2 80 44 3e 93 02 70 bd e3 8b 09 3e
       -0.02898096 0.19189718 -0.058596205 0.13432269
000150 5d 8e f8 3d 20 84 c8 bb eb a0 0f 3e 12 fc 36 bd
       0.12136529 -0.006119266 0.14026229 -0.044673987
000160 c4 bc 5b bd 38 f4 bb bd af 67 c5 bd cb 0d bf bd
       -0.053646818 -0.091774404 -0.09638917 -0.09328803
000170 4c 7a 73 bc 21 09 f0 3d 6d f5 04 3e 6f b1 d4 3b
       -0.014860701 0.11720491 0.12984248 0.0064908783
000180 a9 64 55 3c a5 a0 ab bd 1d 0a ef bd b9 26 43 3e
       0.0130244875 -0.0838025 -0.11671851 0.1905774
000190 3a f8 fe 3d 4e db b4 3d 17 67 9b 3b ef 55 18 be
       0.12449689 0.088308915 0.004742514 -0.14876531
0001a0 1a 75 15 3e 17 88 a1 bd 90 61 2a 3e 1f f3 a4 3d
       0.14595452 -0.07887285 0.1663878 0.08054184
0001b0 0a 36 7d bd 9f 0b e8 3d 3f c4 08 be 73 ed c9 bd
       -0.061819114 0.113303415 -0.13356112 -0.09859743
0001c0 b2 eb 2f be f3 b2 7c 3c e8 5c a1 3d 14 ef b3 bd
       -0.17179754 0.015423524 0.078790486 -0.08785835
0001d0 5c f6 05 3d a0 02 46 bb c7 c5 7d bd 57 ae 16 3e
       0.03270565 -0.0030213967 -0.061956193 0.14714943
0001e0 2e 7f 20 3e c9 ce 2c 3e fa 46 53 bd 58 7f 96 3d
       0.15673515 0.16875757 -0.05158136 0.07348508
0001f0 e4 e6 1b be 2e dd 1e 3e 70 0e e7 3d da f0 10 be
       -0.15224797 0.15514061 0.112820506 -0.14154378
000200 15 f7 98 bd 8b 3e d3 bd 6b 67 b2 bd a2 92 27 3e
       -0.07469002 -0.103146635 -0.08711132 0.1636453
000210 94 57 dd 3d 46 94 1e be a8 61 0d 3e ef 9f dd 3d
       0.1080772 -0.1548625 0.13806784 0.108215205
000220 87 85 c3 bd 96 a6 b7 bd a3 a7 9b 3c f3 8a 17 be
       -0.09546953 -0.089673206 0.019000834 -0.14799099
000230 37 97 5a 3e a2 ed 39 be c2 a0 08 be 88 0d ee bb
       0.21346746 -0.18157056 -0.13342574 -0.0072647966
000240 04 0f 20 bd ea 35 fc bd f9 ee 8a bd 2a 27 4f 3e
       -0.03907682 -0.12314971 -0.06783862 0.20229784
000250 b6 21 81 3d 03 07 1f 3e 47 de 2a be 71 b6 22 be
       0.06305258 0.15530019 -0.16686355 -0.15889908
000260 c2 79 ea 3d cb 2a fd bd 1d 49 04 3e 9d 54 fa bc
       0.11449005 -0.12361678 0.12918516 -0.030557925
000270 4e 3c b3 3d 60 0a f6 bd 42 81 2d bd 66 bb 0d 3e
       0.087517366 -0.120136976 -0.042359598 0.13841018
000280 79 77 0b bd 7d ff 1c 3e f2 47 c3 3d 0a 49 90 3d
       -0.034049485 0.15331836 0.09535207 0.07045181
000290 1e be 07 be 35 af 18 3e 17 4e e7 3d 8c dc fb 3d
       -0.13256118 0.14910586 0.11294191 0.12297925
0002a0 47 db 20 be 12 d6 58 bd a5 41 9f 3d d8 d5 f0 bd
       -0.15708648 -0.05293853 0.077761926 -0.117595375
0002b0 4b 77 22 3e 5b d6 91 3d 7e e3 17 3e c2 94 8e 3c
       0.15865819 0.07120963 0.14832875 0.017404918
0002c0 d9 6d 8c 3d 01 4d b9 bd d7 7e 31 3e 7c 77 22 be
       0.06856889 -0.090478905 0.17333542 -0.15865892
0002d0 d0 02 29 3e 74 bd c1 bd 6f 1d 23 3e 6b fc cf 3d
       0.16504979 -0.094599634 0.15929197 0.10155567
0002e0 79 73 0b 3e c9 60 2f 3e 4b 5a ed 3d 70 5d 25 3e
       0.13618268 0.17126764 0.11589488 0.16148925
0002f0 3b ba 6c bd 98 27 47 3e 26 5a 02 3e 80 14 43 3e
       -0.05779479 0.19448698 0.12729701 0.19050789
000300 1f 0d 17 be 30 77 e7 bd 6f 4c b0 ba 08 0a 91 3d
       -0.14751099 -0.1130203 -0.0013450513 0.070819914
000310 a2 33 21 bd b8 94 47 3e 3f 33 03 be d7 a6 0c be
       -0.03935588 0.19490325 -0.12812518 -0.1373552
000320 bf 38 2a be e5 e1 d7 3b 22 cb 36 3e 82 de e9 bd
       -0.1662321 0.006588208 0.17850927 -0.11419393
000330 fe bd 9f bd 56 5c 6a bd f4 0b a1 bd bd 81 26 3e
       -0.0779991 -0.057216965 -0.07863608 0.16260429
000340 ae 73 ed bd e0 e2 07 3e 66 23 0c 3e 40 9d f3 3d
       -0.1159433 0.1327014 0.13685378 0.118952274
000350 21 80 47 3e b2 cf d5 3d 50 47 29 3e 7c 74 fa 3b
       0.19482471 0.10440005 0.1653111 0.0076432806
000360 c4 e6 19 be 83 51 f7 bd 5a 97 dc bd 84 15 95 3d
       -0.15029436 -0.12076094 -0.107710555 0.072794944
000370 e3 89 45 bd 0a 48 f4 bd e8 8f c4 3d 4c 6b 9b bd
       -0.048227202 -0.11927803 0.095977604 -0.07588825
000380 f1 c6 f0 bd 0a 16 7e bd 72 c8 ed 3c 13 71 f9 3d
       -0.11756695 -0.062032737 0.029026244 0.1217977
000390 3e c7 42 3e a0 fb 8f bd 42 c7 d8 3d 0a 0f d6 3d
       0.19021317 -0.070304155 0.105848804 0.10452087
0003a0 c7 93 db 3d 00 c9 18 bd 4f a0 9d bd 7d 6b 07 be
       0.10721546 -0.037301064 -0.07696592 -0.13224597
0003b0 25 43 5e bd c8 71 74 bd 3e f1 02 3e 12 c0 87 bd
       -0.054263253 -0.059678823 0.12787339 -0.066284314
0003c0 0a 24 09 bd 30 d3 c5 3b 5d 89 24 3e 96 44 b9 3d
       -0.033481635 0.0060371384 0.16068025 0.09046285
0003d0 35 57 b9 bd e3 cb c1 bd bf 2d 19 3e 52 5d f0 3d
       -0.090498365 -0.094627164 0.14958857 0.117365494
0003e0 ac 48 e4 bb 53 2f f3 3b 8c 5a 8c 3d ae e0 4c 3d
       -0.006966671 0.007421413 0.06853208 0.05001896
0003f0 4c ba a9 3d 1c 57 0a be 52 4c 7d bd c7 a3 df 3d
       0.082874864 -0.13509792 -0.061840363 0.1091991

model.4.weight f4 [128, 256]
000000 b9 dc ea 3c a7 78 81 3d d3 d4 c2 3c 44 99 82 3c
       0.028669702 0.06321841 0.023783123 0.015942223
000010 c9 34 5e 3c 99 83 86 3d 1a 9a 2a 3c f1 f1 b5 bc
       0.01356239 0.06568069 0.010412717 -0.022210093
000020 73 45 58 3d 9d f3 38 3d d5 b3 21 3d 53 27 2c bc
       0.052800607 0.045154203 0.03947814 -0.0105074225
000030 5c 2c 95 3d 13 26 0f bd 67 89 75 bd 06 31 57 3d
       0.072838515 -0.03494842 -0.05994549 0.052536987
000040 82 f3 51 bd d2 0f 50 3d 08 a6 0c bd 0d 39 19 bd
       -0.051257618 0.050796337 -0.034338027 -0.037407923
000050 dd 6d 0c 3d ed 9b bd bc 25 b5 21 b9 41 32 18 bd
       0.03428446 -0.02314564 -0.00015421638 -0.0371573
000060 3d 6d 4f bd 07 3e 89 3d dc 38 e4 3c f0 61 0d bc
       -0.050641287 0.06701284 0.027859144 -0.008629307
000070 21 3d a8 3c 88 ba 0d bd 33 58 2e bd fb f5 84 3b
       0.020536961 -0.03460172 -0.042564582 0.0040576435
000080 16 fb b9 bc 61 77 c9 3a c2 63 5d bd 40 e6 ea bc
       -0.022702735 0.0015370661 -0.054050215 -0.028674245
000090 dd fb 81 bd 50 b8 f7 3c 8b a1 d4 3c a7 f6 b8 bc
       -0.06346867 0.030239254 0.025955936 -0.02257855
0000a0 0c e1 40 bc 11 de 22 3d c4 5b 65 3b a5 fd da bc
       -0.011772405 0.03976256 0.0034997324 -0.026732275
0000b0 50 da 11 3d 78 be 54 bd b0 91 3c 3d 43 18 44 3d
       0.03560859 -0.051939458 0.046037376 0.0478747
0000c0 cd c6 f6 bc 48 ec 59 3c 95 0e 49 3d 47 2b e9 3d
       -0.030124092 0.013300963 0.049086172 0.113852076
0000d0 86 a7 05 bd d8 9a 92 bb f5 c4 83 3b 4a 2c f1 3c
       -0.032630466 -0.004474025 0.004021282 0.029440064
0000e0 11 c0 19 bd bd 44 e9 3c 47 82 6f 3d 8d eb 8f 3c
       -0.037536684 0.02847516 0.05847385 0.017568374
0000f0 41 99 fd 39 04 f1 8a 3c 20 7f d6 bb 54 0e 4a 3d
       0.00048370103 0.016960628 -0.006545916 0.04933007
000100 09 5c aa ba 2d 5e 7d 3c 7a 12 43 3d 19 33 0e 3d
       -0.0012997399 0.015464348 0.047625042 0.0347167
000110 2c 3e 70 3d ec 65 2d 3c c0 53 9a 3d 7c 53 2a 3d
       0.05865304 0.010583382 0.07535505 0.041583523
000120 90 5f 60 bd b0 ee 3a bd 29 9f 62 bd 42 dc 2a 3d
       -0.054778636 -0.045637786 -0.05532757 0.04171396
000130 9b 61 f0 bc c7 c3 4c 3d 4c 9f 0c bc 5d f5 11 bd
       -0.029343417 0.049991395 -0.008582901 -0.035634387
000140 98 60 0f 3d 97 03 31 3d 8a 7f 7b bd 89 dc 87 3c
       0.03500423 0.043216314 -0.061400928 0.016584652
000150 b2 7d 8a 3d 78 e0 6d bc e7 4c 9e bc 06 5b 46 3d
       0.06762256 -0.01451885 -0.01932378 0.04842665
000160 6b 49 0f bc 80 45 5a bd a9 94 dd 3b eb 06 41 bd
       -0.008745532 -0.053288937 0.0067621064 -0.047125738
000170 fd 0e 9f 3c 13 16 81 3d 91 66 7e 3d 75 4f c0 3c
       0.019416327 0.063030384 0.062109534 0.023475388
000180 4c 91 1f 3d da b7 36 3d 95 07 46 3d 1b 3d 1d 3d
       0.038956925 0.04460893 0.048347075 0.038388353
000190 cb b2 a9 39 b3 ea 1b bd 40 87 5e bd 69 df ae bd
       0.00032367403 -0.038065623 -0.054328203 -0.08538706
0001a0 d0 a8 10 3d 59 f4 54 bd fa 43 13 3d d8 32 8e bb
       0.035317242 -0.05199084 0.0359535 -0.004339557
0001b0 2e ba 4f 3b 17 49 81 3c 62 a5 ac 3a 15 36 04 3d
       0.0031696665 0.015781922 0.0013171847 0.03227814
0001c0 b4 d6 c9 bc 4c 23 08 bb cf e8 25 bd f2 6a 6f bd
       -0.024638511 -0.0020772992 -0.040505227 -0.0584516
0001d0 5a 03 18 bd 0e 44 1e bd ad b7 03 3b da e0 11 bc
       -0.03711257 -0.03863912 0.0020098493 -0.008903706
0001e0 5e b9 9f 3d b7 e7 76 3d e9 39 e8 3c c3 6e 5b bb
       0.07799028 0.060279574 0.028347926 -0.0033482767
0001f0 b6 a9 ea bc 23 a4 fa bc 83 96 34 3d be 19 71 3c
       -0.028645378 -0.030595845 0.04408885 0.01471561
000200 fd 33 01 3d fc 90 10 bc 58 d1 85 bc 1b 11 47 3c
       0.03154372 -0.0088236295 -0.016335174 0.012150074
000210 b8 ca f9 bc 8e d0 bf bc 74 97 fd bb 6c 88 37 3d
       -0.030492172 -0.023414876 -0.007739002 0.044807836
000220 e0 d0 b2 3c 2e 0e 4c 3c e6 d6 dd 3c 21 a6 5c bc
       0.021828115 0.012454553 0.02708001 -0.013467343
000230 98 b2 61 3c 2e ab 13 bd e2 de d4 bc 0c 5f 32 bd
       0.01377549 -0.03605192 -0.025985185 -0.043547675
000240 62 e1 34 bd 26 7c ac bb 3b b5 82 bd 49 4a ef 3d
       -0.044160254 -0.005263823 -0.06382223 0.11684091
000250 c2 b1 c3 3b 13 ef 97 3d 11 e0 84 bd c6 b9 9f bc
       0.005972118 0.07418647 -0.0648805 -0.019497763
000260 5a 2f 17 3d d0 94 6d 3d 3a 58 61 3c 09 9c 1c bd
       0.036910392 0.058003247 0.013753945 -0.038234744
000270 bc 06 52 3d 90 d5 6d bd a5 e7 c4 bc 44 f4 4c 3c
       0.051275954 -0.058064997 -0.024036238 0.012509409
000280 88 85 2b bd 77 ae 87 3d ab 9a 5a ba 1d eb db bc
       -0.041875392 0.066250734 -0.00083390874 -0.02684551
000290 e6 02 29 bd 7b 48 02 3d 6c c9 04 bd 95 77 8f 3d
       -0.04126253 0.031807404 -0.032418653 0.0700523
0002a0 cb ab 49 3d 19 78 eb bc a0 9f b8 bc a1 11 49 bc
       0.0492361 -0.02874379 -0.022537053 -0.012272269
0002b0 ec 55 c6 3b 26 04 f7 3a 84 56 2e bd e8 f9 d1 3b
       0.006052723 0.0018845841 -0.042562976 0.006407965
0002c0 92 b8 16 bd d2 2e 46 bd 3d 8d be 38 88 18 37 bd
       -0.036797114 -0.048384495 9.086214e-05 -0.04470113
0002d0 48 0a 0e 3b d7 5c fc bc 69 1a 98 3d 0e 43 85 3d
       0.0021673609 -0.030805988 0.07426912 0.0650693
0002e0 1e 93 ca 3c 3e a6 b0 3d b4 17 58 bc 5a aa 52 bd
       0.024728354 0.08625458 -0.013189245 -0.05143199
0002f0 c1 56 ad bb f7 ff dd 3d f6 3b 28 3c 8a b1 b6 bc
       -0.005289883 0.10839837 0.010268202 -0.022301454
000300 6d 84 5c 3c d8 d8 29 bd c8 d2 c1 3c 65 0a 5b 3c
       0.013459307 -0.041466564 0.023660079 0.0133691775
000310 42 27 cd bb 3c c8 f1 3c 4d bb 09 3d d8 94 90 bc
       -0.0062607834 0.029514425 0.03362589 -0.0176491
000320 15 2c 53 bb 00 00 16 bd 6c 57 97 3d 6f 83 a8 3c
       -0.003222232 -0.036621094 0.07389721 0.020570485
000330 67 d0 24 bc 21 1b 51 3d ee e9 16 bd 89 a2 a4 3c
       -0.010059453 0.051051263 -0.036844186 0.020097034
000340 0f fc 52 3c 67 90 3e 3c 79 f3 e2 3b 27 45 2f 3d
       0.012877478 0.011631108 0.006925997 0.04279056
000350 02 ea 20 3c f8 db 45 3c 20 b1 09 3c 13 8c 81 3d
       0.009821417 0.01207637 0.008404046 0.06325545
000360 9f e4 15 bd 1d c7 80 3c 50 32 59 3c cc ee 69 3d
       -0.036594983 0.015719945 0.013256624 0.0571125
000370 7d df 2f 3c 5a b2 53 bd d4 a9 83 bb 19 30 79 bc
       0.010734436 -0.05168376 -0.004018048 -0.015209221
000380 70 86 cf 39 bc d1 89 bd 7d cc 02 bd 4e ee 8c 3d
       0.0003958228 -0.06729457 -0.031933296 0.068813905
000390 3d 1e 60 3d c1 52 a0 3c 2c 84 97 3b b7 cc e6 bc
       0.054716337 0.01957071 0.0046239104 -0.028173788
0003a0 5b 8c 74 bd 8d 77 43 bd ce 33 d1 bc 65 53 a5 bc
       -0.059704166 -0.047721434 -0.025537398 -0.020181367
0003b0 87 5b 9b 3c 34 79 fc bb ed 7d a6 3b 73 37 4f 3d
       0.018964542 -0.007704878 0.0050809295 0.05058999
0003c0 6e 74 1d bd 7b 1a 80 bc 28 10 e8 3c 18 2b 1f 3c
       -0.038441114 -0.015637627 0.028328016 0.009714864
0003d0 f8 2c 21 bd 0b 0d 40 bd ff fb 56 3d bf d8 0d bc
       -0.039349526 -0.04688744 0.052486416 -0.008657633
0003e0 d8 e2 fd 3c dc a7 18 3d e8 83 3d 3d 6d 5d cc 3c
       0.030991957 0.03726946 0.046268374 0.024946893
0003f0 05 ca 31 3d af 5b 1f 3c 07 20 a7 3c 57 17 45 3c
       0.04340555 0.009726449 0.020401014 0.01202949

model.4.bias f4 [128]
000000 fe 4a 96 3d 67 b0 8b 3d 3b e6 02 be 3a bc ae 3d
       0.073385224 0.068207555 -0.12783138 0.08531995
000010 07 9c ac 3d b6 c3 06 3e 46 19 14 3e 2f 61 9f 3d
       0.08428197 0.13160595 0.14462766 0.07782208
000020 c7 60 ac bd 78 72 aa 3d 0f f2 0a 3e 22 7d fc 3d
       -0.08416896 0.083226144 0.135689 0.12328555
000030 32 35 41 3d 74 46 e0 3d aa 5a bc 3d 71 e0 e5 3d
       0.04716987 0.10950938 0.0919698 0.112244494
000040 ad dd a0 3d ee 82 ff bc e1 4d 0a 3e e3 de 84 3d
       0.07854781 -0.031190362 0.13506271 0.06487825
000050 3c 64 db 3d df 70 0a 3e a7 64 8e 3c 24 a0 d0 bd
       0.107124776 0.1351962 0.01738198 -0.101867944
000060 49 b2 0b bd 34 2d 96 3d 87 b5 e1 bd 5c 26 5c bd
       -0.034105573 0.073328406 -0.11020952 -0.05374752
000070 3c 30 85 bc dd 1a 04 3e 3d d2 8a bc 94 86 f7 bd
       -0.016258352 0.12900873 -0.016945953 -0.120862156
000080 d6 6d c8 3d 64 0e de bd b3 f3 1a 3b cd 9b 80 3c
       0.097865745 -0.108425885 0.0023643791 0.015699292
000090 a7 3b 8c bd 18 09 04 bd 13 74 15 3e 5d 79 f5 3c
       -0.06847315 -0.032235235 0.1459506 0.029965097
0000a0 b8 2c 02 3e 68 a0 ab 3d 93 a1 95 3d 91 eb ea 3d
       0.12712371 0.083802044 0.073062085 0.11470712
0000b0 03 41 8b 37 5e df 9d 3d 66 07 24 3c 11 85 b0 3c
       1.6600365e-05 0.077086195 0.01001153 0.021547826
0000c0 6b 2f 90 3d 23 7b 99 3c fc 06 85 3d 9f 92 c1 3d
       0.07040294 0.018735474 0.06495473 0.09451794
0000d0 b6 0b 5b 3d 0c 2f 92 3c 2e 07 47 bd ad dc f0 3d
       0.053477965 0.0178447 -0.04859083 0.117608406
0000e0 67 39 a6 bd 95 b0 8a 3d 46 82 85 3d fd 44 75 3d
       -0.081164174 0.067719616 0.06518988 0.059880245
0000f0 9b 9d d5 3d 35 97 1a be 28 ec 84 3c eb 99 8a bd
       0.104304515 -0.15096743 0.01622589 -0.06767639
000100 fd 7b f6 bc 26 47 71 bc b6 e1 91 3c 3c c7 00 bd
       -0.03008842 -0.014726436 0.017807823 -0.031440005
000110 cf d4 9f 3d f7 d1 b2 bd 09 fc a9 bd cd c7 fc 3d
       0.07804262 -0.08731454 -0.08300025 0.123427965
000120 86 98 cf 3d 66 93 04 3e 78 ae 00 bd 7d 16 a0 3d
       0.101365134 0.12946853 -0.031416386 0.07816789
000130 db 66 e9 bd ec ca cf bd 9c 18 b9 3d b1 6d d1 3d
       -0.11396571 -0.10146126 0.09037897 0.10226
000140 6a 0b c6 3d 51 b8 55 bc 45 1c 92 3d 8f d8 b3 3b
       0.09670146 -0.013044433 0.07134298 0.0054884623
000150 fa bc e4 3c f9 ba f6 bd 2a 2a d3 3c 2e 93 d8 3a
       0.027922142 -0.12047381 0.025776941 0.0016523355
000160 25 f4 13 3e e2 5e 39 3c 43 35 99 3d c6 73 08 be
       0.14448602 0.011314126 0.07480862 -0.13325414
000170 64 b4 e9 3d 86 d5 e6 bd b3 33 c7 bd 98 95 f8 bd
       0.1141136 -0.11271195 -0.09726658 -0.12137908
000180 6b fb 98 bd fd d1 cc bc ff 15 42 bd b1 95 f2 3c
       -0.07469829 -0.025002474 -0.04738426 0.029612394
000190 96 ed ba bd 2b 4b 15 be 21 53 b2 bd ae ec 80 bd
       -0.09127347 -0.14579456 -0.08707262 -0.06295143
0001a0 12 ee 41 bd d1 2b fb 3d 77 c0 98 3d 9e 2d d3 3d
       -0.047346182 0.12264217 0.07458585 0.10311435
0001b0 7b e6 dd bd 07 82 c1 3d 27 ef 96 bd 51 05 c2 3d
       -0.10834976 0.09448629 -0.073698334 0.0947367
0001c0 f3 ed 02 3e cd fb 07 be c8 79 e2 bb c1 3e 5e bd
       0.12786083 -0.13279648 -0.00691149 -0.054259066
0001d0 1e 0a 27 3e b3 b6 94 bd 56 b3 37 3e e6 a6 0b 3e
       0.16312453 -0.072614096 0.17939505 0.13637885
0001e0 04 a0 53 3c f1 bd 1a be 18 38 50 3d 81 01 bc bd
       0.012916569 -0.1511152 0.050834745 -0.09179974
0001f0 64 55 cb 3d c3 13 de 3d 41 66 e8 3d 1f cc b9 3c
       0.09928396 0.10843613 0.113476284 0.02268034

model.6.weight f4 [1, 128]
000000 2a 93 b3 bd 7b ff 3c bd 39 af a8 3d 0b f4 83 bc
       -0.08768304 -0.046142083 0.08236546 -0.01610758
000010 5b 12 29 bd fc aa aa bc 7e 88 0a be 20 2e 59 bd
       -0.04127727 -0.020833485 -0.1352863 -0.053022504
000020 fd 14 a9 3d 6a 71 ac bd f2 1b f2 bd 2f eb a6 bd
       0.08255956 -0.084200695 -0.118217364 -0.081503265
000030 90 b8 c2 bd 61 7c a2 bd 82 6a a5 bd 48 92 4f bd
       -0.09507859 -0.0793388 -0.080769554 -0.050676614
000040 8b 5f f1 bd 96 3c 74 3d 50 c1 2c bd f2 cf e8 bd
       -0.117858015 0.05962809 -0.042176545 -0.113677874
000050 ea 2d 87 bd 7b 13 20 be 0d d4 05 3c f0 46 c0 3d
       -0.06600554 -0.15632431 0.008168233 0.0938853
000060 8f 5b 32 3d dc 8f c3 bc 08 de bd 3d 02 75 20 3d
       0.04354435 -0.023872308 0.09270865 0.039174087
000070 fa 38 71 3d 57 0a 60 bc 91 58 86 3d 0f c9 1b 3d
       0.058892228 -0.01367434 0.065598615 0.03803354
000080 b9 cc ec bd ba 41 9c 3d bf 67 e4 3c f9 ed 98 3d
       -0.11562485 0.07629724 0.027881501 0.07467265
000090 e4 ac ab 3d 56 7d 47 3d df df d9 bd d3 42 af 3d
       0.08382586 0.048703514 -0.10638403 0.085576676
0000a0 8f 91 93 bc d2 a2 6b bd 6b f5 cb bd 29 6e f2 bd
       -0.018013744 -0.057528324 -0.09958919 -0.11837418
0000b0 96 e3 3e 3d 5d a0 b8 bd 18 eb f1 3c 81 21 9b 3c
       0.04660376 -0.09014962 0.029531047 0.018936874
0000c0 c2 80 d2 bd 00 13 45 3c dd 07 53 bc 2a 89 da bd
       -0.10278465 0.012028456 -0.012880293 -0.10670693
0000d0 6d d7 85 bd 15 6e 7a 3d 4b 08 07 3d e7 d9 67 bc
       -0.0653523 0.06114014 0.032966893 -0.014151073
0000e0 85 ca 7e 3d 23 8b 01 be 2b 37 ec bd 11 df bd bd
       0.062204856 -0.12650733 -0.1153396 -0.09271062
0000f0 1e 0d d6 bd 2d 2d 5b 3d 5e 82 4e 3d 89 f9 e2 3d
       -0.10451721 0.05350988 0.050417297 0.11082751
000100 11 43 9c 3c b1 7d 7f 3d 78 d6 2c 3d d4 71 17 3d
       0.019074949 0.062375728 0.04219672 0.03697379
000110 59 82 5f bd 4f 0d 43 3d 1c 81 c5 3d 18 32 71 bd
       -0.05456767 0.047620114 0.09643766 -0.058885664
000120 f9 6c df bd 65 6c d3 bd 9a ab ae 3d 36 ca c2 bd
       -0.10909457 -0.10323409 0.08528824 -0.09511225
000130 df de ff 3c 71 c7 86 3d 2d da b7 bd b1 d4 e9 bd
       0.031234203 0.06581009 -0.089771606 -0.11417521
000140 57 36 19 bd a1 4a 2c 3d 2a b7 e5 bd 25 ae b2 3d
       -0.03740534 0.04206336 -0.112165764 0.08724622
000150 c5 56 29 3d b3 42 6e 3d e9 ba 35 3d de b7 9b bd
       0.041342515 0.058169078 0.044367705 -0.07603429
000160 33 93 ef bc bc 78 79 3d b1 51 68 bc ef ad a0 3d
       -0.029244995 0.060906157 -0.014179633 0.07845675
000170 8d 79 04 be 1d cc 8e 3d 03 46 76 3d e5 24 65 3d
       -0.12936993 0.06972525 0.060125362 0.05594339
000180 37 87 2a 3d 88 9c 26 3d 68 c0 38 3d 48 0d 93 bd
       0.041632857 0.040676624 0.045105368 -0.071802676
000190 cd 8e c3 3d 40 8e 95 3d 5b 73 14 3d 38 f5 92 3d
       0.095487215 0.07302523 0.036242824 0.07175678
0001a0 10 c8 a1 3d 99 21 f6 bd 37 ee 9c bd d1 3b ee bc
       0.07899487 -0.12018127 -0.076626234 -0.029081257
0001b0 c6 83 77 3d 53 2b 19 be 0e d9 15 3e 63 49 8c bd
       0.060428403 -0.14957933 0.14633581 -0.06849935
0001c0 58 51 0e be d2 68 8f 3d ce b9 32 3c 23 e5 a5 3d
       -0.13898218 0.07002415 0.010908557 0.08100345
0001d0 50 1b d6 bc 44 26 14 3d bc e9 27 bd 77 56 7b bd
       -0.02613607 0.036169305 -0.04099439 -0.061361756
0001e0 09 f6 e8 3c 4b 2a 6c 3d ce 80 b4 bd e9 79 eb 3c
       0.028437631 0.05765752 -0.0881363 0.028744655
0001f0 fb ab 7c bd 5b b0 ac bd 27 52 57 bd 04 07 2c 3d
       -0.06168745 -0.08432075 -0.05256858 0.041998878
