models/discriminator_epoch_1.pth (torch, 951720 bytes, 7 tensors)

model.0.weight f4 [512, 141]
000000 78 ee 74 bc 23 7e 11 3b 5e 08 22 3d 4f 40 bd bd
       -0.0149494335 0.0022200427 0.03955876 -0.092407815
000010 4e 7f 68 bd e2 63 6b 3d 9d 79 12 bd 7a 07 07 3d
       -0.056762032 0.057468303 -0.03576051 0.032966115
000020 dc c9 2f bd c6 2d 24 bd f6 d5 8c bd 02 d8 7d 3d
       -0.042917117 -0.040082715 -0.06876747 0.06197358
000030 6f b2 a8 bd 08 ee b9 bd 1a 9c 1c bd f0 d3 36 bd
       -0.082371585 -0.09078604 -0.038234808 -0.044635713
000040 25 20 a3 bd bd 42 82 3d 09 85 bd 3d ec a3 df 3c
       -0.079651155 0.063603856 0.0925389 0.027299844
000050 42 d6 13 bc ae 0f 93 3d 70 c8 b1 3c 4c c0 d9 bc
       -0.009023251 0.07180725 0.021702021 -0.026580952
000060 f1 08 98 bd 34 5c 8b 3d d8 2e 31 3d c0 cf 4b 3d
       -0.074235804 0.06804696 0.043257564 0.049758673
000070 be 91 2e bd ea 6e a7 ba 88 98 92 bd 9c e6 68 3d
       -0.04261946 -0.0012774144 -0.07157999 0.05686055
000080 0d 6d 0f bd 5b a2 2f bd 9a 5b 2d 3d 1d 8f c2 3d
       -0.03501611 -0.042879444 0.042323686 0.09499953
000090 65 f3 68 3d 8e 4c 95 bd 87 9b 69 3d d4 55 44 bd
       0.056872744 -0.07289992 0.057033088 -0.047933415
0000a0 4e ed c3 3c 3c ba 26 3d 2d a7 5b bc a0 95 38 3d
       0.023916867 0.04070495 -0.013406557 0.04506457
0000b0 2c fa 04 bd 3d 20 c2 bd ee 2d ce bd dc ce f0 bc
       -0.032465145 -0.09478805 -0.10067354 -0.029395513
0000c0 54 d5 b8 bc 51 b9 4e bd 40 e5 42 bd 33 a6 51 bd
       -0.02256266 -0.0504697 -0.04758191 -0.05118389
0000d0 7e 89 b5 3d 56 c7 81 bd 84 16 d7 3c 92 d9 af bd
       0.08864115 -0.063368484 0.026255853 -0.0858642
0000e0 45 80 d4 ba 4a 00 4a 3d 68 a8 b4 bd ca 8f 07 3c
       -0.0016212544 0.049316682 -0.088211834 0.008274028
0000f0 72 da bf bc bb 70 97 3d c4 08 91 bd 11 6f a2 bb
       -0.023419593 0.073945485 -0.0708175 -0.004957088
000100 11 72 9c 3d f2 6a 7d 3a b4 dd 56 3c 79 9d 9f bd
       0.07638944 0.000966712 0.013114382 -0.077937074
000110 cd f4 3c bd f8 f8 7e 3c 90 6d a2 3d 31 07 6b bc
       -0.046131898 0.015562288 0.07931054 -0.014344976
000120 77 08 eb bc 2b 3c 5d 3d a9 db 06 3c 76 2e 21 3c
       -0.02869056 0.05401246 0.008231082 0.009837737
000130 b2 f7 1e bd 9d 74 5d 3d de a6 9b 3d 70 1e 5a bd
       -0.03881044 0.05406629 0.07600187 -0.053251684
000140 16 00 cf 3c 42 0b 27 3c d4 91 4d 3d 44 da af bb
       0.025268596 0.010195555 0.0501879 -0.0053665955
000150 d3 47 50 3d 43 9a ab bd e2 e2 02 3d 9f d7 6f bd
       0.050849747 -0.083790325 0.031954654 -0.05855524
000160 c8 a0 24 3d 60 fd 47 bd 81 1d a6 bc e7 9f b2 3d
       0.040192395 -0.04882562 -0.02027774 0.08721905
000170 83 47 60 bd 4c b9 9e bd 1b ac 7b 3c b6 40 f5 3c
       -0.0547557 -0.07750186 0.015360857 0.029938083
000180 5c f1 84 3c 89 c5 19 bd c1 55 79 3c 6f 18 9f 3d
       0.01622837 -0.0375419 0.015218199 0.07768332
000190 a3 9b f4 bb 96 67 f1 bd 69 2b e8 3c 0a 8e 1e bd
       -0.0074648424 -0.117873356 0.028341012 -0.038709678
0001a0 ea 15 84 bd 81 22 24 bd e0 5d fc bd 81 40 c3 bd
       -0.06449492 -0.040071968 -0.12322593 -0.095337875
0001b0 b6 01 6b 3d 10 2c 88 3c a7 89 99 bd 1e 2e 1e 3d
       0.05737468 0.016622573 -0.07496958 0.0386182
0001c0 2a 86 dd 3b 41 0d 98 3d e3 ba 7f bd 00 61 7b bd
       0.0067603784 0.07424403 -0.06243409 -0.061371803
0001d0 7c 92 66 ba 6d 7f 21 bd c8 1b 50 bd 38 41 0c bd
       -0.00087956316 -0.039428163 -0.050807744 -0.034241885
0001e0 68 80 db 3d 48 85 ba 3a 40 69 92 bd 3f 22 8b 3c
       0.10717851 0.0014230395 -0.07148981 0.016984103
0001f0 2f 74 31 bd 8c e8 7e 3d 3f 0a fb bb 0a bc 76 bd
       -0.043323692 0.062233493 -0.0076611335 -0.06023792
000200 04 0a 83 3d 30 cd 9c 3b 81 3f 72 bd 26 56 c4 3d
       0.06398395 0.0047852024 -0.059142593 0.09586744
000210 01 8b 0b 3d 9c 4f 91 bd 3c 52 cf bd 4f 82 a8 bc
       0.03406811 -0.070952624 -0.10123107 -0.020569948
000220 39 1f d7 3c 36 c9 0a bd e2 0d 1f bc d0 94 65 3d
       0.026260005 -0.033883296 -0.0097079 0.05605012
000230 81 99 c2 bc 49 72 4b 3d a7 e8 61 bb f3 90 13 bd
       -0.023754837 0.049669538 -0.0034470947 -0.036026906
000240 e2 de 13 3b 0c 55 a5 3c 90 81 a3 3c a9 72 93 b9
       0.0022563268 0.020182155 0.019959241 -0.00028123453
000250 ef 8f e2 bc 2c e3 a4 3c 26 41 33 3d cf a0 02 bd
       -0.027656524 0.020127855 0.043763302 -0.03189164
000260 17 9d 9e 3c 17 bc 54 3b fa b7 46 3d 00 fd 5e 3d
       0.019362016 0.0032460743 0.048515297 0.0544405
000270 d3 4e 0d 3d c9 c7 b8 3c 72 5c 25 3d cf 04 34 bd
       0.034499 0.022556202 0.040371366 -0.0439499
000280 ea 1b 33 bc a0 66 d4 3c db 77 ca 3b 4a 3b 3b bd
       -0.010931948 0.025927842 0.0061788387 -0.04571084
000290 95 e2 2c 3d e7 55 88 bd 18 67 b1 36 1d 76 4f bc
       0.042208273 -0.066570096 5.2870128e-06 -0.012662438
0002a0 03 93 6c 3d 1b 15 a4 bd e1 d1 8a bd 77 85 03 bc
       0.05775739 -0.08011838 -0.067783125 -0.008027426
0002b0 28 19 0e 3d 69 bc 8d bd 97 09 0b bc de 6b 44 bb
       0.03469196 -0.06920702 -0.008486173 -0.002997152
0002c0 97 6a b1 bb 2e 35 cf 3c fc ce 3f bd 52 55 60 bd
       -0.005414318 0.025293913 -0.046828255 -0.054768868
0002d0 9e 31 b7 3c f7 74 78 3d ab 58 8b bb 01 1c 93 bc
       0.022362527 0.06065842 -0.0042525134 -0.01795769
0002e0 0e 0c ec 3a 02 5b b9 3c f2 d0 d0 bb 8b bb 13 bd
       0.0018008964 0.022626404 -0.0063725645 -0.036067527
0002f0 e2 e1 73 3d 56 01 11 bd fa 63 1f 3d 24 1c dd 3c
       0.05954159 -0.035401665 0.038913704 0.026990958
000300 58 41 b9 bd 80 0b 78 3d bb 85 20 3d ee 45 d9 bc
       -0.090456665 0.060557842 0.039190035 -0.026522603
000310 fe 2c 59 3c f2 37 5d bd b2 8f 42 bd ef 02 11 3c
       0.013255356 -0.05400843 -0.04750032 0.008850797
000320 1b 03 2c 3d b7 8f cc bc 3a 87 54 bd a5 41 4f bd
       0.04199515 -0.024970872 -0.051886775 -0.050599713
000330 64 4b 65 bd 48 ba 81 3d 89 0f 23 bc 1f af 75 3d
       -0.0559801 0.063343585 -0.009952434 0.05998146
000340 a4 01 d2 bc bc 95 d2 bc ec 43 ad bc 31 22 ab bc
       -0.025635548 -0.025706165 -0.021150552 -0.020890327
000350 86 bd 71 3d 19 38 45 bd fa 24 6a bc 71 2b a8 bc
       0.059018634 -0.048149202 -0.014291042 -0.020528527
000360 71 2e 18 bd 23 3c b5 bd 6e 96 40 3d 96 ec 47 3c
       -0.037153665 -0.08849361 0.04701846 0.012202403
000370 16 e8 b4 bc 52 50 44 bd 19 b3 5b ba 35 9b 14 3d
       -0.022083323 -0.047928162 -0.00083808746 0.03628083
000380 fa d4 14 3d 64 09 86 3b 4c 43 87 bc 47 f2 3c 3d
       0.036335923 0.004090475 -0.016511582 0.04612949
000390 f6 32 f2 bc 4e a0 c6 bc 5d fd 7c bd 60 3a b0 bb
       -0.029565316 -0.024246361 -0.061765064 -0.0053780526
0003a0 da a2 7c 3d f9 7b c4 3c 13 56 54 3d 07 64 e4 3c
       0.061678745 0.023984896 0.0518399 0.027879728
0003b0 9e 90 ad bc 90 fd 17 3d da 48 73 bb 75 52 2a 3c
       -0.021187123 0.03710705 -0.003712228 0.010395636
0003c0 74 3a 04 bd d7 9e 9c bd 13 f3 2f bd 99 f2 5a 3d
       -0.032282308 -0.07647484 -0.042956423 0.053454015
0003d0 62 e6 6d bd a4 44 84 3d e0 42 1a 3d fc ce 8c 3c
       -0.05808104 0.06458405 0.037661433 0.017188542
0003e0 61 4a d4 ba 61 ba 53 bc a7 4c 46 bd e5 ed 42 bc
       -0.0016196483 -0.012922854 -0.048412945 -0.011897539
0003f0 74 bd c0 3b 12 4a ff bb a4 e4 74 bd f7 e8 0d 3d
       0.0058819596 -0.0077908123 -0.05978836 0.034646

model.0.bias f4 [512]
000000 4f 05 01 3e 77 92 40 be 70 56 48 3d 03 3b f6 bd
       0.12599681 -0.18805872 0.04891056 -0.12022974
000010 ea 2b eb 3d cb fb 89 bc d7 0e 82 3e c2 da 4f 3e
       0.11482985 -0.016843697 0.25401947 0.20298293
000020 f7 99 3e be 5d 3a 1d be 3e f9 2e be 93 b3 a7 3d
       -0.1861342 -0.15354295 -0.17087266 0.08188548
000030 2d cd 39 be fd 00 5b be ed c1 54 3e 50 f6 7e 3d
       -0.18144675 -0.21387096 0.20777102 0.06224662
000040 92 34 1a 3e d9 98 05 3e 10 08 ff 3a 7a fa 2c bd
       0.15059116 0.13046588 0.0019457359 -0.04223106
000050 1a 28 3e be c3 3a c5 bd 16 1f a2 bd ec c7 bd 3d
       -0.18569985 -0.096303485 -0.079160854 0.09266648
000060 47 f0 5d bd f8 4e ee 3d 6e 68 39 3e f2 11 29 be
       -0.054184224 0.11636156 0.18106243 -0.16510752
000070 57 6d 33 be 28 fa ac 3c 36 7b 23 be 4f ad 3b 3e
       -0.17522179 0.021115378 -0.1596497 0.1832783
000080 74 d6 28 3d ac 27 30 3e 01 17 b5 3d d9 6a 49 3d
       0.041220143 0.17202634 0.08842278 0.049174163
000090 fd 7c 4e 3d 06 d2 1e 3e a4 6b 42 3e 61 f1 1e be
       0.050412167 0.15509805 0.18986374 -0.15521766
0000a0 f8 b8 32 be e2 e3 b6 3d c1 5f 30 be 91 f3 4b 3d
       -0.17453372 0.08930184 -0.17224027 0.04979283
0000b0 72 01 1c be 15 29 b6 3d 22 12 e6 bd 53 12 5f 3e
       -0.15234926 0.088945545 -0.11233927 0.21784334
0000c0 58 22 1b be b9 96 39 bd 51 2f d0 3d 41 d8 1a be
       -0.1514982 -0.045309756 0.10165275 -0.15121557
0000d0 cc 0a 63 be 0a c5 47 be 2e 67 23 be 82 a5 5b 3d
       -0.22172087 -0.19508758 -0.15957329 0.053624637
0000e0 5a 19 67 be dc 53 42 3e 22 62 f4 3d 1b f0 9f bd
       -0.22568265 0.18977302 0.1193278 -0.07809468
0000f0 b9 ef ac 3d 32 ed c1 3d 03 f2 c6 bd 18 01 02 be
       0.08444161 0.094690695 -0.09714129 -0.1269573
000100 ba 56 25 be 0e d2 06 3e b9 27 3c be d2 82 07 3e
       -0.16146365 0.13166067 -0.18374528 0.13233498
000110 fd de e3 3d 63 f4 44 3d e4 b1 3c be 46 f8 ec bd
       0.11126516 0.048084628 -0.18427235 -0.11570792
000120 0e 9e 9e bb 7b 5a 37 3e e4 3a ff 3d f3 1a 23 be
       -0.004840619 0.1790561 0.12462404 -0.15928249
000130 5f 84 79 bd 74 4d 06 be 77 29 10 3e 52 94 52 bc
       -0.060917255 -0.13115484 0.14078318 -0.012852745
000140 84 76 20 3e e8 9b 66 3e e2 54 dc bd bd 3e 71 3e
       0.1567021 0.22520411 -0.107583776 0.23559089
000150 be 4a b4 bd 28 1d b1 3c 51 11 16 3e 99 f0 30 3e
       -0.088033184 0.021620348 0.14655043 0.1727928
000160 5f 07 34 3e 4c e3 4c 3e 66 b1 b0 bd e3 4e 9b 3e
       0.17580937 0.20008582 -0.08627586 0.30333623
000170 b6 55 44 3e db e9 d5 3d a0 45 44 be 23 95 0f be
       0.19173321 0.10444995 -0.19167185 -0.14021735
000180 9c be 61 be e7 59 6f bd 47 d2 98 bd f8 c5 16 be
       -0.22045368 -0.058435347 -0.07461982 -0.14723957
000190 3f 13 a5 3d d9 e1 86 39 a3 aa 3d 3e 9d 46 33 3e
       0.080603115 0.0002572674 0.18522124 0.17507406
0001a0 7e 78 ac bc ff 30 2c be 1d 7f 31 be e7 fa 2f 3e
       -0.021053549 -0.16815566 -0.17333646 0.17185555
0001b0 7a f9 53 3e 0e 0c 60 3e 7a 75 fd 3d fb 6c 5a be
       0.20700637 0.21879598 0.123759225 -0.21330635
0001c0 e4 10 00 be 68 52 cc 3d 53 5a 49 3e 74 27 42 be
       -0.12506443 0.09976655 0.19663362 -0.18960363
0001d0 ad 94 2e be d2 da 0f 3e b5 43 34 be e8 ca 05 3e
       -0.17048903 0.14048317 -0.17603953 0.13065684
0001e0 72 4a 47 3e 68 57 17 bd 78 2f 44 3e 47 68 3e be
       0.19461992 -0.03694859 0.19158733 -0.18594466
0001f0 47 32 10 be f0 cd 20 3e 8e db 3e bd 1c 21 74 bc
       -0.1408168 0.15703559 -0.046596102 -0.014900472
000200 4f e0 2d 3e 4b d8 e0 bd d9 10 62 bd df c3 56 be
       0.16980098 -0.109787546 -0.05519185 -0.20973156
000210 f8 52 0d be 76 19 2b be da c6 ae 3b af d5 34 be
       -0.13801181 -0.16708931 0.0053337635 -0.17659639
000220 cd 11 0d bd 8e 7c 02 3e ab 50 04 bd c2 5f ea 3d
       -0.034440804 0.12742826 -0.032303493 0.114440456
000230 3a e2 40 3e 44 a6 75 bc 5c 0b c3 bc cc a4 23 be
       0.18836299 -0.014993254 -0.023809128 -0.15980834
000240 0c 3a 71 bd b2 e7 a2 3d 2f db 27 be 2a 05 12 be
       -0.05889325 0.079543486 -0.16392206 -0.14259782
000250 ff 12 b2 bd dc 02 d0 bd 67 c4 2b be 69 a6 e3 bd
       -0.086950295 -0.101567954 -0.1677414 -0.111157246
000260 31 16 06 3e 3d f7 96 bd 4b 86 41 be df 6e 54 3e
       0.13094403 -0.07371376 -0.18898885 0.20745419
000270 3b f8 75 3e ce 8d c7 3c 4b ae 3b 3e fd ba 40 3e
       0.24020474 0.02435961 0.18328206 0.1882133
000280 46 51 05 bd 44 0f 26 3e 45 59 34 be d6 eb 3a be
       -0.03254821 0.16216761 -0.17612179 -0.18254027
000290 f1 c5 94 bd 01 89 09 3e 00 12 08 3e 50 3b 1a be
       -0.07264317 0.13431169 0.13288116 -0.15061688
0002a0 71 c1 56 3e b1 c3 f9 3d 09 0d 2f be f0 d3 34 3e
       0.2097223 0.12195528 -0.17094816 0.17658973
0002b0 0b 22 95 bd 6f ab 0d be 92 f1 fd bd c3 93 2d 3e
       -0.07281884 -0.13834928 -0.123995915 0.16950898
0002c0 48 23 4a be 8c 62 0c be 2d 66 94 3d f0 b2 ee 3d
       -0.19740021 -0.13709468 0.07246051 0.11655223
0002d0 ec 07 2b 3e 8e ed 0a 3e 3d 10 3e be 20 b8 5f 3e
       0.1670224 0.13567182 -0.18560882 0.21847582
0002e0 e5 0a 67 3e 1f ee d7 bd ce f8 be 3d a9 fd 50 3e
       0.2256275 -0.10543465 0.093247995 0.20409264
0002f0 12 5b bd 3d 2d f8 4a 3e ef f3 36 3e 65 ef 81 bd
       0.09245886 0.19821234 0.17866491 -0.06344489
000300 a3 fb 0a 3e b8 7e 28 3e c7 75 3a be ea c6 18 be
       0.13572554 0.1645459 -0.18208991 -0.1491963
000310 9c 12 c1 bd 6d 66 51 be 8c 04 3a be 48 2b 66 be
       -0.094273776 -0.20449229 -0.18165797 -0.22477448
000320 ac e0 0a 3d 08 ee 0f 3e ee ca 07 be 92 40 68 3e
       0.03390567 0.14055645 -0.13261005 0.22680882
000330 01 f8 22 3e 83 c3 0f 3e 16 ee 16 be b7 86 4c 3e
       0.15914918 0.14039426 -0.1473926 0.19973265
000340 43 33 82 3d d4 e9 b9 bd 53 7f 86 3e aa 75 8d bd
       0.06357434 -0.09077802 0.26269016 -0.06907208
000350 44 da ec bd 1d 45 4a 3e 05 8f c5 3d e3 59 1d be
       -0.11565068 0.19752927 0.096464194 -0.1536632
000360 8a 02 3a 3e 40 29 ac 3d 82 b5 02 be de cf c9 3d
       0.18165031 0.08406305 -0.12764552 0.09854101
000370 fb be a7 bd 0b 7a 59 3e 79 6b e8 3d 7e 9f 0c 3e
       -0.081907235 0.21237962 0.11348624 0.13732716
000380 bf 7c 0c be ec a5 1c 3e f3 b5 2b 3e 90 00 28 3d
       -0.13719462 0.15297669 0.16768627 0.04101616
000390 75 fa 29 3e cf 89 14 be 14 3b da 3d da 89 14 3d
       0.16599448 -0.14505695 0.106557995 0.036264278
0003a0 e9 7d 5e 3e 93 6b 29 be 7e 0b bc 3d e6 42 c6 bd
       0.21727718 -0.16544943 0.091818795 -0.096807286
0003b0 40 8b 52 be c1 76 12 3e 5e 1a cb bd 0a 6d f1 bd
       -0.20560932 0.14303114 -0.099171385 -0.11788376
0003c0 a8 9a d8 3d f6 fe d4 bd e5 d5 29 3e c9 21 1a be
       0.10576373 -0.104001924 0.165855 -0.1505195
0003d0 52 32 12 3e 43 84 b5 3c 15 32 a0 3d d3 16 63 bd
       0.14277008 0.022157794 0.078220524 -0.05544169
0003e0 85 7e e3 bd 72 36 55 be fd 7f 02 be 0c b3 3e bd
       -0.11108116 -0.2082155 -0.12744136 -0.04655747
0003f0 a8 6c 52 be d2 cb bd bd b5 a3 2f 3e 19 82 84 3e
       -0.20549262 -0.09267391 0.17152293 0.25880507

model.2.weight f4 [256, 512]
000000 5f 16 cc 3c 99 78 86 bc 90 62 31 3c 6f 92 a4 3b
       0.024913011 -0.016414927 0.010826722 0.005022339
000010 cf f1 d1 ba 35 24 38 bc 99 ce 38 3d 6c b2 e8 3d
       -0.0016017499 -0.011239101 0.045118902 0.11362156
000020 a1 e6 39 bd 4b 49 45 bd 7c 2d 03 bc ed fd 17 3d
       -0.04538596 -0.0481656 -0.00800645 0.037107397
000030 93 75 0e 3d 79 84 0e bd ab 86 7b 3d 29 2f 25 3d
       0.034780096 -0.034794305 0.061407726 0.04032818
000040 04 94 37 3c 58 1d da 3c c1 f9 5a bc ac ab bc 3b
       0.011204723 0.02662532 -0.01336521 0.0057577696
000050 2d 94 94 bc e8 37 a4 bc 00 d9 8e bc cc cb 4e 3c
       -0.018137062 -0.02004619 -0.017437458 0.012621831
000060 52 30 c0 3c 87 c8 fe bc 76 b5 59 3c 3c df 4a bd
       0.02346054 -0.031101478 0.013287893 -0.0495293
000070 13 79 32 bc 58 99 ce 3b af 91 b0 3b 19 64 9f bc
       -0.010893124 0.006304901 0.0053884606 -0.01945691
000080 c3 40 54 3c 6f 24 88 bc 75 b4 52 bc a8 01 32 3d
       0.0129548935 -0.016618935 -0.012860407 0.04345861
000090 bb ad c7 3c e5 1c 3d 3d cc 5e 62 3d 0c 30 b2 bc
       0.024374833 0.046170134 0.055266187 -0.021751426
0000a0 04 4d 31 bd 80 de af 3b 2c a0 75 bb 09 b0 69 3d
       -0.04328634 0.0053671002 -0.0037479503 0.057052646
0000b0 08 c0 35 bd dd 3e 9f ba 93 48 e6 bc 81 7e 8b 3c
       -0.04437259 -0.0012149472 -0.028110778 0.017028095
0000c0 03 cb 95 3b fb f8 a9 bc 7a 5a bd ba 2d 37 fb bc
       0.00457132 -0.020748606 -0.001444652 -0.030665958
0000d0 2b 46 2d bd 49 87 84 bd 77 14 d0 bc d9 d7 7a 3c
       -0.042303246 -0.06471116 -0.025400383 0.015310251
0000e0 ce 5e 36 bc 80 3e 03 3d 77 46 43 bb 05 ad 98 bc
       -0.011131002 0.032042027 -0.002979664 -0.01863719
0000f0 91 35 b9 3c 6f 80 f4 bc 9f 05 19 3c 41 d4 c9 3c
       0.02260855 -0.029846398 0.009339719 0.024637343
000100 65 60 8c bb e5 03 17 3d 23 24 48 bd 3f 61 a0 3c
       -0.004283952 0.03686895 -0.048862588 0.01957762
000110 53 86 95 3d 6f 2a 35 3b 48 61 3d bd b2 bb 7c 3c
       0.07301011 0.00276437 -0.046235353 0.015425609
000120 99 fe 3c 3d 6b 2f 60 bc 63 25 0d 3d 6d 3f 39 bd
       0.04614124 -0.01368318 0.034459483 -0.045226503
000130 ec f0 b3 3c 88 06 04 bd 20 41 85 bc 5e d1 5a 3c
       0.021965466 -0.03223279 -0.016266406 0.013355581
000140 44 d2 84 3c 19 71 a8 3d e4 43 16 bd 4c b5 81 3d
       0.016213544 0.08224697 -0.03668584 0.06333408
000150 80 e8 c6 3c 56 e3 06 bc 0c 02 19 3d d7 56 01 3d
       0.024280787 -0.008232912 0.037355468 0.031576958
000160 72 da a1 3c c9 f0 42 3d 43 53 13 bd 30 c6 c8 3d
       0.019757483 0.047592912 -0.035968076 0.09803426
000170 52 d6 c9 3c 36 38 94 3c 95 2f 5e bb 70 a8 c5 3c
       0.024638329 0.01809321 -0.0033902873 0.024128169
000180 55 fb 81 3c 24 b2 05 bd db 1e 0a bd 06 1c 64 bd
       0.015866915 -0.03264059 -0.033720832 -0.055690788
000190 cf fb 03 3b 83 df 53 bb 73 8b 54 3c 43 de 31 3d
       0.0020139103 -0.0032329268 0.0129727 0.043424856
0001a0 12 7b 01 3d 1d fb ad bc 19 d0 c3 3b f7 87 73 3d
       0.03161151 -0.021237904 0.005975735 0.059455838
0001b0 4f ee 08 bc 86 97 cc bc ee fa 9d 3b 9f fb 6f bd
       -0.008357598 -0.024974596 0.004821173 -0.058589574
0001c0 3b 86 a7 bc ae 91 d9 bb 51 ff 26 3c e6 7d 63 3c
       -0.020449748 -0.006639681 0.010192708 0.013884997
0001d0 c7 50 3c 3c 64 c6 a6 bc ad 3c 78 3c 69 35 2a 3c
       0.011493868 -0.020358272 0.015151185 0.010388711
0001e0 f6 8c a9 3c d4 90 0f 3d 1c ba 33 3b 19 f2 a6 bb
       0.020697098 0.03505023 0.0027424162 -0.0050947783
0001f0 94 3f 61 3c 25 38 93 3c 94 0d b4 3c 4b f1 dc bb
       0.013748068 0.017971108 0.02197913 -0.0067426316
000200 8e 8a ac 3c 14 bc 4c 3c ea ea 18 bd 3c 4d 3f bd
       0.021062162 0.012496013 -0.037333407 -0.046704516
000210 50 70 2c bd b9 0a 29 bd bd 45 b5 3c 84 e6 40 bd
       -0.042099297 -0.04126999 0.02212798 -0.047094837
000220 2f 2f 2f 3d 01 60 f3 bb d1 d6 c5 bc 4d 6d 92 bb
       0.042769607 -0.007427216 -0.024150284 -0.004468596
000230 a5 e9 1e 3c af 81 93 bc ff 85 20 bc d6 49 62 bb
       0.00969926 -0.018006174 -0.009797572 -0.0034528873
000240 42 e0 cd bc ef a4 b8 3c 3d cb 44 bd 16 14 d6 bb
       -0.025131349 0.022539584 -0.048045386 -0.006533156
000250 21 a1 b3 3c b5 c2 20 3d ae df fb 3b 1a c4 de ba
       0.021927418 0.039248187 0.007686577 -0.0016995699
000260 6a 48 99 3c 64 18 64 bc be 28 ad 3c a6 a2 19 bd
       0.018711288 -0.013921831 0.021137591 -0.03750863
000270 1b 18 5c 3d cb 69 36 3c 64 c6 37 3c 3c cd 2f 3d
       0.053733926 0.011133621 0.011216734 0.042920336
000280 d7 11 1a bd 6f 38 cf 3b fc 27 95 3c 20 6a a5 3c
       -0.03761467 0.006323866 0.018207543 0.020192206
000290 24 d3 c6 3c ef 36 16 3d 03 fe 5c 3d 29 af d3 b9
       0.024270602 0.036673483 0.053953182 -0.0004037556
0002a0 b8 22 cb 3c 1f 29 b3 bb 1b 9c 21 bd 45 ec f9 3c
       0.024796829 -0.0054675485 -0.039455514 0.03050817
0002b0 33 8b 2d bd 2d 12 0e 3d 26 8e a9 3b e3 49 7a bc
       -0.04236908 0.034685303 0.005174416 -0.015276405
0002c0 2e 5c 3f bd a5 5a 1c bc 1e 66 b1 3c 14 b5 c4 3c
       -0.04671877 -0.009543096 0.021655139 0.024012126
0002d0 0f 78 29 3c 63 38 b5 3c c7 20 e7 bc bf 36 c9 bb
       0.010343566 0.022121614 -0.028213872 -0.0061405594
0002e0 f7 80 a7 3d 1f aa 98 bb 9f 86 3f bc 64 a8 27 3c
       0.08178895 -0.004658952 -0.011689811 0.010233019
0002f0 59 2b 35 bb 51 b4 78 3c 7d a5 9c 3c 8b e2 92 bc
       -0.0027644245 0.0151797095 0.01912188 -0.01793029
000300 b0 21 74 bc 7a 16 37 bc cb 47 6a bd 3e 6c 3c bd
       -0.01490061 -0.011174792 -0.057197373 -0.046001665
000310 eb 65 70 bc d6 7a 9a bd 2f 93 cb bc ab b8 2a bd
       -0.014672737 -0.0754296 -0.024850456 -0.04168002
000320 9f ba cf bc 21 a2 1a 3d 0d d9 6a 3c 69 86 54 3d
       -0.025357543 0.037752274 0.0143339755 0.051885996
000330 90 9a 3d 3d 8c 3f 8f 3b 8c 9f f0 bc 1e a5 34 3d
       0.04628998 0.004371589 -0.029372953 0.04410278
000340 09 56 df 3c cf fd 33 bd 1d c2 fe 3d b2 e0 c7 bc
       0.027262704 -0.043943223 0.12439368 -0.024399135
000350 c4 0e d4 bc b7 eb 85 3d 58 22 78 bc 4d ca 32 bc
       -0.025885947 0.065391 -0.015144907 -0.01091249
000360 d2 73 82 3b 8a 4d 54 3d eb b4 93 3c e9 47 0e bd
       0.003981092 0.05183176 0.018030604 -0.034736548
000370 73 1a d8 bb b0 2c b8 3d a9 54 ab bc 5a fc 03 3d
       -0.00659495 0.089928985 -0.020914393 0.032223083
000380 eb ed 0f bc 9a f8 14 bc bc ce 4f 3d 74 8c 07 bd
       -0.008784751 -0.009092474 0.050734267 -0.03309293
000390 a2 13 01 3d 23 7f 39 3c e2 d1 4e 3d 16 5d 2b bd
       0.031512864 0.011321816 0.05049313 -0.04183682
0003a0 33 e0 bd 3b fb a2 de bc 2e d6 bf 3c 08 c8 3a bc
       0.005794549 -0.027177325 0.023417559 -0.01140023
0003b0 80 0a c4 bc d4 45 30 3d dc 16 16 bc fa 7b e2 bc
       -0.023930788 0.043035343 -0.009160724 -0.027647007
0003c0 a1 37 ca 3c 06 d3 3c bd e1 ac 15 3d 2a 54 48 bd
       0.024684729 -0.046099685 0.036541823 -0.04890839
0003d0 3c 10 44 bc 1d 14 07 3d 1c 49 85 bc 2c 7e cd bc
       -0.011966761 0.032978166 -0.016270213 -0.025084578
0003e0 af 0b f4 3c 51 4e e2 3c bd 32 ac 3c cb 12 a0 bc
       0.029790727 0.027625235 0.021020288 -0.019540211
0003f0 eb e9 8a bd 86 e1 bc bc 40 45 0b bd 95 c4 e7 3d
       -0.067828976 -0.023056757 -0.03400159 0.11316792

model.2.bias f4 [256]
000000 9f 61 28 3e 76 d6 1d 3e cf a7 26 bd 0c d3 67 bc
       0.1644349 0.15413842 -0.04068738 -0.014149439
000010 28 0f 39 3c cf 4e a8 3d 6d 3d 00 3e d3 fb 83 bd
       0.011295117 0.082181565 0.12523432 -0.06444516
000020 01 fb 02 3e e5 7b bc 3d fb 79 f1 3d db 3b 99 bd
       0.12791063 0.092033185 0.11790844 -0.0748212
000030 51 59 1e 3e fd d5 af bd be ae d5 bd 4d e9 06 bc
       0.15463759 -0.08585737 -0.1043372 -0.008234334
000040 10 e4 b2 bd 26 48 15 3d 6d e1 e1 bd b7 0d c3 bd
       -0.08734906 0.03644576 -0.11029325 -0.095241
000050 e8 65 0b be 68 c7 2e bd 41 94 f7 3d a8 ed 07 be
       -0.13613093 -0.042670637 0.12088824 -0.13274252
000060 2c ff 7a bd 89 55 3a 3e e4 51 b7 3d 8e f4 12 3e
       -0.061278507 0.18196692 0.08951166 0.14351103
000070 64 5b ba bd e6 b2 35 be a0 36 cc 3c b3 4d 26 3e
       -0.09099463 -0.17744026 0.024928391 0.16240577
000080 29 1b 90 3c bd 6d 72 bd 0e 7f 4a bb b5 31 05 be
       0.017591076 -0.059186686 -0.0030898484 -0.13007243
000090 fa 59 d4 bd 2f 6c 9a 3d 9e 25 3d bd 59 ab 55 bc
       -0.10368724 0.07540166 -0.046178453 -0.013041341
0000a0 e9 50 b9 bd 8a f8 e1 bd f4 9c 17 be 80 23 e3 3b
       -0.090486355 -0.11033733 -0.14805967 0.006931722
0000b0 d4 60 d8 3d a1 36 61 bc c1 f9 cd bd 7e 5c 42 bd
       0.105653435 -0.013745935 -0.100574024 -0.04745149
0000c0 34 eb 9a 3d 58 6c a8 3d ba e6 6f 3b c8 65 23 3e
       0.07564393 0.0822379 0.003660603 0.15956795
0000d0 c5 32 d5 bd 58 c6 c9 3c 3b 95 f7 3d 20 12 04 3e
       -0.10410074 0.02463071 0.1208901 0.12897539
0000e0 b4 d2 b7 bc 01 be e6 3d 38 f0 cd bd ff e0 11 3e
       -0.022439338 0.11266709 -0.10055584 0.14245985
0000f0 3f 6c 0a 3c 63 fe 06 3e 6c ba 36 3d f2 58 00 3b
       0.008448659 0.13182978 0.04461138 0.0019584266
000100 1c 11 11 be 98 54 62 bd 1a e8 f7 3d c7 62 a4 3d
       -0.14166683 -0.055256456 0.12104817 0.08026653
000110 9b d6 19 bd e0 e5 80 bd b6 7f db 3d 2f 83 03 bd
       -0.03755818 -0.06293845 0.10717718 -0.03210753
000120 c1 01 5a 38 00 7a 06 3e da 1c 11 3e d0 f2 c9 3d
       5.1976884e-05 0.13132477 0.14171162 0.09860766
000130 0e 7e 98 bd 4a 24 13 3e 0d b9 bc 3d 07 99 c3 3d
       -0.07445918 0.14369312 0.09214983 0.09550672
000140 95 d0 d3 bc 7f 01 37 3e aa 15 48 bd 1a 43 f3 3d
       -0.025856296 0.17871664 -0.048848785 0.11878033
000150 78 05 de 3d 54 95 22 bb c4 1d 00 3e d7 fe 2b bd
       0.10840887 -0.0024808245 0.12511355 -0.04199108
000160 5b 44 4f bd be 3b a5 bd 87 28 c9 bd 52 85 ae bd
       -0.0506023 -0.080680355 -0.09822183 -0.085215226
000170 6a 7e 56 bc 62 9a da 3d 44 a4 f4 3d fd d4 c2 3b
       -0.013091663 0.106739774 0.11945394 0.0059458003
000180 75 82 36 3c b3 75 a6 bd b5 9c e1 bd 7d 3b 38 3e
       0.011139502 -0.08127918 -0.110162176 0.17991443
000190 a4 a6 ec 3d dc ba a2 3d fc e8 e8 3b ff a1 0c be
       0.11555222 0.07945797 0.007107852 -0.13733672
0001a0 c2 69 0a 3e 32 bc 93 bd b3 9e 1f 3e 8f 1e 8b 3d
       0.13516906 -0.0721363 0.15587883 0.06792938
0001b0 87 2b 3c bd f7 c4 cb 3d 2d d4 fb bd bc 85 b6 bd
       -0.04593995 0.099496774 -0.12296329 -0.089122266
0001c0 24 03 25 be ca ad b3 3c 29 91 95 3d 79 45 ac bd
       -0.1611448 0.021933455 0.07303078 -0.08411688
0001d0 d1 80 a1 3c 8c 9a 43 bc 45 0a 49 bd bb 95 0a 3e
       0.019714745 -0.011938702 -0.04908206 0.1353368
0001e0 0b fa 12 3e 7a 3f 1e 3e 83 3d 3c bd 44 78 91 3d
       0.14353196 0.15453902 -0.0459571 0.07103017
0001f0 ee c0 0e be be 40 14 3e 9a a4 d5 3d f4 6a 08 be
       -0.13940784 0.14477822 0.10431786 -0.1332205
000200 2c f9 95 bd ac dc c9 bd 5e a5 8f bd b3 c6 1e 3e
       -0.073229164 -0.09856543 -0.07013963 0.15505485
000210 5e 3a c5 3d 62 98 0e be 63 26 03 3e b1 1f c9 3d
       0.09630273 -0.13925317 0.12807612 0.09820498
000220 5b 7b a6 bd 38 b3 ab bd 67 1b 5e 3c d5 ac 12 be
       -0.08128997 -0.08383793 0.013556338 -0.14323743
000230 33 3e 4e 3e f4 ef 2a be 96 05 fc bd 27 f9 a6 bb
       0.20140915 -0.16693097 -0.12305753 -0.0050956192
000240 92 a3 19 bd 31 d4 ed bd f0 7b 77 bd 66 57 40 3e
       -0.03750951 -0.11612738 -0.06042093 0.1878334
000250 5b 40 63 3d c0 dd 13 3e 76 13 1a be 40 11 1b be
       0.055481296 0.1444006 -0.15046486 -0.15143299
000260 8f e4 d5 3d a0 d2 e9 bd cd 66 ef 3d 07 d7 bb bc
       0.10443985 -0.11417127 0.116895296 -0.022929681
000270 41 f4 9d 3d 17 c7 e2 bd d8 c1 11 bd ec 00 fe 3d
       0.07712603 -0.110731296 -0.035585254 0.124025196
000280 87 41 d7 bc 15 67 0b 3e fb 0e b8 3d a7 15 84 3d
       -0.026276363 0.13613541 0.08987232 0.06449442
000290 41 a8 eb bd da f5 0e 3e f6 f5 d6 3d 98 f3 e5 3d
       -0.11506701 0.13960972 0.10496132 0.112281024
0002a0 8d b9 16 be 50 17 49 bd 9f 6e 8a 3d 2e 74 ea bd
       -0.1471922 -0.0490945 0.067593805 -0.11447941
0002b0 8d 30 19 3e 6f 75 8c 3d c1 f1 0c 3e 0d 74 89 3c
       0.14959927 0.06858336 0.13764097 0.01677897
0002c0 7c 69 37 3d b3 d0 aa bd 0c 2d 24 3e a5 ba 16 be
       0.044778332 -0.083405875 0.16032809 -0.14719637
0002d0 50 42 1b 3e f6 48 b2 bd a1 1a 1a 3e 73 bf b0 3d
       0.15162015 -0.087053224 0.1504922 0.08630266
0002e0 80 03 01 3e d0 c3 23 3e 13 dc c7 3d 4d 5a 19 3e
       0.12598991 0.15992665 0.09758773 0.14975853
0002f0 4b 46 2e bd 26 50 3a 3e f4 f9 ef 3d d1 5d 36 3e
       -0.042547505 0.18194637 0.11717597 0.17809226
000300 68 bc 09 be d2 94 dc bd 17 05 2f bc a3 64 88 3d
       -0.13450778 -0.10770573 -0.010682366 0.0665982
000310 f7 69 09 bd 36 fd 3b 3e 34 31 ef bd 4a 0f fe bd
       -0.03354832 0.18358311 -0.116793066 -0.1240526
000320 dd 51 1c be 6c 51 e4 3b d7 e4 2d 3e 97 8a d9 bd
       -0.15265603 0.006967714 0.16981827 -0.10622137
000330 f6 a2 90 bd fe ff 47 bd ce 7d 81 bd 6c 5e 1a 3e
       -0.07062332 -0.048828118 -0.063228235 0.15075082
000340 82 c3 d7 bd 52 a2 fb 3d 7a 22 05 3e 2b 65 e2 3d
       -0.10535337 0.122868195 0.13001433 0.110544525
000350 c8 72 34 3e 39 d9 ce 3d 61 c2 17 3e 62 90 fc 3b
       0.1762191 0.10100026 0.14820243 0.0077076415
000360 b2 a9 0f be 15 51 e6 bd fe 75 c5 bd cf b1 86 3d
       -0.14029577 -0.11245934 -0.09641646 0.06576883
000370 a3 83 27 bd 9c d2 e3 bd 1f 00 b1 3d b0 78 88 bd
       -0.040897023 -0.11124155 0.08642601 -0.06663644
000380 5a 22 db bd 3f 24 4d bd b7 89 aa 3c dd 5f ed 3d
       -0.106999114 -0.050083395 0.02081762 0.1159055
000390 a5 81 38 3e cf 5f 89 bd 97 b2 bc 3d af 43 c0 3d
       0.18018205 -0.06707727 0.09213751 0.093879096
0003a0 f1 cd d2 3d 59 6e fd bc 0e d9 a0 bd ab d0 fb bd
       0.102931865 -0.030936407 -0.078539 -0.1229566
0003b0 bc fc 45 bd b2 5f 66 bd 75 55 e5 3d 75 02 7c bd
       -0.04833673 -0.056243606 0.1119794 -0.06152578
0003c0 f0 66 fd bc e4 3c bf 3a 49 49 1b 3e e4 79 9f 3d
       -0.030932873 0.001459029 0.15164675 0.07786921
0003d0 eb 3e a5 bd 00 df bd bd 39 28 0f 3e 49 79 d7 3d
       -0.08068641 -0.092710495 0.13980187 0.1052118
0003e0 75 96 89 ba e9 7b 21 3c 0b d2 8f 3d 03 b0 1f 3d
       -0.001049711 0.009856203 0.070224844 0.038986217
0003f0 4d 22 97 3d ce 08 ee bd 99 93 5d bd 99 1e cc 3d
       0.07379589 -0.11622773 -0.05409584 0.099667735

model.4.weight f4 [128, 256]
000000 bd b4 a0 3c f1 f1 24 3d b6 f3 c3 3c fe c1 86 3c
       0.019617433 0.040269796 0.023919921 0.016449925
000010 a0 b2 5e 3c b7 fc 84 3d 99 30 08 3c a2 3d a2 bc
       0.013592392 0.06493514 0.008312368 -0.01980478
000020 5a d0 41 3d 6e c2 33 3d ce 11 20 3d 17 2f 29 bc
       0.04731784 0.043886594 0.03907948 -0.0103261685
000030 e5 95 8b 3d e9 68 0d bd d4 5d 74 bd 03 f4 56 3d
       0.068156995 -0.03452388 -0.059659794 0.0524788
000040 24 c3 4d bd 24 63 4f 3d 81 f2 0a bd ce 0a 15 bd
       -0.05023493 0.050631657 -0.033922676 -0.036387257
000050 1b 21 0d 3d ea cb bb bc 2a 0a 2e ba 2b a2 16 bd
       0.0344554 -0.022924382 -0.0006639088 -0.03677575
000060 18 72 4f bd cd 78 6d 3d 06 50 de 3c b6 64 50 bc
       -0.050645918 0.057976533 0.027137768 -0.012719324
000070 34 87 ad 3c 65 2d 05 bd d6 4e 2e bd c7 4a 25 3b
       0.021182634 -0.032513995 -0.042555653 0.0025221573
000080 ef 94 bc bc bb bc b8 3b 45 83 5d bd 9f ff e1 bc
       -0.023020236 0.005637733 -0.054080267 -0.02758771
000090 0a ad 81 bd 8e 48 f7 3c fc ba dc 3c 49 5f 9b bc
       -0.06331833 0.030185964 0.02694463 -0.018966334
0000a0 c3 41 38 bc 38 a0 24 3d 2a 12 86 3b 27 05 dc bc
       -0.011246148 0.04019186 0.004091521 -0.026857926
0000b0 32 c0 0b 3d e6 cc 54 bd 41 a0 41 3d d4 b2 45 3d
       0.03411884 -0.05195322 0.04727197 0.048266247
0000c0 bc 39 f9 bc 17 47 51 3c f9 0c 49 3d e8 ef e1 3d
       -0.030423038 0.012773297 0.049084637 0.110320866
0000d0 31 f2 04 bd b3 4a 93 bb 7e 40 53 3a d5 6e e6 3c
       -0.032457534 -0.004494989 0.00080586213 0.02812902
0000e0 ac b2 16 bd c1 b8 e3 3c 8d 64 70 3d da 8d 87 3c
       -0.03679149 0.027798058 0.058689643 0.016547132
0000f0 49 a7 00 3a 5e 5c 83 3c eb 87 fb bb 46 49 4b 3d
       0.000490774 0.016035255 -0.007676115 0.049630426
000100 53 e0 e7 b9 4b 2e d2 3c 69 88 42 3d 93 af 0c 3d
       -0.00044226888 0.02565684 0.047493372 0.034347128
000110 9a 1c 71 3d 29 1d 30 3c 85 c8 96 3d 04 a5 3c 3d
       0.058865167 0.01074914 0.07362465 0.04605581
000120 24 ab 55 bd 5c 95 46 bd 10 0f 66 bd 1f 88 29 3d
       -0.052165166 -0.048482284 -0.05616671 0.04138958
000130 12 c8 ec bc 2b 9d 49 3d 03 a6 1a bc 0e 7f 15 bd
       -0.028903995 0.049222153 -0.009438994 -0.036498122
000140 1d 52 0f 3d 4f 52 23 3d b9 95 76 bd fc c1 59 3c
       0.03499042 0.039873417 -0.06020138 0.013290878
000150 49 23 83 3d 61 70 6c bc 50 cd a4 bc 05 4b 47 3d
       0.064032145 -0.01443109 -0.020117432 0.04865553
000160 ea 39 07 bc e1 69 4b bd 6e c8 e3 3b 12 16 40 bd
       -0.008253554 -0.04966152 0.0069513833 -0.046896048
000170 25 b8 9f 3c 47 3a 7e 3d a8 95 6f 3d a8 ac c8 3c
       0.019496987 0.062067296 0.058492333 0.024496391
000180 7a 65 1f 3d f3 6b 37 3d c8 04 45 3d be bc 07 3d
       0.038915135 0.044780683 0.048100263 0.033138983
000190 38 97 af b8 ae bd 1c bd 10 35 5e bd ad f0 a9 bd
       -8.372817e-05 -0.03826683 -0.054249823 -0.082978584
0001a0 60 76 f6 3c d2 b3 50 bd 6f 9c fb 3c 16 88 bc bb
       0.030085742 -0.05095274 0.030714242 -0.0057535274
0001b0 e1 90 18 3c a4 a1 26 3c 69 51 cf 3a c0 e3 05 3d
       0.009311886 0.010170374 0.0015817109 0.032687902
0001c0 4c ca c1 bc c3 88 f9 ba 68 f0 26 bd 36 58 6f bd
       -0.023656033 -0.001903795 -0.040756613 -0.058433734
0001d0 2b 1d 19 bd 7c f7 1f bd 42 95 cf 3b b1 d0 2c bc
       -0.037381332 -0.03905438 0.0063349316 -0.010547803
0001e0 75 2d 8a 3d 5f 48 71 3d 1c 3b e8 3c 1f be 5e bb
       0.067469515 0.05890691 0.028348498 -0.0033987833
0001f0 62 ca e1 bc 84 50 03 bd 02 80 32 3d db ba 87 3c
       -0.027562324 -0.032059208 0.04357911 0.016568592
000200 7a 34 01 3d 85 76 0f bc 9f 30 80 bc b3 0f 2e 3c
       0.031544186 -0.008756285 -0.015648184 0.01062386
000210 a6 0f 05 bd c6 1b bc bc db 17 07 bc b9 c2 29 3d
       -0.032485627 -0.022962462 -0.008245434 0.041445468
000220 de f3 d7 3c 8d d5 4d 3c 44 26 df 3c d0 db 58 bc
       0.026361402 0.0125631215 0.027239926 -0.013236001
000230 82 17 1f 3c 03 62 00 bd 00 72 d2 bc 9a 0b 33 bd
       0.009710195 -0.03134347 -0.025689125 -0.043712236
000240 51 b0 34 bd d3 0f a8 bb 77 59 82 bd b2 fe d6 3d
       -0.04411346 -0.0051288395 -0.0636472 0.10497798
000250 e8 9e bf 3b 6e 8b 93 3d f4 dd 83 bd ce 31 93 bc
       0.0058478005 0.072043285 -0.064388186 -0.017968085
000260 69 18 15 3d f7 16 76 3d 0e 66 fb 3b 20 eb 1b bd
       0.036400232 0.060080495 0.007672078 -0.03806603
000270 96 2f 4f 3d fc 05 6c bd 5a 3a c2 bc 2b f5 25 3c
       0.05058249 -0.057622895 -0.023709465 0.010129253
000280 34 02 29 bd 17 ac 79 3d 3d 59 99 ba 20 4e dd bc
       -0.041261867 0.060955133 -0.0011699569 -0.027014792
000290 b7 c9 1c bd 37 f1 fe 3c d6 8e 0b bd d9 f8 86 3d
       -0.038278308 0.03112088 -0.034071766 0.06590433
0002a0 7b 60 4b 3d b4 6e e3 bc 14 d9 b9 bc 91 58 31 bc
       0.049652558 -0.027762748 -0.022686519 -0.0108243385
0002b0 35 5a 05 3b 5e ad fb 3a d1 6d 30 bd 97 1a d0 3b
       0.0020347957 0.0019201448 -0.04307348 0.006350826
0002c0 62 c4 3a bd fe 10 40 bd eb 07 a4 ba e3 c8 34 bd
       -0.04559744 -0.046891205 -0.0012514567 -0.044136893
0002d0 a1 cd db 39 38 26 f8 bc 2a fd 93 3d 9f 55 76 3d
       0.0004192414 -0.030291662 0.072260216 0.06014025
0002e0 45 99 c6 3c 93 fe a8 3d 43 3a 80 bc 71 33 55 bd
       0.024243006 0.08251681 -0.015652781 -0.05205101
0002f0 42 04 ef 3a a5 ef cc 3d 69 bc 19 3c b9 6d f2 bc
       0.0018235522 0.10006646 0.009383299 -0.029593335
000300 07 09 7b 3c b6 4a 26 bd d6 e3 c1 3c 4d c8 55 3c
       0.0153219765 -0.040598594 0.023668211 0.013048244
000310 04 58 c5 bb 99 92 d9 3c 9b 97 0b 3d bc 59 57 bc
       -0.006022455 0.026559161 0.03408013 -0.013143953
000320 ca 41 3a bb dd a7 14 bd 57 c3 95 3d 0c f5 a9 3c
       -0.002842056 -0.0362929 0.07312649 0.02074673
000330 17 9e 1e bc 84 ea 53 3d b1 fc 02 bd cc 97 7f 3c
       -0.009681246 0.051737323 -0.031979267 0.015600156
000340 2b a6 60 3c f8 ca 1a 3c 91 49 c3 3b c1 8e 2d 3d
       0.0137114925 0.009447806 0.0059596975 0.04237247
000350 61 8b e9 3b da 56 3f 3c ec ad c8 3b 71 26 82 3d
       0.007127211 0.011678422 0.0061242487 0.06354988
000360 b7 04 13 bd d6 f3 82 3c f5 70 5f 3c 8e 11 67 3d
       -0.03589317 0.01598541 0.013637771 0.056413226
000370 cd cd 35 3c ce b7 4f bd 82 9b 98 bb f5 92 64 bc
       0.01109643 -0.0507124 -0.00465721 -0.013951053
000380 54 86 32 3a b5 34 7c bd 0c a8 03 bd 19 88 8b 3d
       0.00068101776 -0.061573703 -0.032142684 0.06813068
000390 ef 80 4e 3d 1e c8 a0 3c 93 73 a2 3a c0 f2 ea bc
       0.05041593 0.019626673 0.0012394063 -0.028680205
0003a0 86 25 75 bd 6e 4f 40 bd c2 06 d0 bc 1d ee 9f bc
       -0.05985024 -0.04695075 -0.025393847 -0.019522721
0003b0 8b 83 9e 3c 29 7c f2 bb 0b ca 0b 3b 08 25 4f 3d
       0.019349834 -0.007400055 0.0021330144 0.050572425
0003c0 12 5d 1c bd 7d 07 81 bc 00 21 da 3c ce 6d 2b 3c
       -0.038174696 -0.015750641 0.026627064 0.010463191
0003d0 11 88 11 bd cc ed 3d bd e3 63 51 3d 55 17 48 bc
       -0.035530154 -0.04636936 0.05112065 -0.012212594
0003e0 6c 06 01 3d 56 83 18 3d c0 22 3d 3d 98 6f c6 3c
       0.031500265 0.037234627 0.04617572 0.024223134
0003f0 f8 ce 30 3d 58 cf 8b 3c 45 7f a8 3c 8e 91 38 3c
       0.04316613 0.017066643 0.0205685 0.011265172

model.4.bias f4 [128]
000000 5c e9 8d 3d 02 86 7a 3d ef 3a 00 be df 5f a6 3d
       0.069292754 0.061162956 -0.12522481 0.08123755
000010 cf c8 9f 3d e6 29 03 3e 1c e4 0e 3e 63 54 97 3d
       0.07801973 0.12808952 0.13954204 0.07389142
000020 86 c0 b1 bd 31 ac 7f 3d b6 ef f2 3d ea ef f3 3d
       -0.08679299 0.062420074 0.118621275 0.11910994
000030 cf 84 2d 3d b2 c9 d8 3d 6e 90 af 3d 62 36 dd 3d
       0.042362984 0.10585345 0.0857247 0.10801388
000040 e2 c1 8a 3d 4f ff 20 bd 11 36 05 3e 43 d2 71 3d
       0.067752615 -0.03930598 0.13008906 0.05903841
000050 3f 38 d0 3d 20 6c 00 3e 57 e9 49 3c df 80 d2 bd
       0.10166978 0.12541246 0.012323699 -0.102784865
000060 30 fd 07 bd dc b5 8e 3d e4 fc e4 bd 52 da 57 bd
       -0.033200443 0.06968281 -0.111810476 -0.05269844
000070 55 08 8d bc dc ca f8 3d 64 2b 92 bc bb 4c 03 be
       -0.017215887 0.12148067 -0.017842956 -0.12822239
000080 6c 90 af 3d 5a 53 e2 bd 20 79 87 3b cd ee 7a 3c
       0.08572468 -0.11051054 0.0041343123 0.015315724
000090 cd f6 91 bd 87 c1 03 bd 4f 41 10 3e a9 1f c6 3c
       -0.07127152 -0.032166984 0.14087413 0.024185019
0000a0 89 9f f4 3d 33 31 9b 3d 25 78 8d 3d e4 ca e1 3d
       0.119444914 0.075777434 0.069076814 0.110250264
0000b0 02 ac 81 3a 29 e2 94 3d 23 d6 0e 3c 33 ea b7 3c
       0.0009893181 0.07269699 0.008718046 0.022450542
0000c0 c9 9c 88 3d 83 6b 98 3c 5e 37 7c 3d 4c 0e b9 3d
       0.066705294 0.018605953 0.06157624 0.0903593
0000d0 01 5f 4d 3d 41 f4 96 3c 8a 77 54 bd 34 58 e8 3d
       0.05013943 0.018427016 -0.051871814 0.113449484
0000e0 b0 8a d0 bd 34 df 7f 3d 75 89 67 3d 37 45 65 3d
       -0.101827025 0.062468722 0.056527574 0.05597421
0000f0 68 54 c2 3d a0 da 15 be 8b 56 80 3c 03 f5 88 bd
       0.094887555 -0.1463418 0.015666267 -0.06687357
000100 61 09 fe bc f6 0a 70 bc 78 a9 99 3c d0 25 fd bc
       -0.031010332 -0.014651051 0.018757567 -0.03090182
000110 96 16 98 3d 40 23 b1 bd 88 f0 b2 bd b3 57 e2 3d
       0.07426183 -0.086493015 -0.08737284 0.110518835
000120 8e c8 c6 3d da c9 00 3e 90 69 02 bd b9 1f 8f 3d
       0.097062215 0.12577 -0.031838953 0.069884725
000130 d5 53 e8 bd 54 23 ce bd 2b e1 b2 3d 29 6c c5 3d
       -0.11344115 -0.10065332 0.08734354 0.096397705
000140 47 ae ba 3d ba eb 68 bc 0b b5 82 3d 46 34 78 3b
       0.09115272 -0.014216358 0.063821875 0.0037872954
000150 60 12 d1 3c cc e3 fa bd 08 4f d8 3c e4 49 90 ba
       0.025521457 -0.1225048 0.026404873 -0.0011008349
000160 dc 4d 0e 3e 0d c1 45 3c 40 09 71 3d 42 19 06 be
       0.13896888 0.012069953 0.058846712 -0.13095573
000170 04 96 e0 3d 0d 56 f4 bd 37 89 cb bd 4e 00 f6 bd
       0.10966113 -0.119304754 -0.09938281 -0.12011777
000180 54 ca 9c bd 8a 2b c9 bc 49 77 48 bd 83 51 cf 3c
       -0.076557785 -0.024556894 -0.048941884 0.025307423
000190 b3 32 b9 bd 5e c7 15 be 6c c4 b3 bd 8f ac 7e bd
       -0.09042873 -0.14626834 -0.08777699 -0.062176283
0001a0 29 cd 3a bd e8 70 f3 3d 3e e6 8e 3d af 75 c5 3d
       -0.045605812 0.118867695 0.06977509 0.09641587
0001b0 c7 88 e2 bd 07 b2 b0 3d 9a ba 97 bd 71 5e b9 3d
       -0.110612445 0.08627706 -0.07408638 0.090512164
0001c0 68 a2 fd 3d 4d 24 06 be df 70 0e bc 1e 11 62 bd
       0.12384492 -0.13099785 -0.008693903 -0.055192105
0001d0 f4 9f 21 3e 5b d1 8d bd 3b b1 2c 3e 72 da 06 3e
       0.15783674 -0.06924697 0.16864483 0.13169268
0001e0 0e 0c 63 3c 64 b9 18 be b1 20 36 3d c9 8d b7 bd
       0.0138578545 -0.14914471 0.04446477 -0.0896259
0001f0 09 3b bf 3d b4 0d d7 3d 6b a9 de 3d 0b 5e 86 3c
       0.09337432 0.105006605 0.10872158 0.016402265

model.6.weight f4 [1, 128]
000000 50 2f a9 bd 93 e8 1a bd 39 43 a5 3d d0 84 64 bc
       -0.08260977 -0.037819456 0.08069462 -0.013947681
000010 e7 28 10 bd 68 c8 99 bc 76 2e 03 be a7 2d 48 bd
       -0.035195258 -0.018772319 -0.12810692 -0.048871662
000020 0d 42 99 3d 6c 89 45 bd 56 8b b0 bd 70 5b 9b bd
       0.07483301 -0.04822676 -0.08620326 -0.075858
000030 73 66 b9 bd c5 0b 9b bd d8 7b 99 bd 89 6f 3e bd
       -0.09052744 -0.07570604 -0.074943244 -0.046493087
000040 93 93 d5 bd f7 9f 63 3d ea 92 1c bd 2f 6b db bd
       -0.10428538 0.055572476 -0.038226046 -0.10713803
000050 69 65 77 bd 3e f5 08 be 2d 99 b1 3b 4d 67 91 3d
       -0.060399447 -0.13374802 0.0054198713 0.07099781
000060 00 6a 2a 3d cc 1e b3 bc 3d 30 bb 3d 36 e6 14 3d
       0.041604996 -0.021865271 0.0914006 0.03635236
000070 78 f2 65 3d 45 15 2b bc b4 56 82 3d 28 3b 14 3d
       0.05613944 -0.010442083 0.063641936 0.03618923
000080 3a c4 bd bd 14 37 99 3d 44 53 d8 3c d6 62 8e 3d
       -0.09265943 0.074812084 0.026406892 0.06952445
000090 3b 18 a8 3d 4b 61 31 3d 02 8f cb bd dc 07 98 3d
       0.082077466 0.043305676 -0.09939386 0.07423374
0000a0 e6 e9 69 bc 37 fa 4d bd d7 d1 be bd 83 fa e3 bd
       -0.014276957 -0.05028745 -0.093173675 -0.11131766
0000b0 21 16 3a 3d 81 4e a9 bd 7e 08 d1 3c 08 de 8d 3c
       0.04543126 -0.082669266 0.025516745 0.017317787
0000c0 d5 2e c8 bd da 29 42 3c c3 c3 3b bc e7 a6 cb bd
       -0.097745575 0.0118507985 -0.011460247 -0.099439435
0000d0 e4 15 82 bd 4f c7 70 3d a4 a7 02 3d 2d 3b 44 bc
       -0.063518316 0.058783825 0.031898156 -0.011976999
0000e0 51 81 63 3d 61 18 f5 bd 56 fd d9 bd eb 38 b6 bd
       0.055543248 -0.119675405 -0.10644023 -0.08897575
0000f0 9c 97 b2 bd a2 8f 46 3d 7c d3 4b 3d e2 15 db 3d
       -0.087203234 0.048476823 0.049762234 0.10697533
000100 59 75 82 3c 4a 71 56 3d 18 45 27 3d d6 c7 15 3d
       0.015925096 0.052354135 0.040837377 0.03656753
000110 5d fd 50 bd ec 00 3a 3d e4 64 86 3d 3d 37 49 bd
       -0.051022876 0.045411035 0.06562212 -0.049124945
000120 fe 73 d4 bd d8 cd c9 bd 57 84 a0 3d b4 44 b5 bd
       -0.10373686 -0.09853715 0.07837742 -0.08850995
000130 50 f5 f1 3c 90 11 84 3d e2 4e b3 bd a4 c0 dc bd
       0.02953592 0.06448662 -0.0875528 -0.10778931
000140 e3 08 04 bd be 47 24 3d b0 36 d7 bd ea 1d ae 3d
       -0.032235038 0.04010748 -0.10508478 0.085017994
000150 d8 49 cb 3c 3f a4 67 3d 45 44 2d 3d 85 06 9b bd
       0.024815485 0.05655312 0.042301435 -0.07569603
000160 0b 43 cd bc 4f 98 61 3d e5 be 0c bc 08 6f 9d 3d
       -0.025056383 0.055076893 -0.008590435 0.07687193
000170 32 e4 f7 bd 24 03 8b 3d 2c 1b 70 3d 23 12 5e 3d
       -0.12104072 0.067877084 0.058619663 0.054216515
000180 98 5b 1e 3d f8 89 1e 3d 16 db 31 3d 51 61 87 bd
       0.03866157 0.038705796 0.043421827 -0.066103585
000190 a0 41 ba 3d 61 53 93 3d 9d 7c 0e 3d fe 2d 8f 3d
       0.09094548 0.07193638 0.03478681 0.06991194
0001a0 95 8c 9a 3d e2 60 eb bd b6 2f 90 bd f7 9a c7 bc
       0.07546345 -0.11493088 -0.0704035 -0.024365885
0001b0 e2 57 6b 3d 1e 10 03 be 93 37 b6 3d 36 99 83 bd
       0.05745686 -0.12799117 0.08897319 -0.06425707
0001c0 1c 7b 07 be d3 b8 88 3d a3 cb 16 3c 3c 88 a0 3d
       -0.13230556 0.066758774 0.009203824 0.07838485
0001d0 e4 75 bd bc d6 c8 f5 3c 33 0a 0d bd 6a 03 66 bd
       -0.023127504 0.030002993 -0.034433555 -0.0561556
0001e0 f5 df e2 3c 5c e9 4c 3d bd d1 a6 bd fb 61 d3 3c
       0.027694682 0.050027236 -0.08145473 0.025803557
0001f0 94 c1 65 bd a0 36 a6 bd 53 2b 41 bd 71 4c 25 3d
       -0.056092814 -0.08115888 -0.047160458 0.040356103
