models/discriminator_epoch_8.pth (torch, 951720 bytes, 7 tensors)

model.0.weight f4 [512, 141]
000000 f3 1d 3f bc d6 ae 28 3a 9f 82 0f 3d a3 ba db bd
       -0.011664855 0.0006434744 0.03503668 -0.107289575
000010 31 f5 72 bd 61 77 6e 3d d4 8d 39 bd e6 b7 39 3d
       -0.059315864 0.058219317 -0.045301273 0.045341395
000020 3a 2c 82 bc 8e 01 3d bd ce 0d 76 bd 23 5b 7d 3d
       -0.01589023 -0.04614406 -0.06007176 0.061854493
000030 b8 62 88 bd ca 8a 02 be f0 b1 9e bd c9 1b 55 bd
       -0.06659454 -0.12748256 -0.07748783 -0.05202845
000040 d9 89 0e be cd 0a b7 3d c5 6d f2 3d 4e 11 28 3c
       -0.13919772 0.08937607 0.11837343 0.010258032
000050 2e d6 62 bd e3 6e 8d 3d 22 09 80 3c 08 2c b7 bc
       -0.05538004 0.069059156 0.015629355 -0.022359863
000060 78 70 86 bd 50 33 7b 3d de f6 30 3d d0 cc 56 3d
       -0.065644205 0.061328232 0.04320418 0.05244142
000070 26 e2 8a bd ff 71 a7 bc 98 00 89 bd fd cc 81 3d
       -0.06781416 -0.0204401 -0.066895664 0.063379265
000080 30 3b 09 bd a0 fa 22 bd 16 43 44 3d ca 1b af 3d
       -0.03350371 -0.039789796 0.04791554 0.08550222
000090 40 77 b6 3d a7 d2 31 bd d3 d9 30 3d 5a 06 e1 bc
       0.08909464 -0.043413784 0.043176483 -0.027468849
0000a0 92 09 00 3d b3 22 80 3d 9b b3 d2 bc 9f 99 73 3d
       0.031259127 0.06256618 -0.025720408 0.059472676
0000b0 d6 21 04 bd a6 29 bf bd 06 50 04 be 67 b1 0f bd
       -0.03225883 -0.09334116 -0.12921152 -0.035081293
0000c0 5f 8c 56 bd 84 1c 4c bd 0f 42 54 bd 2d 6a c4 bd
       -0.052379962 -0.049831882 -0.05182081 -0.09590564
0000d0 6d 6d aa 3d 03 45 13 bd c9 d8 3b 3d c9 8d 83 bd
       0.083216526 -0.035954487 0.04586104 -0.06423528
0000e0 b5 9d dc 3b 41 66 42 3d 1c b9 c5 bd a6 9d 10 3d
       0.0067326673 0.0474608 -0.096544474 0.035306595
0000f0 96 50 d8 bc 26 df c2 3d 5e cf b6 bd a1 18 6d bc
       -0.026405614 0.095152184 -0.08926271 -0.014471204
000100 cb 88 9e 3d d4 95 c0 bb 3a 25 fb 3c d1 88 93 bd
       0.07740935 -0.005877236 0.0306574 -0.0720383
000110 c6 77 17 bd 87 23 3a 3d fa 9d a8 3d af 63 98 bc
       -0.03697946 0.045444038 0.08233257 -0.01860222
000120 94 56 2f bc d9 bc 85 3d 15 ed 40 3c 57 5f 77 3c
       -0.010701794 0.065301605 0.011775275 0.015098414
000130 49 c7 85 bd 30 e2 00 3d 70 26 ac 3d 69 7b 64 bd
       -0.06532151 0.03146571 0.08405769 -0.055781756
000140 f6 7e 83 3d c4 97 da 3b 5f cf f2 3c e0 e0 e3 3c
       0.064207 0.006670924 0.029639898 0.02781719
000150 95 94 89 3d 49 8e ff bd 47 e6 47 3c e6 70 32 bc
       0.06717793 -0.124783106 0.0122008985 -0.010891175
000160 81 e0 df 3c 9b 80 52 bd fc e3 fe bb 4f f7 8d 3d
       0.027328731 -0.05139218 -0.0077786427 0.06931936
000170 37 9f c7 bd 27 e9 75 bd 0a 6a 2c 3d 46 b1 0c 3c
       -0.09747165 -0.060036805 0.042093314 0.008587187
000180 8f 7f aa bc 69 f8 b9 bd 11 56 eb 3b 07 f5 60 3d
       -0.020812778 -0.090805836 0.007181891 0.054921176
000190 3c 6b 84 bc 15 d7 9e bd eb cf d4 3c b2 bf 68 bd
       -0.016164415 -0.077558674 0.02597805 -0.05682344
0001a0 99 4f 91 bd e6 e9 7c bd 85 b7 27 be 54 67 c6 bd
       -0.0709526 -0.0617465 -0.16378601 -0.09687677
0001b0 dc 1b 2c 3d a7 93 a7 3c 63 3c 14 bd a4 f1 7f 3d
       0.042018756 0.020456148 -0.0361904 0.062486306
0001c0 f9 75 b9 bb 41 3b 8c 3d 76 54 8c bd b0 13 ab bd
       -0.0056598154 0.06847239 -0.06852047 -0.083533645
0001d0 15 b8 eb bb 1d 31 64 bd 1a 05 ad bd 12 3a 33 bd
       -0.007193575 -0.0557109 -0.08448239 -0.043756552
0001e0 03 db d9 3d 54 8e 21 bd 38 07 f2 bd b1 50 cd 3b
       0.10637476 -0.039442375 -0.11817783 0.0062657227
0001f0 48 fd 1b bd ac ee 87 3d 59 0e 16 bd e4 4c 8e bd
       -0.038083345 0.0663732 -0.036634777 -0.069482595
000200 83 02 9e 3d b9 eb d2 bb b7 31 c3 bd 8d fc dc 3d
       0.07715323 -0.0064367917 -0.09530967 0.10790358
000210 5f b7 89 3c bd b0 a4 bd 03 0c 9f bd c6 19 28 bc
       0.016811071 -0.08041523 -0.07765963 -0.010260051
000220 3d a2 1a 3c 05 32 d8 bc 27 29 3e bd 86 46 96 3d
       0.009438095 -0.026391039 -0.046425965 0.0733767
000230 67 32 15 bb 8d e6 27 3d 81 d2 44 3b 5f be fa bc
       -0.0022765638 0.040991355 0.0030032697 -0.030608354
000240 25 95 0a 3c 70 31 47 3c 99 13 77 3c df 8d 31 bb
       0.00845841 0.012157783 0.015080356 -0.0027092618
000250 a2 ac 8e bc 1f fd f0 3c db 4b 56 3d 85 86 95 bc
       -0.017416302 0.029417573 0.052318435 -0.01825262
000260 d1 1e 09 bb 54 f7 18 3c db 05 08 3d 16 ad 4b 3d
       -0.002092291 0.009336311 0.03320871 0.049725614
000270 f2 21 2a 3d 03 ca 51 3c da cf ca 3c 43 0e b4 bc
       0.04153628 0.012804511 0.024757314 -0.021979457
000280 14 2e 0d bb c4 12 5b 3d 0a 19 c7 3c 3b 21 db bc
       -0.0021542357 0.053484693 0.024303932 -0.026749244
000290 e0 ea 5b 3d 73 18 48 bd 23 35 00 3c ec 03 34 bc
       0.05369079 -0.04885144 0.007825169 -0.010987263
0002a0 f3 6f 80 3d ba 1f 80 bd 76 ba 54 bd 08 0d ae 3a
       0.062713526 -0.06256051 -0.051935636 0.001327903
0002b0 6b 5d 58 3d ae 88 68 bd c8 94 9d 3c c0 92 66 3c
       0.052823465 -0.056770973 0.019235983 0.014073074
0002c0 16 a8 2c 3c f6 9d 9a 3c 50 12 a9 bc f2 e7 1b bd
       0.010538122 0.01887415 -0.020638615 -0.038062997
0002d0 e6 0c c6 3c 8c 12 07 3d 76 e9 85 3c 64 7e e6 bb
       0.024176072 0.032976672 0.016346674 -0.00703411
0002e0 c6 3d 4f bb 3e 86 2c 3d 9d 6d f5 3a a1 54 f7 bb
       -0.0031622513 0.04212021 0.0018724684 -0.0075479303
0002f0 71 79 11 3d 74 f4 0f bd cc 24 5a 3d 28 8e 18 3d
       0.035516206 -0.035145238 0.05325775 0.037244946
000300 1c 3d 90 bd 3a 16 54 3d 0f 07 18 3d 85 66 64 bc
       -0.07042906 0.05177901 0.037116107 -0.013940458
000310 aa fa ee 3c 0c a4 81 bd 08 26 0e bd 87 a5 44 3c
       0.02917226 -0.063301176 -0.03470424 0.012002355
000320 f0 b8 0b 3d 72 61 fc bc 7f 7a 79 bd 70 76 15 bd
       0.034111917 -0.030808184 -0.060907837 -0.036489904
000330 13 f7 0e bd 88 a8 aa 3d 43 27 d2 3b 83 ce 33 3d
       -0.034903597 0.08332926 0.006413372 0.043898117
000340 fd 48 f1 bc fa 32 5a 3b 93 a0 78 bb c7 81 c2 b9
       -0.029453749 0.0033294545 -0.0037937507 -0.00037099255
000350 58 18 70 3d a2 85 80 bd 68 44 8a 3a 6f b5 26 bd
       0.058616966 -0.062754884 0.0010548951 -0.040700372
000360 4b f5 f0 bc d5 2e ab bd 03 b1 d9 3c 36 24 b6 3c
       -0.02941384 -0.08358542 0.026573664 0.022234064
000370 3b 69 19 bd 08 72 f5 bc 79 c6 a7 3c 65 44 e0 3c
       -0.03745387 -0.0299616 0.020480381 0.027376363
000380 1b 28 12 3d 4d dc 8b bc f9 20 00 bd b7 ae c4 3c
       0.03568278 -0.017072821 -0.031281445 0.024009092
000390 99 df 89 bc 2c de 46 bc 8a 1e 43 bd 1d 28 7b 3a
       -0.016830252 -0.012137931 -0.047636546 0.00095808675
0003a0 d9 43 59 3d 25 07 d0 3b d1 f7 7c 3d 1e f4 3b 3d
       0.05304322 0.006348508 0.061759774 0.045887105
0003b0 b0 a1 1a bd 46 eb 0b 3d 21 0a 9e bc 45 f6 14 3c
       -0.037751853 0.03415992 -0.01929194 0.009091918
0003c0 0b 99 10 bd a6 4e 6b bd a3 6a 4b bd 39 6a 59 3d
       -0.035302203 -0.057448052 -0.049662244 0.053079817
0003d0 05 6d 33 bd 9b 88 3e 3d 78 d1 48 3d ad cd 8b bb
       -0.04380514 0.046516996 0.04902789 -0.004266462
0003e0 fd 76 15 3c 06 04 7b bc 15 a0 19 bd d5 61 c3 bc
       0.009122607 -0.0153207835 -0.03750618 -0.02385036
0003f0 2f 6c 6b 3c 09 84 55 3b 76 6d 27 bd 88 3a 26 3d
       0.014369055 0.003257992 -0.040875874 0.040583163

model.0.bias f4 [512]
000000 74 e8 0a 3e b7 70 54 be 02 10 49 3d eb 79 2d be
       0.13565236 -0.20746122 0.049087532 -0.1694104
000010 c5 74 1f 3e 6b 63 a2 bc 72 d1 8b 3e ee 63 6f 3e
       0.15571888 -0.019822797 0.27308232 0.23377964
000020 75 73 6d be 44 65 37 be 15 ba 64 be 42 66 59 3d
       -0.23188575 -0.17909724 -0.2233661 0.053076036
000030 25 2d 59 be c8 e5 8a be a7 f4 70 3e f7 be 95 3d
       -0.21208628 -0.27128434 0.23530827 0.07311814
000040 d1 2c 32 3e c5 ef 1c 3e 39 c8 37 bd ac 22 d8 bd
       0.17399909 0.1532584 -0.04486868 -0.10553488
000050 cb 3b 73 be fa 46 15 be 95 e1 d5 bd 85 9f e7 3d
       -0.23753278 -0.14577857 -0.10443417 0.11309723
000060 25 88 b9 bd 12 19 14 3e a2 b9 4b 3e 94 f3 49 be
       -0.09059171 0.14462689 0.19895032 -0.19721824
000070 19 2c 54 be 9c 47 70 3d 74 56 1c be 8c e1 55 3e
       -0.20719947 0.058662042 -0.15267354 0.2088682
000080 a9 bf 6d 3d 1e e9 56 3e 24 4e ea 3d 3e e1 2e 3d
       0.05804411 0.20987365 0.114406854 0.042695276
000090 1e 19 86 3d 22 54 3a 3e 98 b4 56 3e 8b 57 2f be
       0.065477595 0.18196157 0.20967329 -0.17123239
0000a0 d7 0b 4d be b7 ad e8 3d c0 aa 56 be b6 b0 8c 3d
       -0.20024048 0.113612585 -0.20963573 0.068696424
0000b0 86 8b 3d be 79 1d f3 3d bf 4f b2 bd 32 c2 7a 3e
       -0.18510255 0.11870856 -0.087066166 0.24488142
0000c0 0f 7d 3b be ae 65 a9 bd 0a bb d0 3d 42 c6 45 be
       -0.18309425 -0.08271347 0.10191925 -0.1931391
0000d0 6e da 81 be 45 87 5d be fc 5e 42 be bb 56 87 3d
       -0.2536196 -0.21633632 -0.18981546 0.066083394
0000e0 4d 7c 86 be bf 80 5b 3e 81 e2 0b 3e ef ff 01 be
       -0.2626671 0.21435831 0.13660623 -0.12695287
0000f0 e6 de df 3d 67 6b d9 3d 21 ae ed bd 6a 4a 2a be
       0.109311864 0.106161885 -0.11605478 -0.16629949
000100 84 e2 56 be d1 41 19 3e ab 5e 5d be ce d0 2d 3e
       -0.20984846 0.14966513 -0.21618144 0.16974184
000110 97 f7 07 3e c8 c5 58 bb 5d 2b 5b be d8 31 25 be
       0.13278042 -0.0033076871 -0.2140326 -0.16132295
000120 4b cb 51 3c ef cf 58 3e 79 7c 02 3e 24 66 52 be
       0.0128048165 0.2117307 0.12742795 -0.20546776
000130 64 2a ed bd 16 93 27 be cd 97 16 3e 4d eb 77 bc
       -0.11580351 -0.16364703 0.14706345 -0.015131784
000140 23 ae 37 3e 06 10 84 3e 5f 2d 07 be f8 df 87 3e
       0.17937522 0.25793475 -0.13200901 0.26538062
000150 eb 32 19 be 19 09 e0 bc dc 11 37 3e 7c f8 4a 3e
       -0.1496083 -0.027348088 0.17877907 0.19821352
000160 eb 19 4a 3e dc 5a 66 3e b0 43 03 bd 19 b0 b0 3e
       0.1973645 0.22495598 -0.032046974 0.34509352
000170 f0 34 61 3e 0c 8a fd 3d a2 18 5e be 4b 60 39 be
       0.2199285 0.12379846 -0.21689084 -0.18103139
000180 2b 40 82 be 1b c9 ed bd b0 83 81 bd 5e 36 44 be
       -0.2543958 -0.116106234 -0.063239455 -0.19161364
000190 b6 a1 e8 3d 12 14 84 3c 59 fa 4f 3e 69 73 51 3e
       0.11358969 0.016122852 0.20310344 0.20454182
0001a0 d5 08 cd bc 5a d9 58 be 5d d2 51 be 3a d4 4e 3e
       -0.025028626 -0.21176663 -0.20490403 0.20198146
0001b0 48 e7 6e 3e 8d 4e 78 3e ac 15 11 3e 58 5b 84 be
       0.23330414 0.24248715 0.14168423 -0.2585094
0001c0 bf f9 34 be e3 b9 fe 3d c3 ef 56 3e a0 50 77 be
       -0.17673396 0.12437799 0.209899 -0.2415185
0001d0 03 c8 3c be ea a7 32 3e 2c a4 41 be 7b de 2a 3e
       -0.18435673 0.17446867 -0.18910283 0.16686432
0001e0 c9 2d 5f 3e ed 2f 8e bc 31 95 6c 3e 61 31 7a be
       0.2179481 -0.017356837 0.23103787 -0.24432899
0001f0 21 5d 22 be 5e 92 40 3e 63 ca 0c bd 83 1e 96 bd
       -0.15855838 0.18805835 -0.0343727 -0.073300384
000200 5c 04 50 3e 3a 26 15 be a8 95 b8 bd aa 5b 6c be
       0.20314163 -0.14565364 -0.0901292 -0.23081842
000210 5e 1f 2d be f0 ad 51 be 40 48 c8 3c 9a b2 69 be
       -0.16906497 -0.20476508 0.024448514 -0.22822037
000220 10 38 4b bd 5b b5 23 3e 2e 2b bd bd 1f 68 c0 3d
       -0.049614012 0.1598715 -0.092367515 0.093948595
000230 b8 fa 5e 3e 08 b2 ba bd 60 99 04 bd 22 67 33 be
       0.21775329 -0.09115988 -0.032372832 -0.17519811
000240 62 af c6 bd eb ae b7 3d 00 83 50 be 2d 95 46 be
       -0.0970142 0.0896891 -0.20362473 -0.19392844
000250 d3 23 de bd f0 ec f3 bd 28 d4 5b be e1 36 0a be
       -0.10846677 -0.119104266 -0.2146765 -0.13497497
000260 c5 17 0e 3e 47 1b e7 bd 5a b4 3e be 21 41 5b 3e
       0.13876255 -0.112844996 -0.18623486 0.21411563
000270 2c 06 8c 3e 7f 97 30 3d 5f 39 5a 3e 5f e8 62 3e
       0.2734846 0.043113228 0.21310948 0.22158955
000280 ca 00 66 bd dd b7 48 3e 82 c7 55 be 36 b5 62 be
       -0.056153096 0.19601388 -0.20876887 -0.22139439
000290 76 c5 26 bd 1e 4a 0c 3e db e4 1f 3e 8c 59 19 be
       -0.040715657 0.13700148 0.15614645 -0.14975566
0002a0 01 41 70 3e d9 8f 23 3e b8 f7 5b be 67 af 44 3e
       0.23462297 0.15972842 -0.21481216 0.19207536
0002b0 f3 67 d1 bd 63 cc 34 be 08 74 26 be 54 cc 4f 3e
       -0.10224905 -0.17656092 -0.162552 0.20292789
0002c0 d4 55 81 be 95 58 27 be 81 f5 6c 3d a0 03 01 3e
       -0.25260794 -0.16342385 0.05785132 0.12599039
0002d0 39 47 4a 3e b8 02 30 3e c8 93 72 be 05 48 73 3e
       0.19753732 0.17188537 -0.23689187 0.23757942
0002e0 7c bb 82 3e d3 3a 1d be 30 77 e3 3d 3e 30 59 3e
       0.25533664 -0.15354471 0.111067176 0.21209809
0002f0 5a c5 89 3d 3b 53 64 3e 53 15 50 3e 80 d1 da bd
       0.06727095 0.22297375 0.20320635 -0.1068449
000300 14 3d f9 3d 98 5d 3b 3e 4e f4 70 be 36 4e 46 be
       0.12169853 0.18297422 -0.23530695 -0.19365773
000310 e9 ba 12 be f8 3e 82 be 1e 70 5b be 10 dd 83 be
       -0.14329113 -0.25438666 -0.21429488 -0.25754595
000320 b0 d3 4f 3d 0f 1e 37 3e 5d bd 3f be 12 3d 81 3e
       0.05073899 0.1788256 -0.1872458 0.25241905
000330 00 90 3e 3e 3b a9 28 3e e3 6f 36 be 33 d4 61 3e
       0.18609619 0.16470806 -0.17816119 0.22053604
000340 a5 48 ac 3d 0b ee c7 bd d4 e9 9a 3e 26 1b d4 bd
       0.08412293 -0.097622 0.30256522 -0.10356741
000350 85 84 1a be 2f ee 63 3e 72 e3 df 3d ef 0b 52 be
       -0.15089615 0.22258829 0.109320536 -0.20512365
000360 37 e3 49 3e 74 bd e0 3d 89 1f 18 be c0 ae c3 3d
       0.19715582 0.10973635 -0.1485578 0.09554815
000370 91 b2 f4 bd a4 4a 7d 3e 33 3f 18 3e e5 95 1d 3e
       -0.11948121 0.24735504 0.14867859 0.15389211
000380 3b e8 fd bd 84 d2 3a 3e 41 94 3d 3e 2f a0 4a 3c
       -0.1239781 0.18244368 0.18513586 0.012367292
000390 e8 dd 3c 3e 92 a1 24 be 81 5a 05 3e 8b 9b 95 3c
       0.18444026 -0.16077259 0.13022806 0.018262645
0003a0 18 5b 80 3e 05 39 59 be 95 17 d8 3d 67 57 16 be
       0.250695 -0.21213157 0.10551373 -0.14681779
0003b0 39 f9 84 be 08 eb 17 3e 78 e9 1a be bb be 1c be
       -0.25971392 0.14835751 -0.15128124 -0.15307133
0003c0 6b 19 f8 3d ae be 14 be 13 dc 48 3e 44 ba 4a be
       0.12114223 -0.14525864 0.19615202 -0.19797617
0003d0 e3 de 20 3e f0 69 da 3c 95 62 ca 3d a7 ed e7 bd
       0.15710025 0.026661843 0.09882084 -0.113246255
0003e0 e9 ca 1f be 12 61 79 be a3 b1 29 be aa 97 ed bd
       -0.15604748 -0.24353436 -0.1657167 -0.11601193
0003f0 f5 f9 83 be fc db ad bd ab af 3a 3e 3a b7 96 3e
       -0.2577664 -0.08489224 0.18231075 0.29436666

model.2.weight f4 [256, 512]
000000 ac d4 93 3c 40 42 86 bc 8c e3 05 3d 58 32 43 3c
       0.018045746 -0.016389012 0.03268771 0.011913858
000010 51 84 da 3a e3 a5 be ba 31 b4 6c 3d 11 14 0b 3e
       0.0016671513 -0.0014545288 0.05778903 0.13581873
000020 c5 f5 56 bd dc f9 5b bd ed 40 9c bc 30 1b 95 3d
       -0.052480478 -0.05370508 -0.019073928 0.07280576
000030 3b a6 8d 3c 56 9c 2d bd df 6f 8f 3d 9a ce 27 3d
       0.017291179 -0.04238542 0.070037596 0.040968515
000040 2f e2 b7 3c 3e 4d 3b 3d 21 4c f3 bb 4f ab a2 bb
       0.02244672 0.04572796 -0.0074248468 -0.004964269
000050 94 09 3f bd ad 56 9b bc 56 12 09 bd 08 61 cf 3c
       -0.046639994 -0.018962229 -0.033464752 0.025314823
000060 f5 8d 0b 3d b4 7e 29 bc 7f e4 9a 3c 95 58 56 bd
       0.034070928 -0.01034515 0.018907784 -0.052330572
000070 0e 4c 8d bc 76 67 93 3c 8f f2 63 3b 28 aa 9d bc
       -0.01724818 0.01799367 0.0034782027 -0.019246176
000080 1a a2 e6 3c 2b d5 23 bb ac bc f0 bb 65 6b 57 3d
       0.028153468 -0.0024998884 -0.00734671 0.052592654
000090 b8 51 df 3c 27 98 55 3d fe aa 87 3d fa 2f 4a bd
       0.027260646 0.052147057 0.06624411 -0.04936216
0000a0 4a 95 2e bd b9 7a 17 bc 4f 61 6f bc 5f 74 6d 3d
       -0.042622842 -0.009245568 -0.0146106025 0.05797231
0000b0 55 d1 75 bd fc 19 9b 3c e2 34 08 bd b6 7b 08 3d
       -0.060014088 0.018933289 -0.033253558 0.033321105
0000c0 af 3a 85 39 3d 88 c7 bc 93 93 8f ba d7 a8 5f bd
       0.0002541146 -0.024356956 -0.0010954015 -0.054604378
0000d0 15 83 86 bd 28 ac 81 bd 04 70 e1 bc 74 68 04 3d
       -0.06567971 -0.06331664 -0.027519234 0.032326177
0000e0 de a8 f2 bc e9 73 03 3d 5d 12 32 bb 69 e3 b1 bc
       -0.029621538 0.032092962 -0.002717159 -0.021714883
0000f0 6a 51 48 3d d8 c8 c6 bc 0c f0 84 3c 21 93 f0 3c
       0.048905768 -0.024265692 0.016227745 0.029367032
000100 c9 09 2f 35 78 d5 0c 3d 95 65 71 bd 7a 67 49 3d
       6.520682e-07 0.034383267 -0.058934767 0.04917095
000110 5b 4d 98 3d b5 db 87 3c f7 e4 24 bd 40 b1 95 3c
       0.074366294 0.016584257 -0.04025742 0.018272996
000120 97 88 84 3d 57 b0 5c 3c 13 c1 6b 3d df 06 8a bd
       0.06471365 0.013469777 0.057557177 -0.06739592
000130 3f e6 00 3d 4f 6e 0a bd 15 c2 82 bc 1a 58 69 3c
       0.03146958 -0.033796605 -0.015961686 0.014242196
000140 41 84 df 3c ff f3 ca 3d 81 be 4d bd 36 72 98 3d
       0.027284743 0.0990982 -0.050230507 0.07443659
000150 77 74 11 3c b1 44 c3 bb 5c 3b 64 3d b3 2a f3 3c
       0.008877865 -0.0059591164 0.055720672 0.029683447
000160 c5 8a 35 3c 00 3d 76 3d 6c 8f 6f bc ba 55 00 3e
       0.0110804485 0.060116768 -0.014621597 0.12532702
000170 22 8e 10 3d 53 a4 36 3d 20 d1 60 bc eb a5 a8 3a
       0.0352918 0.044590306 -0.013721734 0.001286683
000180 1e 58 cf 3b 5c 70 fb bc e1 f8 2b bd 54 d7 a1 bd
       0.006327643 -0.030693226 -0.041985396 -0.07902399
000190 45 3b 3a 3c 07 ad 77 3c 80 8a a3 3c db 34 78 3d
       0.01136667 0.0151169365 0.019963503 0.060597282
0001a0 fa ce 03 3d 0c d8 93 bc f2 86 30 3b 45 ea 8a 3d
       0.03217981 -0.018047355 0.0026935902 0.067829646
0001b0 87 e7 08 bc 9d d8 b3 bc 55 47 3d 3c 20 2a 8f bd
       -0.008355982 -0.021953875 0.011552651 -0.069904566
0001c0 76 28 10 bd c8 e0 e8 3b 2b 57 09 3c 53 7e 67 3c
       -0.035194837 0.007106874 0.008382599 0.014129239
0001d0 77 40 a9 3b 8d 4b a3 3c ab 43 c5 bb 00 11 e8 3c
       0.0051651555 0.019933486 -0.0060200295 0.028328419
0001e0 59 ce 38 3d 12 74 44 3d ab d7 d3 3c 9d 44 16 bc
       0.045118663 0.047962256 0.025859674 -0.009171632
0001f0 37 90 13 3c 70 88 c7 3c 41 ab bd 3c 6d e5 86 3b
       0.0090065515 0.02435705 0.02315295 0.004116705
000200 12 03 14 3d 9f 78 e8 3c 69 04 0b bd 15 54 91 bd
       0.03613574 0.02837783 -0.033939753 -0.070961155
000210 b3 33 57 bd db 4c 41 bd e5 f6 03 3d 94 10 82 bd
       -0.05253954 -0.047192436 0.03221788 -0.06350818
000220 bc 87 02 3d 15 00 4e ba d2 63 c3 bc 0e 61 fe ba
       0.031867728 -0.00078582886 -0.023851309 -0.0019407587
000230 3b c9 44 3c 2d b4 dd bc 8d 07 b3 bc 07 19 dc 39
       0.012010868 -0.027063454 -0.021854186 0.00041980317
000240 0e 7c ce bc 05 2a 1e 3d a4 41 91 bd 88 16 cf bb
       -0.025205638 0.03861429 -0.07092598 -0.0063198246
000250 ca ba 63 3c 30 2b 0c 3d fb 7f 75 3c 51 ef 7d bc
       0.013899514 0.034220874 0.014984126 -0.015498952
000260 ec ba 34 3c 15 18 a3 bc 7e 30 db 3c 35 a8 ff bc
       0.011030894 -0.019908944 0.026756521 -0.031208137
000270 26 ff 91 3d ab 7f 36 3c 6a cc 2d 3d 2b 4f 47 3d
       0.07128744 0.011138837 0.042431273 0.048659485
000280 93 02 f0 bc e4 07 df 3c c9 ef e8 3b 43 d3 71 3b
       -0.029298102 0.027225442 0.0071086627 0.0036899603
000290 64 30 23 3d 17 dc 1a 3d af e1 81 3d 63 5d 27 bc
       0.03984107 0.03780755 0.06341874 -0.010215136
0002a0 75 7f c9 3c 19 94 9a 3b 83 af 37 bd ac 00 04 3d
       0.024596909 0.0047173616 -0.044845115 0.032227203
0002b0 82 e8 1d bd 72 eb 16 3c 8f 03 2a bc 6f 6b 05 ba
       -0.038551815 0.009211408 -0.010376825 -0.0005089556
0002c0 60 01 66 bd 85 90 c0 bc 27 ba e4 3c 75 68 73 3c
       -0.056153655 -0.023506412 0.027920796 0.0148564475
0002d0 08 58 2d 3c b3 be bf 3c e1 a1 d4 bc d9 d8 cd 39
       0.01058007 0.023406362 -0.025956096 0.0003926221
0002e0 00 34 bb 3d 3c 58 0a 3a 29 28 57 ba 36 3c 3b 3b
       0.091407776 0.000527743 -0.00082075835 0.0028569824
0002f0 69 57 92 bc 50 7b f5 3c 73 7a d4 3c 2a f4 85 bc
       -0.017863946 0.029966027 0.025937295 -0.016351778
000300 77 84 e7 bc be 1a af bc ed b7 69 bd 75 b3 44 bd
       -0.028261406 -0.021375056 -0.05706017 -0.048022706
000310 24 a7 69 bc 43 54 9e bd 9c f4 36 bd 13 5a 32 bd
       -0.014261041 -0.077309154 -0.04466687 -0.043542933
000320 01 a2 42 bc f4 fa 94 3d fb 83 e0 3c 00 a3 7f 3d
       -0.011879445 0.07274428 0.027406683 0.06241131
000330 84 82 3d 3d cd 6c 39 3c 69 b3 24 bd b0 1d 75 3d
       0.046267048 0.011317444 -0.04021016 0.059842765
000340 0d f7 37 3d 96 73 f1 bc 8a 06 05 3e 6a 65 24 bd
       0.04491334 -0.029474061 0.12990776 -0.04013578
000350 04 97 2e bd 9e 8d 89 3d 1d ec 8f bc ab 37 19 bc
       -0.04262449 0.067164645 -0.017568642 -0.009351651
000360 f7 10 f5 3b 59 38 80 3d 89 2d a3 3c 8c c7 03 bd
       0.007478829 0.062607475 0.019919174 -0.032172725
000370 e0 76 85 3c e4 a0 d7 3d 22 3b 5e 3a 4d 40 ed 3c
       0.016292036 0.10528734 0.00084774394 0.028961325
000380 98 06 cd 3a 37 51 c2 3c 83 08 93 3d 29 d9 86 bc
       0.0015642224 0.023720367 0.07179358 -0.016460972
000390 fd 40 22 3d e0 1f bf 38 de ed 65 3d 7c 9a d9 bc
       0.03961276 9.113527e-05 0.05613505 -0.026562922
0003a0 2c 05 3d 3c 48 73 49 bd 9f df 16 3d d9 80 30 bb
       0.011536878 -0.049182206 0.036834355 -0.0026932268
0003b0 98 ce fb bc e4 7e 42 3d 9d 87 61 bb 34 f8 cc bc
       -0.03073816 0.047484294 -0.0034413107 -0.025020696
0003c0 cd d1 1b 3d 68 64 25 bd b1 6a 46 3d 80 5a 87 bd
       0.03804188 -0.040378958 0.048441593 -0.066090584
0003d0 49 3b 37 bc 59 a7 7a 3d e9 d0 8a bc 12 d6 40 bc
       -0.011183568 0.06119475 -0.01694532 -0.011769788
0003e0 ce ab e7 3c 77 a6 c3 3c 12 e4 ce 3c 4d a4 76 bc
       0.028280165 0.023883088 0.025255237 -0.015053821
0003f0 a8 e5 a4 bd a1 ff c0 bc 06 d6 a5 bc 47 37 0b 3e
       -0.08051616 -0.023559393 -0.020243656 0.13595305

model.2.bias f4 [256]
000000 25 5d 56 3e 73 87 4d 3e a4 20 6b bd bc a9 91 bc
       0.2093397 0.20071201 -0.057404175 -0.017781131
000010 53 26 2a 3d 39 af e8 3d 8c 60 25 3e 36 cc db bd
       0.041540455 0.11361546 0.16150111 -0.107323095
000020 a9 19 2f 3e 1b 18 f1 3d 24 30 0e 3e e2 d6 e4 bd
       0.17099632 0.11772176 0.13885552 -0.11173798
000030 3c c4 45 3e 94 0f e3 bd 8f 8b 19 be b7 37 b0 bc
       0.19313139 -0.11086956 -0.14994644 -0.021510942
000040 d3 c7 f4 bd 1f 2e 40 3d 5f 9f 19 be 01 22 0b be
       -0.11952176 0.046918985 -0.15002201 -0.1358719
000050 d6 3c 2a be bb b2 71 bd 17 ef 1e 3e 4f da 2e be
       -0.1662477 -0.05900834 0.15520893 -0.17075466
000060 bc a1 a9 bd d9 8d 68 3e 52 99 06 3e ea f3 39 3e
       -0.082828015 0.2271036 0.13144425 0.18159452
000070 e3 69 f7 bd ed ca 5f be da 8a f1 3c 6d e7 4d 3e
       -0.12080743 -0.21854754 0.029485155 0.20107813
000080 a9 9a 2b 3d 93 9e ce bd fe 3a 04 3c 4f f2 21 be
       0.041895542 -0.100888394 0.008070705 -0.1581509
000090 f0 81 f8 bd 5f d7 9a 3d 96 9b a4 bd 12 92 5b bd
       -0.121341586 0.0756061 -0.08037488 -0.0536061
0000a0 2f f0 d8 bd ed 9c 18 be 6d 03 46 be be d6 66 bb
       -0.105926864 -0.14903612 -0.19337244 -0.003522321
0000b0 ff 20 13 3e a8 2e da bc 8a b1 11 be 1f d2 bb bd
       0.14368056 -0.026633576 -0.14227882 -0.09170937
0000c0 a6 2a c7 3d e8 69 dc 3d 26 4f 97 ba 29 cf 4a 3e
       0.097249314 0.107623875 -0.0011543974 0.19805588
0000d0 2d aa 0c be 02 fa dc 3b c2 d0 24 3e 3a f3 1f 3e
       -0.13736792 0.0067436704 0.1609526 0.15620127
0000e0 8c 8e 6c bd 6b 05 12 3e f3 8f ed bd 7b 77 34 3e
       -0.05775313 0.1425988 -0.11599722 0.17623703
0000f0 4d f0 ec 3a c0 fc 2a 3e fc e3 9b 3d a7 a2 eb 3a
       0.0018076986 0.16697979 0.07611844 0.0017977551
000100 0b af 2c be 17 ca d7 bd bd 44 18 3e 85 0b b8 3d
       -0.16863649 -0.105365925 0.14869972 0.08986572
000110 e3 2c 6d bd 87 f9 cb bd a9 e7 13 3e fc ac 9b bd
       -0.057904135 -0.09959703 0.1444384 -0.076013535
000120 1e 98 12 bd c6 d2 32 3e e4 76 34 3e 0d cb e6 3d
       -0.0357896 0.17463216 0.17623478 0.112691976
000130 c9 7b aa bd e9 1f 22 3e 5c ed fd 3d 9c 79 fd 3d
       -0.083243914 0.15832485 0.12398788 0.12376711
000140 4b 6d 49 bd cc 24 62 3e f5 28 b8 bd f9 59 24 3e
       -0.049176496 0.2208435 -0.08992187 0.16049947
000150 a2 3f 15 3e 1c 59 bc 39 24 f2 21 3e 93 ba 93 bd
       0.14575055 0.00035924546 0.15815026 -0.072133206
000160 f3 0d 9c bd 9e ea f9 bd 8f 77 e5 bd 9a c5 f5 bd
       -0.07619848 -0.12202953 -0.112044446 -0.1200058
000170 57 d5 12 bd ea 42 05 3e d3 b8 22 3e cc 85 b9 bc
       -0.035847988 0.13013807 0.15890817 -0.022646807
000180 2f 00 9b 3b 08 0a d7 bd 8a d0 02 be da 95 62 3e
       0.0047302465 -0.1049996 -0.12774864 0.22127476
000190 e7 4c 10 3e 40 e0 c4 3d 77 a5 36 3c 9e ee 2f be
       0.14091836 0.09613085 0.011147848 -0.17180869
0001a0 87 00 34 3e ab 12 e9 bd a1 ad 49 3e 03 25 d1 3d
       0.17578326 -0.11380514 0.1969514 0.102121376
0001b0 ba e3 be bd 52 aa 11 3e 8a e8 22 be 8b 85 ea bd
       -0.09320779 0.14225128 -0.15909019 -0.114512525
0001c0 d5 f9 4c be 3c eb cd 3c 5b 28 b6 3d dc 8b e2 bd
       -0.20017178 0.025136583 0.08894416 -0.11061832
0001d0 a9 90 2e 3d 2d 7c 36 3d c0 ab bd bd 45 13 2e 3e
       0.042618427 0.044552017 -0.09261274 0.16999538
0001e0 2d 8e 3f 3e 52 31 4c 3e d2 a4 b8 bd 78 3e 75 3d
       0.1870658 0.19940689 -0.09015812 0.059874028
0001f0 c5 d0 38 be 16 6b 3b 3e 12 3b 0f 3e ca fa 2f be
       -0.1804839 0.18302569 0.13987377 -0.17185512
000200 4a b9 a7 bd e2 f7 07 be 53 76 ef bd d7 5d 47 3e
       -0.08189638 -0.13278154 -0.116924904 0.19469391
000210 b8 7f 0a 3e 67 6b 3b be 42 5e 19 3e a6 27 0d 3e
       0.13525283 -0.1830269 0.14977363 0.13784656
000220 66 19 fe bd 86 3a f6 bd ae 63 f4 3c 00 6f 2d be
       -0.12407188 -0.12022881 0.029832687 -0.16936874
000230 2e de 79 3e 44 36 57 be 91 41 24 be 27 9b e3 ba
       0.24401161 -0.21016794 -0.16040637 -0.0017364965
000240 cb cb 89 bd 09 67 18 be 99 34 c9 bd 2d aa 6d 3e
       -0.067283235 -0.14883055 -0.09824485 0.23209448
000250 bb ca 3d 3d 2c 2d 3a 3e 16 50 42 be 9c 7a 3e be
       0.046335917 0.18181294 -0.18975863 -0.1860146
000260 27 a8 fe 3d b9 95 1f be 55 33 24 3e c3 d3 79 bd
       0.12434416 -0.15584458 0.16035207 -0.060992967
000270 b0 00 d2 3d 3c e1 10 be 38 f7 91 bd 00 4d 2a 3e
       0.102540374 -0.1414842 -0.07127231 0.16630936
000280 fa 2b 81 bd 9e fd 3a 3e 22 00 e7 3d 32 03 6e 3d
       -0.06307216 0.1826081 0.11279322 0.058108516
000290 91 d9 24 be 26 d5 2c 3e 85 ea 0c 3e 51 cf 19 3e
       -0.1609862 0.16878185 0.13761337 0.15020491
0002a0 1b 93 39 be 1e 56 b0 bd 26 d7 94 3d c0 d1 0e be
       -0.18122523 -0.086101755 0.07267599 -0.13947201
0002b0 67 1e 40 3e bc de 85 3d b7 09 33 3e 07 74 4e 3d
       0.18761598 0.06536624 0.17484175 0.05040362
0002c0 8f d1 b9 3d 17 08 f5 bd d5 b7 4c 3e d1 25 3d be
       0.09073173 -0.11964434 0.19992001 -0.18471457
0002d0 42 df 47 3e 6e 87 fd bd 50 49 42 3e 15 46 01 3e
       0.1951876 -0.12379347 0.18973279 0.1262439
0002e0 0e 0e 2e 3e b0 47 4d 3e 5c d3 0b 3e a5 a6 3c 3e
       0.16997549 0.20046878 0.13654846 0.18422945
0002f0 2e 23 ba bd c4 81 65 3e 38 da 1e 3e 31 62 61 3e
       -0.09088741 0.22412783 0.15512931 0.22010113
000300 32 a4 36 be 3b 30 13 be 90 c9 b3 bc 14 ec 92 3d
       -0.17836073 -0.14373867 -0.021946698 0.071739346
000310 ec 2d 7d bd e8 e0 65 3e 6a 41 06 be 68 74 2a be
       -0.061811373 0.22449076 -0.13110891 -0.16645968
000320 17 99 4e be 3b 5b 25 bc 10 b0 54 3e ac 16 0c be
       -0.20175587 -0.010092552 0.20770288 -0.13680524
000330 c5 a7 dc bd ba 39 b2 bd 2e e0 e0 bd 67 65 44 3e
       -0.10774187 -0.08702417 -0.10980259 0.19179307
000340 66 3c 13 be 77 62 26 3e cf 56 29 3e b7 35 13 3e
       -0.14378509 0.16248499 0.16537021 0.1437596
000350 9c a0 5c 3e 68 34 f3 3d 1e 23 3e 3e 70 fa 05 bc
       0.21545643 0.1187523 0.18568084 -0.008177385
000360 8f 42 3a be 73 33 19 be ef 71 0f be 00 35 ce 3d
       -0.18189453 -0.14961033 -0.14008306 0.10068703
000370 57 91 a4 bd fb 69 19 be 7f bf e5 3d 99 fe d8 bd
       -0.08035534 -0.14981835 0.112181656 -0.10595436
000380 40 d8 0e be d1 36 c8 bd 10 4c 07 3d da c5 11 3e
       -0.1394968 -0.097760804 0.033031523 0.1423563
000390 b7 2d 60 3e e0 61 88 bd fc dc 07 3e ba 8d 01 3e
       0.21892439 -0.06659293 0.13267893 0.1265172
0003a0 e1 ff ed 3d 3f 0e 70 bd 8f 43 cb bd 92 30 24 be
       0.11621071 -0.058607336 -0.09924995 -0.16034153
0003b0 26 6b a6 bd 86 79 ac bd 57 a3 19 3e 59 b9 c6 bd
       -0.08125906 -0.08421616 0.15003715 -0.09703321
0003c0 d0 95 c2 bc 62 ac 26 bc 3c bc 41 3e d2 5e b2 3d
       -0.023753077 -0.010172935 0.18919462 0.08709492
0003d0 d0 c0 f9 bd 9e 50 f6 bd e0 60 3a 3e 44 eb 0d 3e
       -0.12194979 -0.12027095 0.18201017 0.13859278
0003e0 e2 a2 ff bc eb 8f 65 3c 56 1f 5e 3d e2 83 76 3d
       -0.031205598 0.0140113635 0.054229103 0.060184367
0003f0 4d b1 b4 3d c5 08 27 be e7 10 b8 bd 1a 45 0a 3e
       0.0882288 -0.16311939 -0.08987599 0.13502923

model.4.weight f4 [128, 256]
000000 36 aa da 3c 60 2e 7f 3d c8 ca 4f 3c 7b 72 6a 3c
       0.026692491 0.062300086 0.012682624 0.014309521
000010 21 67 a4 3b 93 de 73 3d 3e e3 91 ba 7d da fd bc
       0.0050171767 0.059538435 -0.0011130346 -0.030987972
000020 dd 15 41 3d ca 70 29 3d 83 0e 09 3d 56 33 ec bb
       0.04713999 0.04136733 0.033461105 -0.007208268
000030 0c 35 92 3d 2c f4 c1 bc 30 06 92 bd c1 73 85 3d
       0.07139024 -0.023676 -0.071300864 0.06516219
000040 51 40 80 bd 9d 6a 27 3d a7 2f 15 bd 93 3d 00 bd
       -0.062622674 0.04087316 -0.036422398 -0.03130872
000050 1c 6e c5 3c 99 b1 08 bd 36 80 8c 3a a1 31 14 bd
       0.024100356 -0.033372495 0.0010719362 -0.036180142
000060 3f b7 63 bd a7 2f 86 3d 5c 75 18 3d e7 2b 84 bc
       -0.05559468 0.06552058 0.037221298 -0.016134216
000070 2f 9f 8d 3c a2 16 2c bd 68 69 6b bd 17 25 3d 3b
       0.017287819 -0.04201377 -0.05747357 0.0028861219
000080 99 6d 2b bd 50 00 d0 bb f3 7b 91 bd c1 0b f6 bc
       -0.041852567 -0.0063476935 -0.071037196 -0.030034902
000090 a4 5c 99 bd a7 9f 30 3d 08 96 30 3d 00 68 f3 bc
       -0.07488373 0.043121006 0.04311183 -0.029712677
0000a0 d3 e5 5b 3b 65 69 26 3d 9e c0 87 3b a4 fb 78 bc
       0.0033553734 0.040627856 0.004142835 -0.015196715
0000b0 15 39 08 3d d6 c5 6d bd bf 8e 37 3d c9 26 17 3d
       0.033257563 -0.05805 0.044813868 0.036902223
0000c0 97 f5 be bc 32 e7 d3 3b 3a 9d 47 3d 7b 53 f6 3d
       -0.023310466 0.0064667696 0.048733927 0.120276414
0000d0 2e a1 7e bc 00 d7 bc bb 94 0e 3f bc 37 7c b6 3b
       -0.015541358 -0.0057629347 -0.011661191 0.005569007
0000e0 57 d7 1c bd c9 28 d8 3c 2a 32 49 3d 50 df 2f 3c
       -0.0382913 0.026386635 0.049120106 0.010734394
0000f0 fb 6c 21 3c 71 66 8f 3c b4 d1 a0 bc 40 43 23 3d
       0.009852643 0.017504903 -0.019631244 0.039859056
000100 78 db ba bb 1e 60 e4 bb e2 e9 26 3d a7 64 2f 3d
       -0.0057024322 -0.006969466 0.04075039 0.0428206
000110 8b df 9c 3d ab a8 ae 3b 49 e0 86 3d a2 dd d4 3c
       0.07659825 0.0053301654 0.06585748 0.025984589
000120 e3 39 1a bd 29 5d 39 bd 1b 83 77 bd 5c bf 5b 3d
       -0.03765286 -0.04525486 -0.060427766 0.05364929
000130 3e 78 12 bd 8d 2a 09 3d 2d 7d 30 bc 04 b6 33 bd
       -0.035759203 0.033487845 -0.010772032 -0.043874756
000140 34 b0 2b 3d 7f 1a 35 3d 98 2c 5f bd 5d c0 91 3b
       0.041916087 0.04421472 -0.054485887 0.0044479803
000150 e1 00 7d 3d 12 42 b4 bc 75 94 1b bd 7b 87 63 3d
       0.061768416 -0.022004161 -0.037983377 0.055549126
000160 74 72 af bc 7e 50 7b bd 19 b9 2d 3b 2d 05 41 bd
       -0.02141688 -0.06135606 0.0026508032 -0.047124077
000170 82 42 c7 3c bf 75 8a 3d cc 7f 68 3d 04 03 12 3d
       0.024323706 0.067607395 0.0567625 0.035647407
000180 ee c0 39 3d 4d 75 63 3d df 31 1d 3d ef 93 26 3d
       0.045350008 0.05553179 0.03837764 0.040668424
000190 2e c2 9f bc ed 48 fd bc 55 9d 85 bd 56 f0 b8 bd
       -0.019501772 -0.030918563 -0.06524149 -0.090302154
0001a0 12 fc 02 3d 2d 64 56 bd 1d 79 02 3d 9b cf db bc
       0.031978674 -0.05234163 0.031853784 -0.026832392
0001b0 58 5a 7c bc dc 8a 28 3c 33 1c ae 3a b8 a9 de 3c
       -0.015402399 0.010287013 0.001328355 0.027180538
0001c0 3d f2 e2 bc 62 75 44 bc 32 b2 58 bd db b2 46 bd
       -0.027703399 -0.011990877 -0.052904315 -0.048510414
0001d0 f7 9e 29 bd 30 e4 6b bc 9a 77 06 bc 66 2c b4 bc
       -0.041411366 -0.014397666 -0.008207226 -0.021993827
0001e0 7b ff 98 3d c9 67 81 3d 08 d4 c5 3c b1 17 7f 39
       0.07470604 0.063186236 0.024148956 0.00024327521
0001f0 d1 dc d0 bc 71 44 18 bd b8 e9 3f 3d e4 49 58 3c
       -0.025495918 -0.037174646 0.04685375 0.013201211
000200 14 23 fe 3c 24 8e 02 bc ab 4e fc bc b8 9c 8e 3c
       0.031022586 -0.007968459 -0.03079923 0.017408714
000210 5f 49 00 bd 3d 4a e3 bc 40 ff e6 bc 80 e7 33 3d
       -0.031319972 -0.02774536 -0.028197885 0.043921947
000220 66 7a c5 3b c3 49 12 3c 08 2b 67 3c 72 f1 2d bc
       0.006026554 0.008928719 0.014109381 -0.010616647
000230 40 af 94 3c 82 fb 55 bd 5c 79 00 bd 20 e8 7f bd
       0.018149972 -0.05224181 -0.031365737 -0.06247723
000240 d7 7d 30 bd d7 03 80 ba 5f 81 86 bd c6 9d f1 3d
       -0.04308876 -0.0009766769 -0.06567644 0.11797671
000250 7b 3d 83 3c 7b 31 8c 3d 38 57 86 bd a1 33 c7 bc
       0.016020527 0.06845375 -0.065596044 -0.02431661
000260 0b 9a 2d 3d 3b 75 63 3d 21 63 7b 3c 32 c0 42 bd
       0.042383235 0.05553172 0.015343458 -0.047546573
000270 88 3e 69 3d 0c 32 7a bd ec 68 00 bd 99 20 34 3c
       0.0569444 -0.061082885 -0.03135006 0.0109941
000280 d5 d2 fe bc dd 33 86 3d 0a 30 02 3b 9e e2 2f bd
       -0.031106392 0.06552861 0.001986506 -0.04294073
000290 3f 16 4a bd c1 9a ae 3c 08 62 26 bd d8 c5 7a 3d
       -0.04933762 0.021314027 -0.040620834 0.061223835
0002a0 a3 39 48 3d d4 02 07 bd f2 80 6f bc 24 fc 1e bc
       0.04888309 -0.03296168 -0.014618145 -0.00970367
0002b0 27 4f 4e 3b 0a 8f 05 3c 11 0c 1f bd 7a 9e cd bb
       0.0031480284 0.008151779 -0.038829867 -0.0062749954
0002c0 d8 cd 7c bd c8 49 39 bd 45 75 4e bb a4 90 44 bd
       -0.061719745 -0.04523638 -0.0031503004 -0.047989503
0002d0 eb c3 a9 3b d9 95 f4 bc 38 da 9f 3d a0 ec 55 3d
       0.005180826 -0.02985661 0.07805294 0.052227616
0002e0 94 ce f5 3c 7e ba b4 3d 07 5f 38 bc ec 80 50 bd
       0.03000573 0.08824633 -0.011253125 -0.0509042
0002f0 f1 1b 90 bc 52 9e e9 3d 40 1e 10 3c 90 d4 fc bc
       -0.017591449 0.1140715 0.008796275 -0.030863076
000300 56 a6 fe 3b dd 25 29 bd 8e ca db 3c 5d 4c 93 3c
       0.0077712936 -0.041295875 0.026829984 0.017980749
000310 9f 12 53 3b f9 e0 04 3d a4 e7 e7 3c b6 74 07 bd
       0.0032207144 0.032441113 0.028308697 -0.03307029
000320 a3 6c 52 bc b6 c6 d8 bc dc 81 9b 3d d5 8d 77 3c
       -0.012843284 -0.02646194 0.07593128 0.015109499
000330 f8 89 b7 bb 19 9a 24 3d c4 63 5c bd a3 60 b7 3c
       -0.005601164 0.04018602 -0.05380608 0.022384947
000340 b1 92 36 3c e9 d2 26 3c 06 37 6c 3b b3 f9 2c 3d
       0.011143372 0.010182121 0.0036043539 0.04223032
000350 73 cb 63 3a fd 81 1c 3b a6 3d 8d bb 8e 62 9d 3d
       0.0008689679 0.002388119 -0.0043103276 0.076848134
000360 d7 90 14 bd 60 6b 6a 3c a4 fe 96 3b 2b 49 61 3d
       -0.036270943 0.014307827 0.0046079922 0.05500142
000370 64 d3 37 3b fa e9 4c bd e8 8b 37 bc a4 41 5e bc
       0.0028049583 -0.050027825 -0.01120279 -0.013565455
000380 a7 e3 0e bc cc b4 94 bd de 4c 47 bd aa 0a 74 3d
       -0.008721269 -0.07261047 -0.04865729 0.059580483
000390 2a 5c 63 3d 1b bb cd 3c fc 47 22 3b d9 90 ad bc
       0.055507816 0.025113633 0.0024762144 -0.021187233
0003a0 2d a1 9f bd 84 e6 02 bd 39 f8 19 bd 0d 0c 7a bc
       -0.07794414 -0.031958118 -0.03759024 -0.015261662
0003b0 ed fd cf 3c 69 22 69 bc 91 c0 47 bc 06 f3 59 3d
       0.025389636 -0.014229395 -0.0121919075 0.05321028
0003c0 13 d1 1f bd 04 5f e1 bb aa 88 d5 3c 14 8e c6 3c
       -0.039017748 -0.006877782 0.026066143 0.02423767
0003d0 0b 50 35 bd 47 3d 43 bd fe b0 6e 3d 4c 11 fa bc
       -0.044265788 -0.04766586 0.05827426 -0.030525826
0003e0 1e 77 2c 3d 7e 31 c5 3c e1 3e 36 3d 4d 7e 43 3c
       0.042105787 0.024071451 0.04449356 0.011931968
0003f0 e8 b8 62 3d 46 41 71 bc 3b 48 f0 3c f6 e3 60 3c
       0.05535212 -0.014725035 0.029331317 0.013726225

model.4.bias f4 [128]
000000 04 93 d9 3d 7c bf ce 3d 74 14 12 be db 00 e4 3d
       0.10623744 0.100951165 -0.14265615 0.11132976
000010 49 0b ef 3d dd 60 24 3e 04 d4 36 3e b0 94 e0 3d
       0.11672074 0.16052575 0.17854315 0.1096586
000020 cd 82 c9 bd d6 d1 f3 3d 11 d7 2f 3e 89 ea 1f 3e
       -0.098394014 0.119052574 0.17171885 0.15616812
000030 76 cf a4 3d 4d 80 11 3e 49 ad 00 3e b5 cf 13 3e
       0.080473825 0.14209099 0.12566103 0.14434703
000040 5e b2 e9 3d 55 4d 2e bd 43 17 2b 3e c4 99 ca 3d
       0.11410974 -0.04255422 0.16708092 0.0989261
000050 3e b0 0f 3e cb 92 2e 3e f3 90 27 3b 91 3b e7 bd
       0.14032075 0.17048185 0.0025568574 -0.11290658
000060 ae ef 43 bd f6 ca d1 3d 6f 1a fc bd b9 11 8d bd
       -0.047836 0.1024379 -0.12309729 -0.06888146
000070 ca 17 ee bc 0c a6 20 3e c3 e6 02 bd b2 2e 08 be
       -0.029064078 0.15688342 -0.031958353 -0.13299063
000080 6a 29 09 3e e3 c2 fb bd 2e ee cb bc 90 35 02 39
       0.13394704 -0.12293031 -0.024893846 0.0001241772
000090 d2 f0 aa bd 30 d0 32 bd 23 f3 37 3e 05 29 90 3c
       -0.08346714 -0.043655574 0.17963843 0.017597685
0000a0 c4 81 1f 3e 7d b3 f0 3d ce 9f d9 3d 90 b8 17 3e
       0.15576845 0.11752985 0.106261835 0.14816499
0000b0 5a 69 de bc 38 85 e1 3d 92 23 b4 bb 9d b0 00 bb
       -0.027149845 0.110117376 -0.0054974044 -0.001963652
0000c0 db 73 d3 3d 55 ef b1 3b ee 29 b9 3d e6 00 03 3e
       0.10324832 0.005430142 0.090412006 0.12793311
0000d0 d8 38 af 3d 2d ad 22 bc 61 e1 81 bd 07 fb 12 3e
       0.08555764 -0.009928984 -0.06341816 0.14353572
0000e0 f7 b1 c6 bd 11 2a d0 3d c7 b1 cc 3d d9 eb bd 3d
       -0.09701913 0.101642735 0.09994846 0.092735
0000f0 79 94 0e 3e 20 e3 3a be 73 a6 05 3b 47 23 a3 bd
       0.13923825 -0.18250704 0.00203934 -0.07965713
000100 00 96 3c bd d4 01 ed bc 93 1d 11 bc 4e 08 71 bd
       -0.04604149 -0.028931536 -0.008857149 -0.05884581
000110 e2 da e0 3d c2 e3 c9 bd da 21 c5 bd da 27 21 3e
       0.109792486 -0.098578945 -0.09625597 0.15737858
000120 23 e7 09 3e ee 25 26 3e 07 06 39 bd d1 4e e7 3d
       0.13467078 0.16225407 -0.045171764 0.1129433
000130 ac 8b 05 be 6e 68 ee bd 9c 06 fb 3d fe 99 0b 3e
       -0.13041562 -0.11641012 0.1225712 0.13632962
000140 a0 a1 03 3e 45 09 ea bc 30 a3 d8 3d 07 a1 18 bc
       0.12854624 -0.028568873 0.105780005 -0.009315736
000150 76 fe 79 3c 2e 9b 08 be b6 87 2c b7 6d 5c f6 3c
       0.015258422 -0.13340446 -1.0283597e-05 0.030073369
000160 6d bf 33 3e 1e 2f 4e bb c6 4b d0 3d ac 5d 16 be
       0.17553492 -0.003146119 0.10170703 -0.1468417
000170 6c 58 17 3e 74 ce fc bd a3 5b e3 bd 71 65 0a be
       0.14779824 -0.12344065 -0.11101463 -0.1351526
000180 42 56 b3 bd 18 6d 18 bd 61 d9 80 bd 00 0b 7f 3d
       -0.08756687 -0.037213415 -0.06291462 0.06226635
000190 15 92 f3 bd 62 e0 1e be 78 28 d2 bd 25 29 9d bd
       -0.11893097 -0.15515283 -0.10261625 -0.07673863
0001a0 2a 8d 79 bd 96 6d 1f 3e 62 71 dc 3d a9 b8 09 3e
       -0.06092564 0.15569147 0.107638136 0.13449349
0001b0 03 f6 f5 bd 8b ab 04 3e eb fa aa bd de 5b 02 3e
       -0.12009814 0.12956063 -0.0834864 0.12730357
0001c0 25 1b 25 3e 5a 4d 14 be 48 a2 ba bc e6 fd 8c bd
       0.16123636 -0.14482632 -0.02278246 -0.06884365
0001d0 09 d9 46 3e 2f e5 cc bd 30 94 59 3e 18 00 2d 3e
       0.1941873 -0.10004651 0.21247935 0.16894567
0001e0 d4 27 52 bc 0d 77 26 be bf 8a ad 3d 06 b0 f9 bd
       -0.012826879 -0.16256352 0.08473729 -0.12191777
0001f0 6e 8e 07 3e 50 22 10 3e 0c 5b 15 3e 3a 7c ce 3b
       0.13237926 0.14075589 0.14585513 0.00630143

model.6.weight f4 [1, 128]
000000 6e d6 b4 bd 5e 69 41 bd 45 d4 be 3d c0 8b e2 bb
       -0.08829962 -0.047219627 0.09317831 -0.006913632
000010 6f 49 35 bd 26 66 bc bc 33 aa 0e be 8c 04 53 bd
       -0.044259485 -0.022997927 -0.13932113 -0.051518008
000020 8c 80 e0 3d e3 4d b2 bd 09 b4 fa bd ff 8a aa bd
       0.10962018 -0.08706262 -0.1224137 -0.08327293
000030 dd 35 ba bd 3e e3 98 bd 3f 45 a6 bd 35 01 5c bd
       -0.09092305 -0.07465218 -0.081186764 -0.05371209
000040 74 1d f4 bd 37 13 a3 3d 62 4d 33 bd 02 2e ee bd
       -0.1191968 0.07962649 -0.04377497 -0.11629869
000050 94 67 89 bd 3b 44 25 be 45 de 01 3d 7b 1f 0d 3e
       -0.06709209 -0.16139309 0.031706113 0.1378154
000060 8c 38 61 3d 36 04 c6 bc 79 82 d1 3d 7f eb 58 3d
       0.054985568 -0.02417193 0.10229964 0.05295896
000070 4c 98 9a 3d 97 c3 95 bc 3d 9c 9a 3d 49 e6 47 3d
       0.075485796 -0.018281741 0.07549331 0.0488036
000080 96 4b f8 bd f2 8c ae 3d 61 f2 bb 3c f7 d8 bd 3d
       -0.12123792 0.08522977 0.022942724 0.092698984
000090 79 e7 c0 3d d4 7b 94 3d 00 43 e1 bd 8b cd fe 3d
       0.0941915 0.07250181 -0.10999107 0.12441548
0000a0 00 66 91 bc 34 a5 6c bd 5c 50 cf bd f4 a1 f9 bd
       -0.017748833 -0.057774737 -0.10122749 -0.12189093
0000b0 0a 93 3a 3d be 9a b1 bd 1e c8 3d 3d 10 ac 89 3c
       0.045550384 -0.08672093 0.046333425 0.016805679
0000c0 f9 af d5 bd 54 c4 4f 3b 6b b2 30 bc 47 90 dd bd
       -0.10433955 0.0031702714 -0.010784726 -0.10818534
0000d0 05 8e 87 bd 78 d5 7a 3d 53 2e 1b 3d 3a 18 45 bc
       -0.06618885 0.061238736 0.037885975 -0.012029702
0000e0 6a 6e b2 3d d7 ad 02 be 92 a9 f2 bd 27 80 bf bd
       0.08712466 -0.12761627 -0.11848749 -0.09350615
0000f0 2d 6f da bd 23 60 58 3d 1e 2f 18 3d e3 a4 06 3e
       -0.10665736 0.052826058 0.03715431 0.13148837
000100 cb 56 10 3d a6 d2 bf 3d a0 1a 1c 3d e3 9b 19 3d
       0.035239022 0.0936635 0.03811133 0.03750218
000110 b8 2b 54 bd 42 19 70 3d a1 d8 11 3e 45 31 76 bd
       -0.051799506 0.058617838 0.14242794 -0.06010558
000120 bd 26 e0 bd 95 d9 d3 bd ef 48 e6 3d 6f f1 c2 bd
       -0.10944889 -0.10344235 0.1124438 -0.09518706
000130 50 f7 2f 3d 30 6e 94 3d 13 37 b8 bd e0 90 ef bd
       0.042960465 0.07247579 -0.089948796 -0.116975546
000140 9c a8 1f bd 3b 5f 4d 3d f8 d0 e3 bd e2 e1 c5 3d
       -0.038979158 0.050139647 -0.11123842 0.09662224
000150 34 f8 a6 3d 6d dd 8b 3d 26 c2 17 3d b4 8e 4c bd
       0.0815281 0.06829343 0.03705039 -0.04994078
000160 57 01 fc bc 68 51 ad 3d 54 7c 05 bc eb f4 b4 3d
       -0.030762358 0.08462793 -0.008147318 0.08835777
000170 e9 3b 07 be 23 c1 a8 3d ff bb 8e 3d af c7 84 3d
       -0.13206448 0.08239963 0.06969451 0.06483399
000180 0b 0b 6d 3d dc c1 51 3d bf f1 5d 3d cb 83 91 bd
       0.05787186 0.05121027 0.054185625 -0.07105216
000190 ff 53 b8 3d 72 d4 a4 3d 16 98 37 3d 07 9a a6 3d
       0.09000396 0.08048333 0.044822775 0.08134847
0001a0 60 a2 bf 3d 3f 53 fc bd 37 1a 9d bd b8 6f 04 bd
       0.093571424 -0.123205654 -0.07671016 -0.032333106
0001b0 04 6c 98 3d cc 49 1c be 34 96 4a 3e c6 ec 8f bd
       0.07442477 -0.15262526 0.1978386 -0.07027583
0001c0 4e c6 11 be e8 bc b2 3d 19 d4 9c 3c 4a ba c6 3d
       -0.14235803 0.08727437 0.019144105 0.097035006
0001d0 1b f9 f5 bc be 7f c8 3c d8 6b 33 bd b3 3a 79 bd
       -0.03002601 0.024474975 -0.04380402 -0.060846996
0001e0 ff e3 d9 3c 8f d2 af 3d 52 6f b6 bd 77 ee d5 3c
       0.026597975 0.08585083 -0.089079514 0.026114685
0001f0 5a d8 79 bd 70 00 ac bd 09 93 4f bd 68 6d 4e 3d
       -0.060997345 -0.08398521 -0.050677333 0.050397307
