models/discriminator_epoch_5.pth (torch, 951720 bytes, 7 tensors)

model.0.weight f4 [512, 141]
00000000: 9776 41bc 60f9 2938 45ce 213d 2440 b6bd
00000010: 1c6b 57bd 1c41 883d 0f35 28bd 8dce f73c
00000020: 8b7f 07bd f110 4fbd 603e 9ebd a6f4 8b3d
00000030: 4920 92bd 786d dabd 36a7 5cbd af50 36bd
00000040: aad2 c2bd e231 8f3d 1918 d53d 5d48 b03c
00000050: f9b3 0cbd 1266 993d f032 d33c 0547 edbc
00000060: 3893 8fbd fe1a 873d c199 6c3d 06af 4e3d
00000070: cd7c 68bd 0153 73bc ff07 90bd 4589 603d
00000080: dd9a 19bd b7e7 48bd 2348 5d3d 333a bc3d
00000090: 4dd9 963d cf6b 88bd 2fdc 5c3d f2fc 62bd
000000a0: 0831 183d f545 593d 6d79 0dbc 5a9c 3a3d
000000b0: 2f94 1dbd d0b9 cbbd 3254 d6bd faeb 33bd
000000c0: e016 f7bc 7bba 39bd 2ef0 95bd a6fc 7abd
000000d0: a404 b03d ffab 83bd e3e6 923c b306 a5bd
000000e0: 22df 233c 4139 463d 6cb8 b8bd 7099 ad3c
000000f0: 729a e8bc 655c af3d e7c3 a3bd 4c7e 33bc
00000100: 44b1 913d dceb 01bc cff2 fc3c ebb6 a8bd
00000110: 82e7 4bbd 4541 893c 8b58 aa3d f84d 8bbb
00000120: d4e1 bbbc 1d96 7a3d cfef 4e3c 83b1 7d3c
00000130: fa90 83bd f150 573d f9e5 aa3d 0335 7fbd
00000140: 303e fc3c 74c9 74bc 7b2c 413d 5ad3 7e3b
00000150: e997 823d cad5 c0bd d137 903c b1a1 8bbd
00000160: 120e ec3c 3f76 43bd e934 8abc b36d ae3d
00000170: 328a 76bd 39c5 bdbd 0339 dd3c 0283 0b3d
00000180: 761e 853c bcdb 61bd db89 6d3c c6d3 953d
00000190: a403 b8bc 6687 dfbd bad1 043d e9ff 5ebd
000001a0: 81bd 91bd 6b8a 37bd 3015 11be 92c1 a9bd
000001b0: e111 363d 3ea8 263c eb30 7bbd 0c52 393d
000001c0: 5ce0 21bb 1332 9c3d b6db 87bd 0a57 7bbd
000001d0: 1bed bd3b cb28 5dbd 3416 7cbd 850f 3bbd
000001e0: d201 d73d a4e6 9bbb 29ec 99bd d3ad 6f3c
000001f0: 3442 2ebd 1065 8d3d f410 9cbb 06e3 82bd
00000200: 1bc4 763d 285e 383b b19a 8fbd 124e c93d
00000210: 8dc7 293d 8212 90bd 8a87 dabd 9183 d0bc
00000220: 1f7b 113d 9185 fcbc 1872 58bc dc99 733d
00000230: 8ac7 eebc 77c7 493d c089 593b 2139 14bd
00000240: 48ae fb3b 5705 903c a3d4 a83c 49cd e93b
00000250: b653 b9bc 5591 973c f1f8 223d c704 e9bc
00000260: 2aaa 953c dc06 66bb a22b 4d3d 3569 633d
00000270: 94b1 073d 76cc d63c 4d75 203d f7b0 40bd
00000280: 4c03 f4bb 3f0b 303d 6b25 553c f07a 1fbd
00000290: 1dbe 223d 54a0 89bd 424a 1239 183e e2bb
000002a0: 6348 7a3d 1582 90bd 231f 70bd 5168 e6bb
000002b0: fc9d 333d 442d 8abd 250c cfba 3f22 c23a
000002c0: bf44 a4b9 264c d53c e1d7 34bd 3b35 50bd
000002d0: 66fc b63c a505 6d3d c5b4 16bb 9747 9dbc
000002e0: a256 803b 3b17 ac3c fc2f b3bb e82a e4bc
000002f0: b6ee 763d dcd0 0ebd c9b0 193d cb89 0b3d
00000300: b58d a6bd 91cb 813d 6e18 213d 764c ddbc
00000310: 0d1e 6e3c 7c70 4bbd 2417 2bbd 0802 123c
00000320: 41f3 223d 6134 e4bc c6c9 55bd 4869 44bd
00000330: 9a22 3cbd abfd 8b3d c275 d1bb d658 793d
00000340: caba bebc c302 cbbc b734 86bc 9194 bbbc
00000350: dc6d 523d bf10 3bbd 6fb7 77bc 0492 7bbc
00000360: d146 0cbd 371a b5bd 517f 453d 9855 3d3c
00000370: f3c4 a0bc f824 2ebd c6a7 9f3b bdbe 103d
00000380: f784 103d db50 213c bc72 95bc a121 353d
00000390: 9723 e8bc 0b6b e0bc 8664 6abd 5973 edbb
000003a0: eb15 733d eef2 e73c 4185 403d 5554 e33c
000003b0: a65c b1bc 5115 1a3d 2397 c1bb dcad 603c
000003c0: 3609 f1bc f069 95bd e0f1 3ebd 8238 733d
000003d0: 3ce6 57bd 8ee1 7d3d 5bcf 053d a5c7 4a3c
000003e0: 8a75 4cbb d025 7abc 6659 4abd aa6a 2ebc
000003f0: 500d f13b 06df 1cbc e749 5dbd b0a8 013d
-0.011808059 4.052499e-05 0.039503355 -0.088989526 -0.05259238 0.06653044 -0.041066226 0.030249858
-0.03308062 -0.050553266 -0.07726741 0.06833772 -0.07135064 -0.10665411 -0.053870402 -0.04451054
-0.09512837 0.06991936 0.10404987 0.02151888 -0.034351323 0.074901715 0.025781125 -0.028964529
-0.070105016 0.06596945 0.05776382 0.050459884 -0.056759644 -0.014851333 -0.07032775 0.05481841
-0.037501205 -0.049049105 0.054023873 0.09190788 0.073656656 -0.06661188 0.05392092 -0.05541701
0.037156135 0.05304523 -0.008634907 0.045559265 -0.038471397 -0.0994755 -0.10465278 -0.043926217
-0.030162275 -0.045343857 -0.07321201 -0.0612761 0.08594635 -0.0642929 0.017932361 -0.080579184
0.0100019295 0.048394445 -0.09019551 0.021191329 -0.028393958 0.08562545 -0.0799635 -0.0109554045
0.07113889 -0.007929768 0.030877499 -0.08238014 -0.04978133 0.016754756 0.083176695 -0.004251238
-0.022934832 0.061178315 0.012630417 0.015484217 -0.064241365 0.052567426 0.08344645 -0.062306415
0.030791372 -0.014940608 0.04716156 0.00388833 0.06376631 -0.09415777 0.01760474 -0.068179496
0.028815303 -0.04772019 -0.016870933 0.08517017 -0.060190387 -0.09266133 0.027004724 0.034060486
0.016249876 -0.055141196 0.014498199 0.07315783 -0.022462673 -0.10914497 0.032426573 -0.054443274
-0.07116223 -0.04480974 -0.14168239 -0.08288874 0.044450644 0.010171948 -0.06132595 0.04524426
-0.002470038 0.076267384 -0.066337034 -0.061362304 0.0057960874 -0.05399398 -0.061544612 -0.045669097
0.10498394 -0.004757719 -0.07515747 0.014628845 -0.042543605 0.06904042 -0.004762763 -0.063909575
0.060245614 0.0028132293 -0.07011927 0.09829344 0.041450072 -0.0703478 -0.10670383 -0.02545336
0.035517808 -0.030825408 -0.013210796 0.059472904 -0.029147882 0.04926249 0.0033193678 -0.036187295
0.007680688 0.017580671 0.020609206 0.0071350676 -0.022622924 0.018501917 0.03978819 -0.02844466
0.018269617 -0.0035099303 0.05009044 0.055520255 0.033128336 0.026220541 0.039174367 -0.047043767
-0.007446682 0.042979475 0.013009409 -0.0389356 0.039732087 -0.06720033 0.00013951308 -0.006904375
0.06110419 -0.07056061 -0.058623444 -0.0070314785 0.043851838 -0.06746915 -0.0015796466 0.0014811232
-0.00031331737 0.026037287 -0.04415119 -0.050832015 0.02233715 0.05786671 -0.002299593 -0.019199176
0.0039165774 0.02100717 -0.0054683667 -0.02785249 0.060286246 -0.034867153 0.03752211 0.034066956
-0.08132497 0.06337655 0.03932994 -0.027013998 0.014533532 -0.04966782 -0.041770115 0.008911617
0.039782766 -0.027857007 -0.05219438 -0.047951967 -0.045931436 0.06835493 -0.0063922117 0.060875736
-0.023282427 -0.02478159 -0.016382558 -0.02289799 0.0513743 -0.045670267 -0.015119418 -0.015354637
-0.034247223 -0.08842891 0.04821712 0.011556052 -0.019625163 -0.042515725 0.004872295 0.035338152
0.035283055 0.009845938 -0.018243186 0.044221524 -0.028337283 -0.027394792 -0.057224773 -0.0072464165
0.059347074 0.02831408 0.04700208 0.027750174 -0.021650624 0.037617985 -0.0059079095 0.013713326
-0.029423337 -0.072955966 -0.04661739 0.059380062 -0.052709803 0.061982684 0.032668453 0.0123767005
-0.0031197988 -0.015267804 -0.049401663 -0.010645548 0.0073563233 -0.009574657 -0.054025557 0.031655014

model.0.bias f4 [512]
00000000: 405f 0c3e 36e6 4dbe 9e3b 273d 5cb2 14be
00000010: dbbb 103e 9353 b5bc d934 833e 34a2 603e
00000020: 5614 52be f70d 24be 525b 4abe d877 563d
00000030: afb7 47be 46a2 78be 9b20 603e 24a9 8b3d
00000040: 610d 213e 130e 133e 77c6 92bc 9f3b a5bd
00000050: b457 60be ccd8 f3bd eeed 9dbd b3a2 c03d
00000060: cfe9 9abd 6724 053e 77c3 433e 282c 33be
00000070: 0917 46be 7a92 2c3d 8e78 2cbe 8436 433e
00000080: 260f 2a3d 87f7 423e 6bcc da3d 39d4 453d
00000090: 96d5 5a3d 198b 2b3e 0e47 4d3e 45e0 1ebe
000000a0: 926a 38be 038f cd3d 1fca 43be 9fe0 763d
000000b0: 162a 26be 8c4c cb3d bf83 ecbd f445 6a3e
000000c0: 09ca 26be a673 67bd 1db7 e13d f75e 32be
000000d0: 669e 6cbe 1577 4bbe 065f 2fbe 572d 873d
000000e0: 5809 71be 5366 4d3e ba8d 013e 38d3 c4bd
000000f0: 2a3a c33d e0c2 cf3d 7fa3 ecbd 7205 12be
00000100: 1528 3cbe 2c73 103e 4569 46be 1008 183e
00000110: 3308 fd3d 4718 b53c 16b8 46be a906 0fbe
00000120: 344f ac3a 574a 493e 36a1 f43d bef1 3fbe
00000130: 54d2 b6bd 5c3a 14be a7af 133e 0ae2 17bc
00000140: 35f9 253e a57b 733e 52f0 efbd 1c9c 7d3e
00000150: d91e fcbd b2a9 e038 a1dd 293e dd2a 3f3e
00000160: c4dd 3e3e fca8 563e 27cd 80bd 8eea a53e
00000170: fac4 503e f9b2 d73d ad16 50be e229 27be
00000180: b4ae 6dbe 31eb b9bd 72af 60bd 28d8 2cbe
00000190: d1f4 bf3d af6a ab3b 0ea9 433e 6249 3c3e
000001a0: c8a6 1fbd 7f04 40be 237d 40be 1712 423e
000001b0: 1a45 5a3e a0aa 6b3e 2ea3 063e c631 70be
000001c0: c499 27be 1d12 df3d 8d56 523e d9f9 5dbe
000001d0: ca39 2fbe 1488 1c3e 0778 2ebe e168 183e
000001e0: 1009 4f3e 4e87 ebbc 3690 583e df71 5abe
000001f0: 1c6b 0ebe 5bd8 2d3e 32f0 3dbd 450a 4fbd
00000200: b97d 383e 7153 fabd c98d 81bd a3b1 59be
00000210: b0c0 17be ab9f 41be 9064 663c 8d39 53be
00000220: 42b6 1cbd adb9 103e 24d9 78bd 2281 d33d
00000230: c423 4d3e d82b 63bd aa30 03bd 9fab 20be
00000240: d37b 9abd 8102 9d3d 3009 3cbe 937f 2abe
00000250: ecad cabd 7831 e2bd 32da 40be e88d e6bd
00000260: edfc 103e 50a6 b6bd bad6 4bbe e67b 583e
00000270: 38c4 833e b01a 0d3d e102 4b3e 3957 513e
00000280: 11a7 4dbd 0c31 3c3e 0c07 40be 7bfa 49be
00000290: f9e6 a6bd a163 053e c6c5 0d3e 5bc8 1cbe
000002a0: df46 613e fba8 073e 0d53 42be 447e 393e
000002b0: 6ca6 abbd 021c 21be 12d2 16be bd02 3f3e
000002c0: d74c 69be 05fc 11be 8d83 943d de81 eb3d
000002d0: 489e 3b3e 93ed 1f3e 7652 55be e54b 673e
000002e0: b0f8 773e 9fc3 02be 51eb d23d 3d91 543e
000002f0: 882a c33d e6c7 553e 3d0d 3e3e a575 abbd
00000300: 3fe1 013e 0fdd 323e 77f3 53be eef2 2ebe
00000310: 4779 eebd e21a 6bbe c541 44be ef78 70be
00000320: 29f1 1f3d ade1 1c3e 3ab9 22be 9911 753e
00000330: 2a27 2c3e 077c 1b3e 5331 24be 4afe 523e
00000340: 1c1b 903d 2a78 d2bd c87e 8f3e 3dcc b3bd
00000350: a66c 0abe aee3 533e 5226 d73d 21cb 36be
00000360: 3496 3e3e 797e be3d 70c6 13be 5322 c83d
00000370: 47dc cdbd f0bf 683e d37a 013e 2cc3 193e
00000380: f79d 10be 225a 253e 4905 2e3e 323a e63c
00000390: 4f1e 2f3e 7baa 18be 554c ec3d d5e2 ca3c
000003a0: 86b4 6d3e 2d7a 41be 89ed bc3d 488c ecbd
000003b0: e103 6dbe 8831 183e 8e10 00be 292c 04be
000003c0: d29e dc3d dfc4 f4bd 8459 323e 749f 31be
000003d0: 43e5 183e a496 bf3c a663 ac3d e0bc a9bd
000003e0: 22f6 ffbd 31a5 61be fa8f 12be 951e 9bbd
000003f0: 5127 6ebe 2834 c4bd 63c3 2e3e 2a17 8d3e
0.1370821 -0.2010735 0.04082834 -0.14521164 0.14134161 -0.022134578 0.25626257 0.21936876
-0.2051557 -0.16020952 -0.19761398 0.052360386 -0.19503663 -0.24280652 0.21887438 0.068193704
0.1572776 0.14360838 -0.017916901 -0.080680124 -0.21908456 -0.11906585 -0.07711397 0.094060324
-0.07564127 0.13002168 0.19117533 -0.17497313 -0.19344725 0.04213188 -0.16842863 0.19063765
0.041518353 0.19039737 0.10683521 0.048298094 0.053426348 0.1675228 0.20046636 -0.1551524
-0.18009403 0.10037043 -0.19120072 0.06027281 -0.16226992 0.099267095 -0.11548566 0.22878247
-0.16288008 -0.056506775 0.11021254 -0.17419039 -0.23107299 -0.19869645 -0.17126092 0.06600445
-0.2353872 0.20058565 0.1265172 -0.09610599 0.09532578 0.10144591 -0.11554622 -0.1425989
-0.18374665 0.14106435 -0.19376095 0.14846826 0.123550795 0.022106303 -0.1940616 -0.13967384
0.0013146163 0.19657265 0.11944811 -0.18744561 -0.08926836 -0.14475387 0.14422475 -0.0092702005
0.16208346 0.23777635 -0.11715759 0.24766582 -0.12310571 0.000107127606 0.16588451 0.18668695
0.18639284 0.209629 -0.0628913 0.32405514 0.2038764 0.10532183 -0.2032115 -0.16324571
-0.23211175 -0.09078062 -0.054854818 -0.16879332 0.09372867 0.0052312235 0.19107458 0.18387368
-0.038977414 -0.18751715 -0.18797736 0.18952213 0.21315423 0.23014307 0.13148186 -0.23456487
-0.1636725 0.10892127 0.20540829 -0.2167734 -0.17111889 0.15286285 -0.17037974 0.14883758
0.20218301 -0.028751042 0.21148762 -0.21332501 -0.13908046 0.16977064 -0.046371646 -0.050546903
0.1801671 -0.122229464 -0.063258715 -0.2125917 -0.14819598 -0.18908565 0.014062062 -0.20627423
-0.038259752 0.1413333 -0.060753956 0.103273645 0.20033175 -0.055461735 -0.03202883 -0.15690468
-0.07543149 0.07666493 -0.1836288 -0.16650228 -0.09896454 -0.11044592 -0.18833235 -0.11257535
0.14158984 -0.0891844 -0.1990613 0.21141014 0.2573564 0.03444928 0.19825317 0.20443429
-0.050208155 0.18378085 -0.18752688 -0.19724457 -0.08149523 0.13026287 0.13844976 -0.15310805
0.21999691 0.13248055 -0.18976994 0.18114573 -0.08381352 -0.1573334 -0.14728573 0.18653388
-0.22783218 -0.14256294 0.07251654 0.114993796 0.18322098 0.15617971 -0.20832238 0.22587545
0.2421596 -0.12769936 0.10298789 0.20758529 0.095295966 0.20877036 0.18559738 -0.08372048
0.12683581 0.1746714 -0.20698343 -0.17084858 -0.116442256 -0.22959474 -0.19165714 -0.23483633
0.039048348 0.15320463 -0.15890971 0.23932494 0.16811815 0.15184031 -0.1603444 0.20604816
0.07036421 -0.10276826 0.28026414 -0.0877919 -0.13518009 0.20692322 0.10505356 -0.17850925
0.18611985 0.093014665 -0.14431167 0.09772172 -0.1005178 0.22729468 0.1264451 0.15015858
-0.14122759 0.16147664 0.16994204 0.028103922 0.17101406 -0.14908783 0.11537997 0.024766365
0.23213395 -0.18894263 0.09224994 -0.11550194 -0.23146011 0.14862645 -0.12506315 -0.12907471
0.1077248 -0.11951613 0.1741696 -0.17345983 0.14931206 0.02338726 0.08417444 -0.08287978
-0.12498118 -0.22035672 -0.14312735 -0.075741924 -0.23257186 -0.095802605 0.17066722 0.27556735

model.2.weight f4 [256, 512]
00000000: b25b ea3c e5eb 7abc bbdb 443c ba09 d03b
00000010: d9ff 3a3b 2e8b 1dbc c8b3 2e3d aeae fe3d
00000020: 43f8 6dbd 23d4 55bd 342d ebbc 5e7a 303d
00000030: 90ac d03c 5318 4abd b835 833d 93b8 393d
00000040: c9f8 a63c 6e78 1c3d a713 60bc 47e8 46bc
00000050: a1e5 00bd 869c f1bc e0c3 87bc e8cf c43c
00000060: 2c01 cb3c cd23 4cbc 51c5 8b3c 59de 7bbd
00000070: 3f4c edbb 7e9f 9b3c 4d60 0d3c 1ed8 70bc
00000080: bad2 d73c ee35 5cbc 863c 4bbc 3e0b 363d
00000090: 354a c43c f8f5 3c3d 38a5 7f3d d724 40bd
000000a0: ba8a 52bd c428 ba3b 69ba 0bbc 00a9 6d3d
000000b0: 118c 63bd 6e60 3e3c 8594 c9bc 68a7 cf3c
000000c0: 615e 87b9 f42b 8fbc d187 103c a0ec 2abd
000000d0: e49d 77bd e34e 93bd eab6 23bd feec ff3c
000000e0: 2dd3 51bc ab1a 0a3d c272 5abb 48b8 cebc
000000f0: 2a0f e93c d885 b0bc ffb5 0f3c 1ab2 de3c
00000100: 374e 50bc 21e9 113d 28c6 44bd e88c f63c
00000110: 59ad a33d 93e4 973b 0c31 32bd 7020 f63b
00000120: dd41 763d ac9e 7e3b 63f6 1f3d b855 53bd
00000130: f59d 953c fd92 f0bc ee0f 77bc 0c1b a03c
00000140: d4f8 e23c af4b b63d 31ce 29bd 1280 8a3d
00000150: 1f04 c63b 83cf 4bbc 7fd9 2a3d cbaf 143d
00000160: 7202 b63c 1dcd 553d 42af f7bc 1e40 e83d
00000170: 92a6 cf3c 74b3 093d 9eb2 24bc a7d2 513c
00000180: 8428 45bb 8975 0dbd b71a 05bd 9634 9abd
00000190: e6b4 6e3b 5370 183c d2aa 533c 265a 5b3d
000001a0: 07a8 043d eace fbbc 7ad9 0c3c 25d7 873d
000001b0: 896c 1dbc d3d1 b5bc 0e71 e43b edab 96bd
000001c0: 9f90 c0bc 8cdd 253b b9ae 223c 9bab e83b
000001d0: 75be 2f3c dd6c 0abb c202 dc3a 5916 a03c
000001e0: 4e35 0f3d d7b3 353d a058 683c a11b a9bc
000001f0: 1dad 4a3c b2c8 ac3c 83f4 d93c 4fca a1ba
00000200: aa14 de3c af47 0c3c 739e 20bd 1127 95bd
00000210: 012d 83bd 2ec7 25bd 65e3 de3c 5f98 81bd
00000220: 8c30 023d 374b a6bb 9deb d1bc 8700 0dbc
00000230: f429 3a3c 2178 90bc 8834 f0bb b0c2 6bbb
00000240: 3f95 f9bc f662 c83c e6ce 7cbd 1f8a 2dbc
00000250: 2c58 ce3c a6d2 443d eecd e7ba 0f92 6cba
00000260: 32a2 963c dc43 3abc a56c aa3c 30b7 17bd
00000270: a745 813d 457f 623c 93c1 073d 4018 503d
00000280: 8a14 09bd 2c22 853c c75f 9e3c 1ab8 733b
00000290: 772a f33c 8776 103d 5a29 7a3d 99b2 023b
000002a0: 6c7a d33c 7c0c f0ba 295d 30bd 356d 223d
000002b0: 0a59 25bd c39c a03c 8c77 21bc 72b1 ecbb
000002c0: e99f 88bd 542f 4ebc a4f1 c43c 8048 dc3c
000002d0: 901e 263c b652 bf3c 2c42 22bd 6aee a2bb
000002e0: 757b b53d 7d07 d2bb 44ec bcbb 52fd da3b
000002f0: ea12 f8ba eb83 bd3c 721c 923c 57fe 01bd
00000300: e42a 7fbc 9741 17bc 5095 84bd b9dd 69bd
00000310: 9109 b4bc 4eab babd 2590 35bd 338c 30bd
00000320: d6dd 5abc 097b 583d 2cdd 343c 125b 6a3d
00000330: e2c1 373d 04b4 5a3c ea40 edbc 168f 563d
00000340: 9d1d 023d 7455 27bd fae9 013e 8ebe e8bc
00000350: c3a5 04bd 8fa3 8e3d 2ed5 5abc d20c 7fbc
00000360: a517 f53b 9a05 6f3d e021 b43c 7d91 05bd
00000370: f332 8cbb 4fcc bf3d d23c 50bc a49a 093d
00000380: 4d87 cabb 3210 453c f3eb 853d de6d f5bc
00000390: 2a84 013d 2c6d 463c 8991 4e3d 0923 22bd
000003a0: fa66 d33b 4b2e 1ebd 5cd6 ba3c d8e7 5abc
000003b0: 98a6 35bd 4d6b 553d 9ea0 83bc 442e f8bc
000003c0: a4d1 e73c f9ec 4bbd ac67 0c3d a323 8abd
000003d0: 64af 55bc 8980 133d 5fc2 60bc d2c6 d0bc
000003e0: a34e e83c 6537 f33c 9bf1 103c d8a1 a6bc
000003f0: 5c5b a1bd 94a3 9fbc d619 eebc b003 003e
0.028608177 -0.015315031 0.012015278 0.0063488157 0.0028533845 -0.009615703 0.04265192 0.12435661
-0.05809809 -0.052204262 -0.028708078 0.04308545 0.02547291 -0.049339604 0.064067304 0.04534204
0.020382302 0.03820079 -0.0136765605 -0.01214034 -0.03146899 -0.029493582 -0.016572893 0.024024919
0.024780832 -0.012459707 0.017061861 -0.061491344 -0.0072417553 0.01899695 0.008628917 -0.014699964
0.0263456 -0.013440592 -0.012404567 0.044444315 0.023961166 0.04613301 0.062413424 -0.046910133
-0.05140183 0.005681129 -0.00852833 0.0580225 -0.0555535 0.01161967 -0.024606952 0.02534838
-0.00025819524 -0.017477013 0.008821444 -0.04172957 -0.06045331 -0.07192781 -0.039969362 0.031240936
-0.012806696 0.03371684 -0.003333256 -0.025234357 0.028449614 -0.021548197 0.008771419 0.027184535
-0.01271396 0.03562272 -0.04804054 0.030096486 0.07992048 0.0046354025 -0.043503806 0.007511191
0.060121406 0.00388519 0.039053332 -0.05159542 0.018263796 -0.029366964 -0.0150794815 0.019544147
0.027706541 0.08901154 -0.041456405 0.06762709 0.0060429717 -0.012439611 0.041711327 0.03630046
0.022217963 0.052197564 -0.030234937 0.113403544 0.025347982 0.033618405 -0.010052351 0.012806571
-0.0030083964 -0.03453592 -0.03249618 -0.07529561 0.0036423742 0.009304124 0.012919145 0.05355277
0.032386806 -0.030738313 0.008596772 0.066328324 -0.009608396 -0.022194779 0.006971485 -0.07357011
-0.02350646 0.0025309054 0.009929352 0.007100535 0.010726561 -0.0021122016 0.001678549 0.019541906
0.034962945 0.04436096 0.014181286 -0.020643057 0.012370375 0.021091793 0.02660585 -0.0012343618
0.027109463 0.008562013 -0.03921361 -0.07282842 -0.06405068 -0.040473156 0.02720804 -0.063278906
0.03178458 -0.0050748843 -0.025625044 -0.008606083 0.0113625415 -0.017635407 -0.007330481 -0.0035974197
-0.030466674 0.02446125 -0.06172075 -0.010592013 0.025188528 0.048052453 -0.0017685273 -0.000902445
0.018387888 -0.011368718 0.020803759 -0.037039936 0.06312113 0.013824289 0.03314359 0.050804377
-0.033466853 0.016251646 0.01933278 0.003718859 0.029683335 0.035269286 0.061074592 0.0019942878
0.025815211 -0.0018314268 -0.043057594 0.03965493 -0.040368117 0.019606 -0.009855162 -0.0072233016
-0.066711254 -0.012584526 0.024041004 0.02689004 0.010139123 0.02335487 -0.039613888 -0.004972269
0.08861438 -0.006409584 -0.0057654697 0.00668303 -0.0018926535 0.023134192 0.01783583 -0.031736698
-0.015574191 -0.009231946 -0.064737916 -0.057096217 -0.021977218 -0.09114705 -0.04432692 -0.043102454
-0.013358554 0.05285171 0.01103906 0.057215758 0.044862635 0.013348583 -0.028961617 0.05238255
0.031766523 -0.04085298 0.12686911 -0.028411176 -0.032384645 0.0696479 -0.01335649 -0.015567021
0.0074796253 0.05835495 0.02198881 -0.03260945 -0.0042785346 0.09365141 -0.012709813 0.033594742
-0.00618068 0.012027787 0.06539144 -0.029959615 0.031620182 0.01211099 0.050431762 -0.039584193
0.0064514847 -0.038618367 0.022807293 -0.01336094 -0.04434833 0.052104283 -0.0160678 -0.030295499
0.028298207 -0.04978654 0.034278557 -0.067450784 -0.013042305 0.036011253 -0.013718217 -0.02548543
0.02835781 0.0296895 0.008846666 -0.020340845 -0.078787535 -0.01948718 -0.029065054 0.12501407

model.2.bias f4 [256]
00000000: 5ed3 3d3e 2f56 343e 86ae 21bd ff0e b3bc
00000010: 7fd8 5c3c 2c26 c03d b548 113e f391 b0bd
00000020: 546f 163e a602 df3d 2af2 003e c4b0 b9bd
00000030: a909 2e3e 886d bbbd 0423 febd 9b4d ccbb
00000040: 3d43 cebd 72f0 213d 7f61 04be e6d9 e8bd
00000050: d12c 10be caad 1cbd 54ec 073e 8255 18be
00000060: a3e9 89bd 9038 503e 9bba ed3d 1c43 223e
00000070: 5a2a cdbd d3f0 48be 6636 063d 7d1a 363e
00000080: ed9f 8b3c db6b a0bd d8e5 57bb 223a 0cbe
00000090: e7b3 d1bd 5d61 b13d 5cf7 86bd 07a5 04bd
000000a0: ab5b c5bd 493a 00be eb81 2fbe 80f1 3f3c
000000b0: 1037 fa3d db9a b6bc ea35 f4bd 8f62 8bbd
000000c0: 993a bb3d a77a c23d 77dd 1ebc 0618 323e
000000d0: 4e5c eabd 3216 0a3d 2a44 153e 08e8 143e
000000e0: 0b32 18bd c0a2 053e 73fe febd e7dc 1f3e
000000f0: 4944 983c 717f 143e e3d4 6b3d 2040 1cbc
00000100: 8ab1 10be 81de a7bd 0962 0b3e c61c bc3d
00000110: 46fd 33bd 4314 95bd 9ba0 fc3d 1d8a 5ebd
00000120: b4ee 76bc 09ce 1a3e 6bca 1e3e 4afd ea3d
00000130: 357b b9bd 579b 1c3e 1b41 d83d 5e84 db3d
00000140: 4438 27bd 5afe 493e ca80 8bbd 2d8b 0f3e
00000150: e163 013e 4630 5fbc fb7b 133e bb75 4bbd
00000160: 1273 68bd b5fb d0bd 49d5 c0bd 4af2 cbbd
00000170: 9959 a7bc d181 f73d b0b1 0a3e 6269 0cbb
00000180: 1ea1 643c 2b45 afbd 784b 03be b946 493e
00000190: 896f 063e 8104 c13d 56ad d4b7 6e5a 19be
000001a0: 2b5e 1b3e fa17 b6bd ccec 303e 770c b13d
000001b0: 6479 91bd e709 f43d fde3 0dbe 9bd6 d8bd
000001c0: df01 37be efe4 313c 562e a93d 6a8b b8bd
000001d0: 1606 0b3d a7b4 9a3a dc41 93bd 52fb 1b3e
000001e0: 9017 273e a0b2 333e 1f58 7dbd d710 9b3d
000001f0: a953 22be a084 243e 4539 f53d ea48 1bbe
00000200: 729d 9ebd d1df e2bd d3b8 c2bd ef24 2e3e
00000210: 3b85 e93d 9ca5 22be 60a3 123e 13f0 e93d
00000220: 8354 d3bd 8aa4 c6bd 25b4 5f3c 6ff4 18be
00000230: f7c4 603e fa0b 43be f802 0fbe e324 edbb
00000240: ccc7 32bd 8d09 03be 2722 91bd bdeb 543e
00000250: 1cf3 7d3d 4e10 243e 4f35 27be dd78 28be
00000260: 3ea5 f83d b05c 0abe 5591 0a3e 3eb2 1fbd
00000270: ad3b c03d 3bbb f3bd a3b7 55bd 89b3 133e
00000280: 550e 32bd 5686 233e c624 cc3d 2be4 943d
00000290: b990 10be f681 1c3e bafd f03d af4e 043e
000002a0: 6d14 20be d617 6bbd f941 ac3d 0625 f4bd
000002b0: c503 283e fdc3 9a3d 624b 1f3e b47b cb3c
000002c0: 18a2 973d 2c7f cdbd 91b8 363e a5f8 25be
000002d0: 3b5a 2f3e 1ec6 cfbd 5628 293e 5e18 dc3d
000002e0: 6839 143e 7a3a 353e 0d4c f83d 49a5 2b3e
000002f0: 66e5 8cbd cf44 4d3e 88d0 083e e825 493e
00000300: fab0 1fbe e937 f6bd 6a81 e7ba 5424 9d3d
00000310: e5e8 35bd af4f 4d3e 27bc 08be e6de 15be
00000320: 69d2 33be 4fbc f63a b006 3d3e c65f f9bd
00000330: f173 b4bd a678 81bd 5ba7 b4bd 9974 2c3e
00000340: d0b9 febd 3802 0e3e 788a 113e 04ff 003e
00000350: 0156 4d3e 9a20 db3d 7c0f 2e3e cf0a a53b
00000360: 5fed 21be 2f33 02be b35b e9bd dd30 a13d
00000370: 3016 71bd 312d 03be 89c6 c93d 478a adbd
00000380: f4b7 f8bd 76c9 96bd 9798 003d f182 013e
00000390: d221 483e 9b49 94bd 99cc e33d 5795 ea3d
000003a0: f7a8 e13d 3ab3 30bd 07f2 96bd df18 0ebe
000003b0: 8f25 80bd e1f2 6fbd 9782 083e 73a4 9cbd
000003c0: 2946 13bd 8dd0 c13b 302c 2a3e a4a3 c13d
000003d0: 4397 cdbd 7566 c9bd d885 203e edd9 fb3d
000003e0: f646 79bc 3783 063c 3671 823d 2193 603d
000003f0: a855 b33d bf04 11be 33a4 8bbd 49cb eb3d
0.18537661 0.17611001 -0.03947308 -0.021857737 0.013479351 0.09382281 0.14187892 -0.086215876
0.14690906 0.10889177 0.12592378 -0.090669185 0.16995873 -0.09151751 -0.124090225 -0.006234837
-0.100714184 0.039535947 -0.12927817 -0.11369686 -0.14079596 -0.038251676 0.13273746 -0.14876369
-0.06734016 0.20334077 0.11607858 0.15845913 -0.100178435 -0.19623117 0.032766722 0.17783542
0.017044032 -0.07833072 -0.0032943394 -0.13694051 -0.10239392 0.08661149 -0.06590149 -0.032383945
-0.09636625 -0.12522234 -0.17139404 0.011715293 0.122175336 -0.022290638 -0.11924346 -0.06805908
0.09142036 0.0949605 -0.009696356 0.17391977 -0.11443387 0.033712573 0.14576784 0.14541638
-0.0371571 0.13050365 -0.12450876 0.15611611 0.018587248 0.1450174 0.05757607 -0.009536773
-0.14130226 -0.08196736 0.13611616 0.091851756 -0.043942712 -0.07279255 0.123353206 -0.054330934
-0.01507156 0.15117659 0.15506904 0.11474092 -0.09056703 0.15293632 0.10559293 0.107186064
-0.040825143 0.19725934 -0.06811674 0.14017935 0.12635757 -0.013622349 0.14402764 -0.049672823
-0.056750365 -0.10204259 -0.09415681 -0.09958322 -0.020428466 0.120853074 0.13544345 -0.0021425118
0.013954429 -0.085581146 -0.12821758 0.19655885 0.13128485 0.09424687 -2.5353085e-05 -0.14975902
0.15172641 -0.08891292 0.17277831 0.086449556 -0.071032315 0.11915951 -0.13856502 -0.10587808
-0.17871808 0.010857805 0.08260791 -0.09010966 0.03394135 0.0011803106 -0.07190296 0.1523259
0.16317582 0.17548609 -0.061851617 0.07571571 -0.15852226 0.16066217 0.11973814 -0.15164533
-0.07744874 -0.11077846 -0.09507909 0.17006277 0.11402365 -0.15883487 0.14320135 0.11422744
-0.10318854 -0.09699352 0.01365379 -0.14936994 0.21950136 -0.19047537 -0.13965976 -0.0072370633
-0.043647572 -0.12796612 -0.07086592 0.20793052 0.061999425 0.16021845 -0.1632893 -0.16452356
0.121408924 -0.1351192 0.13532002 -0.038988344 0.09386382 -0.11900946 -0.052177083 0.14423956
-0.0434707 0.15969214 0.099679515 0.07270082 -0.14117707 0.15283951 0.117671445 0.1292064
-0.15632792 -0.05739578 0.08411021 -0.11921124 0.16407688 0.07556913 0.155561 0.02483926
0.07403964 -0.10034022 0.17843844 -0.16208132 0.17124264 -0.1014521 0.16519293 0.10746835
0.14475024 0.17698088 0.121238805 0.1676227 -0.06879692 0.2004578 0.13360798 0.19643366
-0.15594855 -0.12022383 -0.001766247 0.07672945 -0.04441156 0.20049928 -0.13353024 -0.1463581
-0.17560734 0.0018824431 0.18459582 -0.121764705 -0.088111766 -0.0632184 -0.08820983 0.16841353
-0.12437785 0.13868034 0.14212978 0.1259728 0.20052339 0.10699578 0.16998094 0.005036689
-0.15813206 -0.12714837 -0.11394443 0.07870648 -0.05885905 -0.12810208 0.09852321 -0.0847364
-0.12144461 -0.073626444 0.03139552 0.12647606 0.19544151 -0.07240602 0.11123008 0.114542656
0.110185556 -0.043139674 -0.07370382 -0.13876675 -0.06257164 -0.058581237 0.13331066 -0.07648554
-0.03595558 0.005914754 0.16618419 0.0945504 -0.100386165 -0.09833995 0.15676057 0.122974254
-0.015214672 0.008209995 0.063692495 0.054827813 0.08756572 -0.14161967 -0.06818428 0.11513383

model.4.weight f4 [128, 256]
00000000: 83b8 e23c ef15 823d 37c9 c03c 00f9 833c
00000010: d4b5 4f3c 3166 853d b61d 153c 0b2d f1bc
00000020: 5236 513d 0f9f 2e3d 35df 1e3d a190 38bc
00000030: c5b2 943d 7904 10bd e4b8 78bd d06b 573d
00000040: f76c 59bd 9161 4f3d f28c 11bd bc65 21bd
00000050: 47cf 0a3d 54e1 c1bc cd88 bdb9 86dc 1bbd
00000060: 103c 4ebd d237 883d 3a7e db3c 2736 2bbc
00000070: 3b37 a03c 89af 20bd 3169 2fbd f479 813b
00000080: 3897 bcbc 3cf0 abbb a424 5ebd 0e11 fcbc
00000090: 6658 82bd ea9f f43c 8418 e43c e289 f5bc
000000a0: 7dd9 3abc 9a82 203d ffd6 0a3b a497 dabc
000000b0: 42cb 0b3d a3bd 54bd 610a 3b3d ca79 413d
000000c0: 1ead fabc 89df 573c 8479 493d 02ee ea3d
000000d0: d700 08bd 96a4 c0bb 88bc ab3a 750f db3c
000000e0: 37a1 1ebd f71e e53c 7e77 703d 8d59 8b3c
000000f0: 025c 7939 42c6 843c 7a8f 1dbc aa83 4c3d
00000100: f4ee 61bb 59d5 603b d396 373d f1fd 0c3d
00000110: e015 723d ddeb 273c 7ad1 973d a325 033d
00000120: e5de 5cbd 5c1e 45bd f285 65bd 5b79 283d
00000130: a9ae e9bc 9da2 493d d918 0dbc a11e 18bd
00000140: 953f 0f3d 51b2 293d 6d3a 83bd 53eb 5c3c
00000150: 751e 863d 56c4 6abc cb78 aebc a278 453d
00000160: 29f1 1cbc ae02 6ebd ed68 d33b 80b7 40bd
00000170: 426e 9f3c 4d4c 743d 81da 753d b33a b73c
00000180: c5c0 203d c962 363d cd28 453d 6e0a 1f3d
00000190: 55c3 15b9 8f87 1fbd ae07 5fbd 577b b9bd
000001a0: 6052 0d3d cf80 59bd 5b77 093d 6bff b8bb
000001b0: e1fc f0bb db1e 703c 5397 253a ea58 093d
000001c0: ea60 dcbc 9fa9 e5ba 69dd 29bd 05db 6ebd
000001d0: f406 17bd e647 21bd 6cfe c4ba f9c4 29bc
000001e0: 5ed2 9d3d 7cf8 733d c654 e93c f9fe 76bb
000001f0: fec4 f9bc 37c4 03bd 21fd 313d 92ff 373c
00000200: da54 023d 2854 0fbc a103 8fbc ddfc 413c
00000210: 1409 03bd a044 c7bc e148 14bc e8ea 353d
00000220: 9286 333c e2e4 4e3c acc0 bc3c 7369 67bc
00000230: 5cfd 623c 467e 40bd 5c1a dbbc 4ff0 32bd
00000240: 011a 34bd 69c9 babb 6905 84bd f0b0 ed3d
00000250: afee b93b 00a2 943d da9f 86bd 90b7 b5bc
00000260: 3a20 103d d4e3 673d c547 463c b555 1ebd
00000270: 6e60 4d3d 8c66 71bd bb2d c9bc 16fb 2d3c
00000280: 4f82 2cbd d432 853d 42c4 d9ba ef7c ddbc
00000290: ae60 49bd 0bb6 fa3c d862 0ebd 29ea 8a3d
000002a0: 4e08 453d c648 01bd 19fa bebc 44c5 6ebc
000002b0: 5174 843b 57fc e43a a4d4 31bd 45be c53b
000002c0: c40b 30bd 721f 52bd e973 51ba 22e9 3cbd
000002d0: ac5e da3a 9f56 01bd 1965 973d cdf0 783d
000002e0: d5f1 c83c 65dc b03d 1a32 72bc 42e1 53bd
000002f0: 0bfd 4dbc 8333 e03d c81c 1a3c e8f5 d0bc
00000300: 5ee1 293c 0552 2fbd d3eb bf3c b78f 523c
00000310: f6d7 afbb a2ce ec3c dcea 0d3d 9554 d0bc
00000320: 08f8 86bb 462e 12bd 0117 963d 54f8 a73c
00000330: d837 31bc 3f3d 4b3d 2092 3abd 2ce2 a53c
00000340: c6b9 373c d24b 2f3c 9e52 d43b c5cc 2c3d
00000350: ffc7 d63b 54fa 3f3c 2bad b23b bbbf 813d
00000360: 7428 1ebd fedc 753c 6ae5 443c 46ef 673d
00000370: 88fa 283c 1709 5abd 8ab5 e6bb f4b8 8fbc
00000380: 6861 84b9 d0c9 8cbd e667 09bd 3542 8c3d
00000390: 40c3 5b3d ea89 a33c 4269 313b 3505 eabc
000003a0: c685 77bd faa6 3ebd 18be d2bc e7ec b0bc
000003b0: 0c7a 993c 4ccb 06bc 6428 663a 5cf6 4f3d
000003c0: fe85 1bbd 1fa0 81bc abf9 e33c 0fbb f23b
000003d0: 02cf 34bd 198d 3ebd 1880 543d ffa5 48bc
000003e0: e1ed fe3c 00ba 1b3d 9af0 3d3d b82d bf3c
000003f0: f3b1 293d b228 7dbb d8ad a13c 222e 343c
0.027675873 0.0635184 0.023533447 0.016109943 0.012677629 0.06513632 0.009101322 -0.029440423
0.051077195 0.04263216 0.038787086 -0.011264951 0.0726066 -0.035160515 -0.0607232 0.052593052
-0.053082433 0.050630156 -0.035534807 -0.039403662 0.03388908 -0.023667015 -0.00036150814 -0.038052104
-0.05035025 0.06651272 0.026793588 -0.010449923 0.019557586 -0.039229903 -0.042824928 0.0039513055
-0.023021325 -0.005247144 -0.054234162 -0.030769851 -0.06364517 0.02986141 0.027843721 -0.029972974
-0.011404392 0.03918705 0.0021185277 -0.026683636 0.03412939 -0.051938664 0.045664195 0.047235288
-0.030600127 0.0131758535 0.049188152 0.11471178 -0.033203926 -0.005878995 0.0013102451 0.026740769
-0.038727965 0.027968867 0.058707707 0.017010475 0.00023780766 0.016207818 -0.009616727 0.049930252
-0.0034474703 0.0034306853 0.04482157 0.034421865 0.059102893 0.010249105 0.07413001 0.032018315
-0.053923506 -0.048124656 -0.056035943 0.04113136 -0.028525667 0.049227346 -0.008611881 -0.037138585
0.034972746 0.04142982 -0.06407628 0.01348384 0.06548778 -0.014329037 -0.021297833 0.048210748
-0.009578981 -0.058108024 0.006451717 -0.04705 0.019461755 0.05964308 0.060022835 0.022366857
0.03924634 0.044527803 0.048134614 0.038828306 -0.00014282514 -0.038947638 -0.054450683 -0.09056728
0.034502387 -0.053101357 0.033561092 -0.0056456826 -0.0073543643 0.014655794 0.00063167996 0.03353206
-0.026901681 -0.0017521865 -0.04147092 -0.058314342 -0.036871865 -0.03937521 -0.0015029437 -0.010361903
0.0770614 0.059563145 0.028482806 -0.0037688597 -0.030489441 -0.032169547 0.043454293 0.011230366
0.031819202 -0.008748092 -0.017457785 0.011840072 -0.03199108 -0.024324715 -0.009050579 0.044413477
0.010957377 0.012627812 0.023041092 -0.014124262 0.013854351 -0.046995424 -0.026745968 -0.043686207
-0.04397011 -0.0057002795 -0.064463444 0.11606014 0.0056742053 0.072574615 -0.06573458 -0.022182256
0.035186984 0.05661376 0.012102072 -0.038655955 0.05014079 -0.058935687 -0.024557939 0.010618946
-0.04211646 0.06503835 -0.0016614276 -0.027037112 -0.049164467 0.030604383 -0.034762233 0.06782944
0.048103623 -0.031563543 -0.023312615 -0.014573399 0.0040421863 0.0017470223 -0.04341568 0.006034645
-0.04297997 -0.05129952 -0.0007989989 -0.04612077 0.0016660294 -0.03157675 0.0739233 0.06077652
0.024529377 0.08635787 -0.014782453 -0.051728494 -0.012572537 0.10947325 0.009406276 -0.025507882
0.010368673 -0.04280283 0.02342788 0.012851647 -0.0053663207 0.028907124 0.034647807 -0.025430957
-0.004118923 -0.03568866 0.073286064 0.020504154 -0.010816537 0.049618956 -0.045549512 0.020249449
0.011213725 0.010699229 0.0064795753 0.04218747 0.006554603 0.011717398 0.005452772 0.06335398
-0.038612798 0.015006302 0.012017587 0.056624673 0.010313638 -0.053231325 -0.007040684 -0.017544247
-0.00025249575 -0.0687443 -0.03354635 0.068485655 0.053653 0.019963223 0.0027070795 -0.028566936
-0.06043031 -0.04654596 -0.02572541 -0.021597339 0.018734954 -0.008227181 0.00087798224 0.050772056
-0.03796958 -0.015823422 0.027829012 0.007407553 -0.04414273 -0.04652128 0.051879972 -0.012246608
0.031119289 0.03801918 0.046372034 0.02333723 0.04142947 -0.0038628993 0.019736215 0.010997327

model.4.bias f4 [128]
00000000: 5a25 a23d 08fb 983d c2a5 01be 4aba b83d
00000010: e389 b93d 22a0 0b3e 7ba2 1a3e 30bd aa3d
00000020: ad21 a6bd 0ef0 bb3d 679b 133e a039 043e
00000030: ebcd 5a3d 5603 ec3d 60e6 c93d 6381 f13d
00000040: 9246 b13d 77bf d2bc 996b 103e d070 923d
00000050: 5474 e83d b434 123e 9c3b ab3c 9b99 c8bd
00000060: 4e20 febc 7657 a03d bb0e dcbd 8d26 55bd
00000070: bf61 4ebc 8270 093e 3a95 73bc 6364 edbd
00000080: b9e8 d93d 9d92 dabd 9307 83ba 4fbf 933c
00000090: e677 87bd c061 e9bc 09f1 1b3e a49b 093d
000000a0: 84f1 073e 3103 ba3d 22e5 a13d 9c4e f73d
000000b0: f840 0bbb 3a33 aa3d 9035 4b3c ea9c a23c
000000c0: 0cb4 9b3d 18d4 a23c d0cd 8d3d 0d22 ce3d
000000d0: a4fa 703d d394 7b3c 59c5 34bd 8517 fa3d
000000e0: 2db5 9fbd 14f1 973d 2c6b 943d 8e62 863d
000000f0: 0420 e53d 7637 20be 3b4b b33c 80dc 84bd
00000100: a4d9 e9bc 76b7 46bc f5da 803c 19f9 0abd
00000110: e2ff aa3d b1a8 abbd 82f1 a4bd 89cd 053e
00000120: 3cf4 db3d 6b51 0a3e 2380 e0bc 3850 af3d
00000130: 9a42 e8bd b946 cbbd 51ab c33d 6114 df3d
00000140: 566f d23d 09cc 34bc 5498 a03d 6dd2 053c
00000150: 0ed9 fc3c 17c8 edbd aee9 c43c da5f 313b
00000160: 79f8 193e f6a4 683c 24c9 a53d f0ab 06be
00000170: ba3b f63d 023a dbbd 2217 c0bd faee f4bd
00000180: 1ba6 91bd 0d5a b2bc febb 3abd 7645 113d
00000190: cf7d c1bd 4af9 0dbe 8216 adbd c223 7bbd
000001a0: d627 37bd 2466 033e 7152 a53d f1ae df3d
000001b0: e020 d4bd dac5 d03d 9278 90bd b2e0 cd3d
000001c0: a0f7 083e 6777 04be fae6 96bb 8d51 52bd
000001d0: 040a 2d3e 0f9b 9cbd a8c8 3e3e 02c6 113e
000001e0: fe27 313c 171a 16be 12cc 6b3d 4508 c4bd
000001f0: f086 d83d a70c e93d b5a3 f43d dc9d be3c
0.079172805 0.074697554 -0.12660888 0.09019907 0.09059503 0.13635305 0.15101044 0.08336866
-0.08111892 0.09176646 0.1441475 0.12912607 0.053419035 0.11524074 0.09858394 0.11792257
0.08656038 -0.025726063 0.14103545 0.071504235 0.11350313 0.14277917 0.020902447 -0.09794923
-0.031021263 0.07829182 -0.10744997 -0.052038718 -0.012596547 0.13421825 -0.014867121 -0.11591413
0.106400914 -0.106724955 -0.0009996764 0.018035559 -0.06614666 -0.028488994 0.15228666 0.033595696
0.13275725 0.0908264 0.07905032 0.120755404 -0.0021248441 0.08310552 0.012402907 0.019850213
0.076027006 0.019876525 0.06924021 0.100650884 0.05883278 0.015355307 -0.044133518 0.12211517
-0.077982284 0.07419029 0.07247004 0.065617666 0.11187747 -0.15646157 0.021886459 -0.064873695
-0.028546162 -0.012128701 0.015729407 -0.033928964 0.08349587 -0.08381785 -0.080538765 0.13066687
0.107399434 0.13507621 -0.02740485 0.085602224 -0.11340828 -0.09925599 0.095541604 0.10892559
0.10275142 -0.011034974 0.07841554 0.008167845 0.030865218 -0.1161043 0.024037208 0.0027065189
0.15036191 0.014199486 0.08095005 -0.13151526 0.12023111 -0.107044235 -0.09379412 -0.11959644
-0.0711176 -0.021771455 -0.04558944 0.035466634 -0.09447824 -0.13864627 -0.08451559 -0.0613134
-0.044715725 0.12831932 0.08072365 0.10922039 -0.10357833 0.10193987 -0.07054247 0.10052623
0.13375711 -0.12936173 -0.0046051713 -0.051347304 0.16898352 -0.076467626 0.18631232 0.1423569
0.010812758 -0.1465839 0.057567663 -0.0957189 0.10572612 0.11379366 0.11945287 0.023268633

model.6.weight f4 [1, 128]
00000000: 3479 b4bd 90b5 3fbd 1e80 b03d 3511 7bbc
00000010: 171a 2cbd bf20 a8bc 7714 0cbe 99ae 57bd
00000020: 0bdb cc3d 8ade b1bd 5c2c f7bd e16c a8bd
00000030: d042 c1bd b432 a1bd 2751 a6bd b724 53bd
00000040: cddf f4bd 8caf 8d3d 9e61 2dbd 956e ebbd
00000050: d9ec 87bd f80c 23be e6ef c63c dc59 fd3d
00000060: 4c47 453d 12e5 bcbc 8870 c43d 388a 3c3d
00000070: 9dcd 853d 1ea2 66bc 971f 913d b93b 2f3d
00000080: b9fa f3bd 0e8a a33d 4ade da3c 0efd af3d
00000090: 807b b43d 8344 7b3d 2c71 dcbd f4d7 e53d
000000a0: c890 90bc 5203 70bd a8e8 cdbd 0848 f5bd
000000b0: 5df3 3b3d e19a b8bd 848c 233d f3f0 943c
000000c0: 9197 d3bd 9895 423c 9a38 4bbc ecf0 dcbd
000000d0: 52f4 84bd afbb 763d 5d46 133d 0586 5bbc
000000e0: 3310 a43d 712a 02be 3fa8 efbd 3466 bebd
000000f0: ef5b d9bd 5e0b 5c3d cf45 593d 9074 f43d
00000100: 8a72 ef3c a274 a73d 2935 293d 60d2 163d
00000110: 3fc2 5cbd 112a 583d 30df 033e d6a6 74bd
00000120: 4d18 dfbd aa45 d3bd a3d8 cc3d 881d c4bd
00000130: 881f 113d fdba 8d3d e870 b7bd a30e ebbd
00000140: 235d 1cbd c5b4 403d df94 e5bd 0476 bd3d
00000150: 9248 8e3d eaae 7d3d 34f7 313d 927d 9dbd
00000160: 03a7 f0bc 27c7 993d c843 65bc 90cf a83d
00000170: 87f9 05be d160 983d 8025 833d e93e 773d
00000180: 08da 453d 9161 3b3d b47c 493d 66f0 92bd
00000190: 5c9f c43d f9d7 9a3d 065b 223d 9021 9c3d
000001a0: 5c79 b23d 6c00 f8bd a346 9dbd 2e8a f2bc
000001b0: 83cf 8b3d 9808 1cbe 0c20 3b3e e221 8cbd
000001c0: 6fc9 0fbe 5fd6 9e3d 9fd8 7d3c eb09 b33d
000001d0: 2a8a dabc 49a9 163d 4fd3 2bbd 457f 79bd
000001e0: aab0 e13c ca8b 983d 8f98 b5bd 5d05 ec3c
000001f0: 033f 7cbd 88a7 acbd e63d 58bd 8671 493d
-0.0881218 -0.04680401 0.086181864 -0.015323927 -0.04201707 -0.020523427 -0.13679682 -0.052656744
0.10002717 -0.08685024 -0.12069008 -0.08223892 -0.094365716 -0.07870999 -0.08120947 -0.051548686
-0.11956749 0.069182485 -0.042329423 -0.11495701 -0.06636972 -0.15922916 0.024284314 0.12370655
0.048163697 -0.023058448 0.09591776 0.046030253 0.06533358 -0.014076738 0.070861034 0.042781565
-0.11913056 0.07985316 0.026717324 0.08593188 0.08812618 0.061344635 -0.10763773 0.112228304
-0.017647162 -0.058596916 -0.10054141 -0.119766295 0.045886386 -0.09013916 0.039928928 0.0181813
-0.103316434 0.011876486 -0.012403632 -0.1078814 -0.06491913 0.060237583 0.035955776 -0.013398652
0.08010902 -0.12711503 -0.11702012 -0.092968374 -0.10613238 0.053721778 0.05304509 0.11936295
0.029229421 0.08176543 0.041310463 0.036821723 -0.053896185 0.052774493 0.12878108 -0.05972942
-0.10893307 -0.10316022 0.10002258 -0.09575945 0.03543046 0.06920431 -0.08957082 -0.11477401
-0.03817476 0.047047395 -0.112100355 0.09251025 0.069474354 0.06193439 0.043448642 -0.07689966
-0.029376512 0.075086884 -0.013993211 0.082427144 -0.13083468 0.07440341 0.06403637 0.06036273
0.048303634 0.045747343 0.04919119 -0.071747586 0.09600708 0.07560725 0.039637588 0.07623589
0.08714554 -0.121094555 -0.076794885 -0.029606905 0.06826689 -0.15237653 0.18273944 -0.068424
-0.14041685 0.07755732 0.015493541 0.08742126 -0.02667721 0.036782537 -0.041949566 -0.06091239
0.02755006 0.07448538 -0.08866989 0.028811151 -0.06158353 -0.084303916 -0.052793406 0.04918053
