models/discriminator_epoch_7.pth (torch, 951720 bytes, 7 tensors)

model.0.weight f4 [512, 141]
-0.013517957 -0.0124731455 0.03915914 -0.09377076 -0.065446205 0.07868809 -0.023666287 0.055504933
-0.028382175 -0.05476796 -0.07404801 0.07726775 -0.07764918 -0.108815275 -0.06302728 -0.068345785
-0.117391296 0.097617686 0.10255102 0.01840284 -0.045749 0.072373144 0.022033824 -0.028624237
-0.069769904 0.06347899 0.05475731 0.04837766 -0.0594293 -0.016287932 -0.06919383 0.05827275
-0.03924991 -0.052589267 0.053295825 0.08843876 0.10129987 -0.04968725 0.052162882 -0.06257604
0.050976817 0.041465484 -0.029222794 0.049376085 -0.05415798 -0.10326017 -0.13778555 -0.03548528
-0.04177721 -0.047192644 -0.06296731 -0.08423168 0.08035241 -0.051847003 0.03551632 -0.0771897
0.013642687 0.046267956 -0.10099039 0.0415094 -0.017304014 0.08869514 -0.09111238 -0.010633183
0.08334094 -0.010826932 0.03231169 -0.07114704 -0.050664347 0.03668909 0.0864285 -0.020510934
0.0031168575 0.055958822 0.034739863 0.03012577 -0.0620354 0.049581848 0.08474102 -0.047589444
0.04900717 -0.009502426 0.047703892 0.009467139 0.08120676 -0.11106622 0.0068264105 -0.03713746
0.024024734 -0.043853074 -0.0102639515 0.08071818 -0.069256485 -0.09406757 0.03541453 0.031022578
-0.0086595155 -0.06991559 0.0125429295 0.07152779 -0.039001305 -0.076925345 0.032474376 -0.05900801
-0.06645651 -0.055151023 -0.14851528 -0.09113967 0.05916881 0.016013576 -0.033168852 0.038129356
-0.014053595 0.07585746 -0.07903122 -0.06839349 0.005230677 -0.058991406 -0.076669075 -0.04003727
0.11027933 -0.018722605 -0.114526436 0.017715316 -0.041476108 0.061525524 -0.027140519 -0.064568214
0.06924931 -0.0010303452 -0.081172474 0.11926032 0.036081385 -0.091547556 -0.107254945 -0.0026712343
0.019855864 -0.015715461 -0.034032103 0.07422826 -0.016813042 0.048892308 0.00030604005 -0.035928555
0.010667303 0.02110412 0.026008977 0.0055026556 -0.023335727 0.014258868 0.04184149 -0.032755267
0.015061197 0.002921557 0.05345138 0.059523497 0.029456653 0.026890948 0.039341245 -0.05002756
-0.0049899914 0.051705223 0.016166791 -0.035472393 0.04641064 -0.059718624 0.0036954444 -0.005159402
0.06476833 -0.065401435 -0.056062303 -0.0045987787 0.044296894 -0.06461822 0.0028764512 0.004582892
0.0026392299 0.029266123 -0.04011851 -0.04873019 0.024910267 0.05948465 -0.00050351553 -0.015420923
0.0060306704 0.020977892 -0.008461478 -0.026289884 0.04856708 -0.03662143 0.040077128 0.026421348
-0.07650815 0.06040782 0.035337206 -0.025681674 0.016026814 -0.04927485 -0.03824085 0.014149393
0.043036647 -0.035304654 -0.056336142 -0.04614419 -0.04663094 0.0652324 -0.0054190573 0.055824634
-0.025511114 -0.026149254 -0.016958794 -0.019065395 0.050338272 -0.051054217 -0.015658094 -0.01961706
-0.039056655 -0.09397131 0.045997646 0.010684247 -0.020629559 -0.04591274 0.0021760438 0.039672628
0.039129283 0.007195402 -0.01986827 0.043616127 -0.031077253 -0.026260981 -0.060276203 -0.009046426
0.060405917 0.030375985 0.046766974 0.033648446 -0.01859401 0.041796193 -0.0027137697 0.015321962
-0.026242092 -0.06867457 -0.043017037 0.06122745 -0.053826343 0.057605237 0.03667392 0.01137348
-0.0013018505 -0.01908074 -0.04576539 -0.011302849 0.012612757 -0.009631806 -0.051890954 0.035153005
00000000: 6c7a 5dbc 2a5c 4cbc 5665 203d e20a c0bd
00000010: a908 86bd 3927 a13d cddf c1bc 2459 633d
00000020: bc81 e8bc 5e54 60bd 7ca6 97bd 8e3e 9e3d
00000030: 8906 9fbd 8bda debd 7214 81bd e0f8 8bbd
00000040: d96a f0bd c8eb c73d 4506 d23d 8dc1 963c
00000050: 4e63 3bbd 5f38 943d 4780 b43c 607d eabc
00000060: 86e3 8ebd 4601 823d 3349 603d a727 463d
00000070: 236c 73bd 456e 85bc 7fb5 8dbd 68af 6e3d
00000080: 83c4 20bd d867 57bd b94c 5a3d 611f b53d
00000090: 4e76 cf3d dc84 4bbd bfa8 553d de27 80bd
000000a0: 11cd 503d b6d7 293d a464 efbc 943e 4a3d
000000b0: c2d4 5dbd 117a d3bd a817 0dbe 0359 11bd
000000c0: 941e 2bbd 134d 41bd 01f5 80bd a981 acbd
000000d0: ce8f a43d 865d 54bd 9079 113d a215 9ebd
000000e0: 9485 5f3c 7883 3d3d 0dd4 cebd c305 2a3d
000000f0: 26c1 8dbc cca5 b53d 2199 babd cd36 2ebc
00000100: a8ae aa3d 7263 31bc 4359 043d 8ab5 91bd
00000110: 6b85 4fbd 4d47 163d 6d01 b13d 8c06 a8bc
00000120: 3144 4c3b 1435 653d 634b 0e3d 52ca f63c
00000130: d518 7ebd 5616 4b3d b38c ad3d 26ed 42bd
00000140: bebb 483d 10b0 1bbc 2865 433d 0f1c 1b3c
00000150: bb4f a63d b076 e3bd 15b0 df3b 731d 18bd
00000160: 85cf c43c 489f 33bd 222a 28bc 934f a53d
00000170: 58d6 8dbd 80a6 c0bd d40e 113d 1023 fe3c
00000180: a4e0 0dbc e82f 8fbd dc80 4d3c 297d 923d
00000190: d5bf 1fbd 098b 9dbd da03 053d 62b2 71bd
000001a0: 5a1a 88bd 0ae6 61bd 6414 18be 6fa7 babd
000001b0: fe5a 723d e72e 833c 10dc 07bd 872d 1c3d
000001c0: 0d41 66bc 285b 9b3d 1fdb a1bd e311 8cbd
000001d0: 1966 ab3b f9a0 71bd ad04 9dbd 1ffe 23bd
000001e0: 21da e13d 2660 99bc d68c eabd b61f 913c
000001f0: dae2 29bd 3002 7c3d cb55 debc 573c 84bd
00000200: 95d2 8d3d a60c 87ba c13d a6bd c13e f43d
00000210: 13ca 133d 497d bbbd 7ba8 dbbd e00f 2fbb
00000220: c4a8 a23c b6bd 80bc 3f65 0bbd fc04 983d
00000230: 81bb 89bc 4d43 483d 0074 a039 d229 13bd
00000240: e9c5 2e3c 8ce2 ac3c c710 d53c 9f4f b43b
00000250: 912a bfbc 079e 693c fb61 2b3d 632a 06bd
00000260: 3dc3 763c 9877 3f3b d6ef 5a3d e9ce 733d
00000270: 144f f13c 684a dc3c 4924 213d b3e9 4cbd
00000280: 1583 a3bb dbc8 533d 3870 843c 804b 11bd
00000290: 1519 3e3d 849b 74bd 452f 723b 3310 a9bb
000002a0: 42a5 843d 30f1 85bd 96a1 65bd 5ab1 96bb
000002b0: a970 353d 8f56 84bd d882 3c3b 162c 963b
000002c0: eef6 2c3b 82bf ef3c 4f53 24bd 4f99 47bd
000002d0: 9e10 cc3c 2da6 733d 5bfe 03ba 0aa8 7cbc
000002e0: ee9c c53b d4d9 ab3c 03a2 0abc e25d d7bc
000002f0: 46ee 463d 5a00 16bd ea27 243d 9571 d83c
00000300: 4eb0 9cbd 316e 773d bfbd 103d 6062 d2bc
00000310: aa4a 833c 6dd4 49bd 70a2 1cbd dbd2 673c
00000320: 3247 303d 9d9b 10bd bac0 66bd b101 3dbd
00000330: 1600 3fbd 9198 853d 5992 b1bb 5fa8 643d
00000340: affc d0bc f636 d6bc 2bed 8abc 082f 9cbc
00000350: 812f 4e3d 3a1e 51bd 6745 80bc f5b3 a0bc
00000360: dff9 1fbd 0874 c0bd 0768 3c3d fb0c 2f3c
00000370: 52ff a8bc ff0e 3cbd f59b 0e3b c47f 223d
00000380: 0746 203d 68c7 eb3b c8c2 a2bc d3a6 323d
00000390: b995 febc 4521 d7bc 2ee4 76bd 7637 14bc
000003a0: 326c 773d 0fd7 f83c ba8e 3f3d f4d2 093d
000003b0: 7752 98bc 7c32 2b3d 80d9 31bb f708 7b3c
000003c0: a8f9 d6bc 41a5 8cbd a232 30bd a2c9 7a3d
000003d0: 0379 5cbd 78f3 6b3d 6437 163d d557 3a3c
000003e0: dba2 aaba 364f 9cbc 7d74 3bbd 962f 39bc
000003f0: bda5 4e3c b9ce 1dbc 9c8b 54bd 99fc 0f3d

model.0.bias f4 [512]
0.13942413 -0.20282538 0.040390346 -0.1568938 0.14386974 -0.027655777 0.26070195 0.2245774
-0.2176437 -0.16730419 -0.20830575 0.040117834 -0.20254494 -0.25684008 0.22438575 0.0695302
0.16291557 0.14650421 -0.030770143 -0.093497835 -0.2255287 -0.13271299 -0.08264037 0.098798424
-0.0920747 0.1267175 0.19127235 -0.18432459 -0.1949683 0.043075282 -0.15590195 0.19329007
0.042698007 0.19799702 0.10462187 0.03879459 0.057441782 0.1718021 0.20335332 -0.16452143
-0.18856245 0.1036933 -0.19828099 0.06138871 -0.17264645 0.106555134 -0.10727208 0.23459247
-0.17199789 -0.059755288 0.11194918 -0.17817749 -0.24200097 -0.20718528 -0.17967016 0.07492991
-0.24097331 0.2030146 0.13083759 -0.10947829 0.09657279 0.100090645 -0.12136725 -0.15177646
-0.1965648 0.14118314 -0.20080696 0.15738349 0.12142294 0.005659165 -0.20101854 -0.14982973
0.0021197202 0.19991837 0.123760715 -0.19424486 -0.10198533 -0.15298377 0.14355643 -0.006434293
0.16561814 0.24301986 -0.12043439 0.25062642 -0.1342367 -0.013422369 0.16345471 0.19048078
0.19334102 0.2134825 -0.045581162 0.33207175 0.20777473 0.1099714 -0.20944831 -0.1678657
-0.24231492 -0.10421218 -0.050571166 -0.17698044 0.10153021 0.008761826 0.19697352 0.19117606
-0.030779129 -0.19880718 -0.19367105 0.19225103 0.22540307 0.2354058 0.13224652 -0.24464937
-0.16505022 0.11250877 0.2064227 -0.23061998 -0.17359112 0.15641983 -0.1770864 0.16120031
0.20759623 -0.027551308 0.21798246 -0.22880577 -0.14740726 0.17770015 -0.040909104 -0.07998721
0.19761173 -0.1322806 -0.07303886 -0.22333582 -0.15937178 -0.19395879 0.014731906 -0.21768081
-0.042646673 0.14855395 -0.07457509 0.09272368 0.20339467 -0.070515245 -0.02473757 -0.16385141
-0.08493781 0.083581716 -0.19297776 -0.17959194 -0.087197654 -0.11533727 -0.2009003 -0.115633674
0.13867056 -0.0938365 -0.19600539 0.20448284 0.2636968 0.042531427 0.19992505 0.20739128
-0.049951427 0.18864015 -0.19375691 -0.20863071 -0.064776845 0.13262461 0.14117561 -0.14171782
0.21979238 0.14488518 -0.19829148 0.18496022 -0.090248875 -0.16512395 -0.15354045 0.19198196
-0.23826553 -0.15085958 0.06508272 0.11708761 0.18440732 0.16073616 -0.22314438 0.23112406
0.24557607 -0.13949873 0.105450004 0.20433107 0.091168426 0.21385871 0.19066507 -0.093154356
0.12926108 0.17870304 -0.22065434 -0.1817038 -0.13136743 -0.24078465 -0.20000108 -0.24250026
0.041599706 0.1619726 -0.17363358 0.2453011 0.17844258 0.15935163 -0.16461597 0.21182878
0.07712324 -0.103829764 0.28897297 -0.091074124 -0.14342353 0.20697822 0.10265581 -0.19222581
0.18785647 0.09728312 -0.1431095 0.087436154 -0.11009087 0.23599178 0.13857186 0.14870344
-0.12518206 0.16206045 0.17629172 0.009595255 0.17705196 -0.14306605 0.12168283 0.01965719
0.23777944 -0.19912982 0.09760788 -0.13234304 -0.24454878 0.15185747 -0.13732626 -0.13806419
0.11242406 -0.1324679 0.1749524 -0.18687712 0.14413042 0.017365742 0.097734936 -0.098928556
-0.13855924 -0.22564265 -0.15226926 -0.09403139 -0.2434347 -0.07845778 0.17991564 0.28246206
00000000: 33c5 0e3e 75b1 4fbe 5970 253d c5a8 20be
00000010: 9752 133e 5e8e e2bc ba7a 853e 9ef7 653e
00000020: fddd 5ebe ca51 2bbe 1a4e 55be 9952 243d
00000030: f167 4fbe 8b80 83be 61c5 653e d965 8e3d
00000040: 57d3 263e 3305 163e ab11 fcbc cb7b bfbd
00000050: fff0 66be eae5 07be 5b3f a9bd d456 ca3d
00000060: a991 bcbd 3bc2 013e e6dc 433e 96bf 3cbe
00000070: c5a5 47be b56f 303d c3a4 1fbe d5ed 453e
00000080: 1be4 2e3d bbbf 4a3e fe43 d63d 13e7 1e3d
00000090: 1348 6b3d e4ec 2f3e da3b 503e 4e78 28be
000000a0: 8416 41be 275d d43d 2c0a 4bbe ba72 7b3d
000000b0: 3bca 30be 9439 da3d 77b1 dbbd 0239 703e
000000c0: 3720 30be f6c1 74bd 9d45 e53d 2974 36be
000000d0: 1acf 77be 6128 54be 74fb 37be da74 993d
000000e0: b5c1 76be 0fe3 4f3e 4afa 053e 2736 e0bd
000000f0: f4c7 c53d 53fc cc3d 658f f8bd 4a6b 1bbe
00000100: 4848 49be 5092 103e 57a0 4dbe 2329 213e
00000110: 97ac f83d 8470 b93b ced7 4dbe f76c 19be
00000120: 01eb 0a3b 67b7 4c3e 4276 fd3d 20e8 46be
00000130: afdd d0bd c7a7 1cbe 7500 133e c3d6 d2bb
00000140: cd97 293e 33da 783e 4ea6 f6bd 1b52 803e
00000150: 5875 09be 7fe9 5bbc ac60 273e 650d 433e
00000160: 30fb 453e 289b 5a3e 50b3 3abd 4f05 aa3e
00000170: e6c2 543e af38 e13d 9e79 56be fce4 2bbe
00000180: 6721 78be 326d d5bd b623 4fbd 5c3a 35be
00000190: 12ef cf3d c38d 0f3c 6db3 493e a8c3 433e
000001a0: 8324 fcbc 1c94 4bbe b451 46be 74dd 443e
000001b0: 10d0 663e 380e 713e a26b 073e 5d85 7abe
000001c0: ed02 29be ff6a e63d 7960 533e a527 6cbe
000001d0: dfc1 31be 852c 203e 2356 35be b211 253e
000001e0: 1b94 543e 48b3 e1bc cb36 5f3e 0f4c 6abe
000001f0: eef1 16be 07f7 353e 4e90 27bd 56d0 a3bd
00000200: bb5a 4a3e 9174 07be 6695 95bd 25b2 64be
00000210: 5b32 23be 229d 46be 185e 713c b8e7 5ebe
00000220: 47ae 2ebd 871e 183e d3ba 98bd eae5 bd3d
00000230: b146 503e 4c6a 90bd 72a6 cabc aac8 27be
00000240: e0f3 adbd e42c ab3d f69b 45be f3e6 37be
00000250: af94 b2bd f235 ecbd cfb8 4dbe 59d1 ecbd
00000260: a8ff 0d3e 5a2d c0bd a3b5 48be f363 513e
00000270: 4403 873e 6f35 2e3d 27b9 4c3e 615e 543e
00000280: de99 4cbd e22a 413e 3668 46be 4aa3 55be
00000290: b9a9 84bd bfce 073e 5790 103e 7a1e 11be
000002a0: 4111 613e c85c 143e ec0c 4bbe 3666 3d3e
000002b0: 67d4 b8bd 4116 29be b539 1dbe eb96 443e
000002c0: e1fb 73be ef7a 1abe 174a 853d a1cb ef3d
000002d0: 46d5 3c3e 0598 243e f67f 64be c9ab 6c3e
000002e0: 4b78 7b3e c1d8 0ebe 2cf6 d73d 2a3c 513e
000002f0: 83b6 ba3d c7fd 5a3e b43d 433e b6c7 bebd
00000300: 045d 043e eefd 363e 36f3 61be 9010 3abe
00000310: 2f85 06be 4090 76be 15cd 4cbe fd51 78be
00000320: 7464 2a3d 25dc 253e 00cd 31be 3630 7b3e
00000330: a7b9 363e 132d 233e 1791 28be a5e9 583e
00000340: caf2 9d3d b3a4 d4bd 44f4 933e 1285 babd
00000350: 9edd 12be 19f2 533e 363d d23d d8d6 44be
00000360: 725d 403e 5f3c c73d 4c8b 12be ba11 b33d
00000370: 5277 e1bd d4a7 713e c8e5 0d3e b745 183e
00000380: ba2f 00be 2df3 253e d185 343e 6b35 1d3c
00000390: 1c4d 353e e87f 12be d934 f93d 1e08 a13c
000003a0: 747c 733e b0e8 4bbe a4e6 c73d ef84 07be
000003b0: ff6a 7abe 8680 1b3e 419f 0cbe b360 0dbe
000003c0: 963e e63d aaa5 07be b926 333e b75c 3fbe
000003d0: ed96 133e 9a42 8e3c 4129 c83d 0e9b cabd
000003e0: 79e2 0dbe de0e 67be 79ec 1bbe 8893 c0bd
000003f0: f246 79be 79ae a0bd ce3b 383e de9e 903e

model.2.weight f4 [256, 512]
0.033837788 -0.017968249 0.024217203 0.012722559 0.0025117635 -0.0070410664 0.04748966 0.12886682
-0.054092206 -0.055840626 -0.025188085 0.059884973 0.021842977 -0.046139378 0.06663454 0.04703294
0.029124249 0.040728003 -0.007930655 -0.009118095 -0.040236183 -0.026569854 -0.01722458 0.029353144
0.028839555 -0.013566069 0.017667836 -0.060911443 -0.007668008 0.01815489 0.006565614 -0.013467558
0.031371847 -0.012985809 -0.008470788 0.045083117 0.025504593 0.051795863 0.061977573 -0.04842932
-0.046830576 0.0003166698 -0.009643344 0.05844889 -0.051730067 0.015065337 -0.025284912 0.027372792
0.0008338976 -0.016893866 0.006492899 -0.049770474 -0.06082645 -0.06528582 -0.0330603 0.042405795
-0.018713672 0.033562694 -0.00322929 -0.022617014 0.041011494 -0.01662517 0.009490874 0.025908997
-0.008040302 0.038489506 -0.04977906 0.043897588 0.074860446 0.0083278725 -0.04653028 0.0156038115
0.07069623 0.008690415 0.04772509 -0.0590093 0.02415786 -0.025944572 -0.01606484 0.019558426
0.027359705 0.09228406 -0.043884158 0.073131755 0.009110639 -0.012482199 0.05311652 0.036524773
0.021405844 0.054172143 -0.024699531 0.11872252 0.026557252 0.042031642 -0.009460276 0.0040366603
-0.0037247504 -0.029439554 -0.031607073 -0.075372025 0.013258853 0.014482123 0.016954638 0.057239614
0.032685455 -0.024804235 0.009332006 0.06725472 0.00021673972 -0.020424763 0.005783285 -0.07112273
-0.029760838 0.0038660024 0.014922499 0.011661583 0.006900257 0.0075617083 -0.0025334791 0.03295511
0.042918082 0.046661936 0.012812946 -0.020332169 0.012685595 0.02976266 0.030541677 0.0042361473
0.03257218 0.0153314015 -0.034299262 -0.07075836 -0.059286106 -0.04118819 0.029310353 -0.06390479
0.028186366 -0.0024180172 -0.028525617 -0.0018834218 0.010836651 -0.016108688 -0.0077749914 -0.005496565
-0.030211797 0.039691597 -0.06155557 -0.006485242 0.026348205 0.04361671 0.0028159881 -0.004243382
0.021762548 -0.013584882 0.019157412 -0.033527028 0.063289136 0.018972907 0.037640635 0.051631175
-0.031442355 0.026037732 0.018247776 0.004285049 0.029586505 0.039810695 0.07072467 -0.0021631168
0.029623883 0.0041691875 -0.04009858 0.04182471 -0.0423997 0.012879889 -0.014469654 -1.5750586e-05
-0.0653916 -0.017130181 0.0276727 0.030540863 0.010141764 0.022491451 -0.034408998 -0.0032994254
0.09058181 -0.006114057 -0.0022832241 0.0076032258 -0.003587273 0.025011715 0.021486053 -0.023971561
-0.020050485 -0.008808425 -0.060952473 -0.052236192 -0.019239014 -0.08813988 -0.052680984 -0.047123514
-0.014058974 0.068207264 0.017629249 0.05666297 0.043158054 0.017001893 -0.031247579 0.05558455
0.040969495 -0.039119042 0.12970275 -0.033215526 -0.038315374 0.068544984 -0.012442957 -0.010138223
0.012797106 0.06639052 0.02180473 -0.02948781 0.0057101366 0.09886883 -0.0015757668 0.033888113
-0.010855142 0.02371278 0.07074002 -0.023782576 0.035235558 0.0078640515 0.05156871 -0.033849683
0.0070272833 -0.04614111 0.02872477 -0.0071603637 -0.041784003 0.058586713 -0.011597234 -0.024331268
0.032678068 -0.043153852 0.03584953 -0.06750108 -0.0120734405 0.06451981 -0.0056594894 -0.018805543
0.034339994 0.02720916 0.014808847 -0.0143530695 -0.07604333 -0.020118639 -0.019977411 0.12641172
00000000: 7e99 0a3d 2632 93bc 2863 c63c 4872 503c
00000010: 669c 243b bfb8 e6bb 8584 423d aaf5 033e
00000020: ca8f 5dbd 24b9 64bd 3e57 cebc f249 753d
00000030: 0bf0 b23c a5fc 3cbd b177 883d 9da5 403d
00000040: fa95 ee3c 68d2 263d 94ef 01bc 1064 15bc
00000050: b2ce 24bd 06a9 d9bc 901a 8dbc 0176 f03c
00000060: ee40 ec3c 3844 5ebc 23bc 903c 477e 79bd
00000070: ea43 fbbb 90b9 943c 5d24 d73b 08a7 5cbc
00000080: c47f 003d 6ec2 54bc 0fc9 0abc 13a9 383d
00000090: 02ef d03c e627 543d 32dc 7d3d d35d 46bd
000000a0: 6bd1 3fbd b306 a639 1eff 1dbc 1a68 6f3d
000000b0: e8e2 53bd 9ad4 763c 4e22 cfbc e83c e03c
000000c0: ec99 5a3a 0165 8abc 62c2 d43b 20dc 4bbd
000000d0: 2825 79bd 92b4 85bd 3d6a 07bd b3b1 2d3d
000000e0: 6a4d 99bc 0979 093d 7fa2 53bb 5147 b9bc
000000f0: abfb 273d 8231 88bc 9c7f 1b3c 1b3f d43c
00000100: 79bb 03bc 2ca7 1d3d 21e5 4bbd f5cd 333d
00000110: 6f50 993d a171 083c 8996 3ebd 21a7 7f3c
00000120: 2fc9 903d 3e62 0e3c 627b 433d bcb3 71bd
00000130: b4e6 c53c b689 d4bc 699a 83bc fe38 a03c
00000140: 7621 e03c 6dff bc3d e0bf 33bd 1ac6 953d
00000150: ca44 153c 2382 4cbc b590 593d 009b 153d
00000160: 4f5b af3c 9ce3 5d3d ac56 cabc cb24 f33d
00000170: 988e d93c 5f29 2c3d 46ff 1abc f645 843b
00000180: f11a 74bb 382b f1bc 6b76 01bd a65c 9abd
00000190: a93b 593c 6d46 6d3c 74e4 8a3c 1674 6a3d
000001a0: 2fe1 053d 4032 cbbc 45e5 183c d8bc 893d
000001b0: a044 6339 d551 a7bc b681 bd3b cba8 91bd
000001c0: 00cd f3bc c25c 7d3b 7f7d 743c 3910 3f3c
000001d0: 8d1b e23b 35c8 f73b ba08 26bb f0fb 063d
000001e0: dfca 2f3d 9620 3f3d 64ed 513c a68f a6bc
000001f0: 3ed7 4f3c d2d0 f33c 8a32 fa3c 61cf 8a3b
00000200: 686a 053d 8f30 7b3c 627d 0cbd c2e9 90bd
00000210: fdd5 72bd f3b4 28bd 441c f03c 84e0 82bd
00000220: 18e7 e63c 9977 1ebb 8eae e9bc 26dd f6ba
00000230: 358c 313c 5ef6 83bc 5bc5 febb 871c b4bb
00000240: bb7e f7bc a893 223d b221 7cbd 2782 d4bb
00000250: 31d8 d73c 6fa7 323d 718c 383b 110c 8bbb
00000260: 5f47 b23c 2093 5ebc 01f0 9c3c a353 09bd
00000270: bc9d 813d 126d 9b3c 112d 1a3d 367b 533d
00000280: b3c9 00bd 154d d53c 5c7c 953c 9969 8c3b
00000290: 665f f23c 8a10 233d 19d8 903d 14c3 0dbb
000002a0: c9ad f23c ae9d 883b 693e 24bd 6350 2b3d
000002b0: 4fab 2dbd 2c06 533c 2112 6dbc 2020 84b7
000002c0: 08ec 85bd 9854 8cbc dcb1 e23c d530 fa3c
000002d0: a429 263c fe3f b83c 73f0 0cbd 2c3b 58bb
000002e0: f582 b93d 6d58 c8bb 25a2 15bb 7b24 f93b
000002f0: 7418 6bbb 5ee5 cc3c 8503 b03c 0260 c4bc
00000300: ea40 a4bc 3651 10bc 4da9 79bd 9ef5 55bd
00000310: 239b 9dbc ae82 b4bd 04c8 57bd 9604 41bd
00000320: 9c57 66bc 40b0 8b3d 376b 903c 6e17 683d
00000330: 80c6 303d 8e47 8b3c ecfa ffbc a0ac 633d
00000340: a1cf 273d 4a3b 20bd ccd0 043e 010d 08bd
00000350: 95f0 1cbd 5061 8c3d 8bdd 4bbc ca1a 26bc
00000360: f4aa 513c c1f7 873d d59f b23c 6b90 f1bc
00000370: 191c bb3b be7b ca3d f689 ceba 43ce 0a3d
00000380: c4d9 31bc 4e41 c23c 25e0 903d add3 c2bc
00000390: 2953 103d 39d8 003c b639 533d f7a5 0abd
000003a0: 2045 e63b 76fe 3cbd 3550 eb3c 7ca1 eabb
000003b0: b425 2bbd 9ff8 6f3d 5302 3ebc 5e52 c7bc
000003c0: 70d9 053d 18c2 30bd f5d6 123d 023e 8abd
000003d0: aecf 45bc f622 843d 3d73 b9bb 150e 9abc
000003e0: 18a8 0c3d bfe5 de3c cea0 723c 2329 6bbc
000003f0: 9bbc 9bbd d8cf a4bc aba7 a3bc 1372 013e

model.2.bias f4 [256]
0.19480023 0.18594176 -0.042513363 -0.026611485 0.020164752 0.101147585 0.1489874 -0.09395855
0.15646864 0.11172017 0.1301337 -0.09824164 0.17962936 -0.09884072 -0.13278738 -0.011129418
-0.10711566 0.03848116 -0.13626412 -0.12314586 -0.15064594 -0.0441517 0.1418304 -0.15830444
-0.07268255 0.21255118 0.12332314 0.16766374 -0.106080934 -0.20637576 0.039275542 0.18678963
0.02449188 -0.088158704 0.008090595 -0.14196682 -0.104995094 0.08370992 -0.072923265 -0.040051997
-0.10257216 -0.13606967 -0.18031389 0.006918481 0.13046466 -0.02998893 -0.13018185 -0.073515974
0.09881223 0.094360925 -0.015606667 0.18334916 -0.12508236 0.029331284 0.15169226 0.15124556
-0.044415753 0.13444044 -0.12315968 0.16325317 0.011665892 0.15337776 0.060181797 -0.008451235
-0.15108639 -0.09252689 0.13459964 0.08711165 -0.04810762 -0.0840399 0.13130683 -0.063391276
-0.022761103 0.16067676 0.16282594 0.11885689 -0.090499364 0.15627576 0.11233369 0.11403364
-0.048412353 0.20650025 -0.076986484 0.14823449 0.13357215 -0.016246552 0.1476078 -0.05890014
-0.061707806 -0.109349854 -0.09994771 -0.10836747 -0.02904584 0.12633508 0.14453037 -0.01236889
0.0142366355 -0.09317298 -0.1313226 0.20647146 0.13509496 0.099715725 0.00681831 -0.15973763
0.16118671 -0.10066514 0.18243665 0.09223928 -0.08118822 0.12798113 -0.14605816 -0.11242856
-0.18799053 0.011274695 0.07736104 -0.097863525 0.039204203 0.0044784998 -0.08154555 0.15911476
0.17245516 0.18523587 -0.07462604 0.0667523 -0.16837604 0.16927953 0.1281116 -0.16013777
-0.083440766 -0.11981115 -0.10114685 0.17999691 0.12237727 -0.16985717 0.14496674 0.12345579
-0.11167888 -0.10698151 0.012789542 -0.15725552 0.22941816 -0.19790137 -0.14617765 0.0036262106
-0.054167207 -0.13460784 -0.08210755 0.21739693 0.05716438 0.16819827 -0.17188948 -0.17237228
0.12736344 -0.14389594 0.14559744 -0.045096297 0.095599696 -0.1298108 -0.056600228 0.15258196
-0.052900884 0.16875003 0.103235796 0.072997116 -0.14908953 0.15827507 0.12492634 0.13783008
-0.16607164 -0.06843056 0.08182103 -0.1281025 0.1732435 0.07410844 0.16369875 0.031483483
0.08097907 -0.10797835 0.18625133 -0.17133006 0.18065631 -0.11186409 0.1752593 0.1146277
0.15621692 0.18604755 0.128361 0.17325874 -0.078099824 0.20991959 0.14171597 0.20563103
-0.16558968 -0.13176164 -0.010850046 0.07869544 -0.053826194 0.20999554 -0.13877043 -0.15401722
-0.18651871 -0.00797692 0.1936289 -0.12633377 -0.096072495 -0.06890643 -0.09645785 0.17805775
-0.13190214 0.14803348 0.1511924 0.13400556 0.2053131 0.108872585 0.17517655 3.2370983e-05
-0.16945633 -0.13402453 -0.12587723 0.087459885 -0.06440083 -0.13749273 0.09830285 -0.09455351
-0.12443426 -0.08593822 0.028276501 0.13196541 0.20448379 -0.07457644 0.1196872 0.12141782
0.11087125 -0.04852171 -0.078121714 -0.14838223 -0.06964804 -0.06724283 0.13937029 -0.08395135
-0.03151682 -0.00047935027 0.1749057 0.093003705 -0.10930926 -0.10539714 0.16758303 0.12989564
-0.020963166 0.019527202 0.051471654 0.05483811 0.08462326 -0.15059976 -0.08012976 0.12251274
00000000: b679 473e 8467 3e3e 7e22 2ebd 5400 dabc
00000010: 8d30 a53c 7726 cf3d 2790 183e 576d c0bd
00000020: 5139 203e 8bcd e43d c541 053e ea32 c9bd
00000030: c2f0 373e 016d cabd 6af9 07be 2a58 36bc
00000040: 755f dbbd 6c9e 1d3d d288 0bbe e633 fcbd
00000050: ee42 1abe 6ad8 34bd fd3b 113e 8f1a 22be
00000060: 97da 94bd 04a7 593e d890 fc3d 0bb0 2b3e
00000070: f640 d9bd 2b54 53be 64df 203d c845 3f3e
00000080: 32a3 c83c 8d8c b4bd 6a8e 043c c05f 11be
00000090: ab07 d7bd 1b70 ab3d cb58 95bd 900d 24bd
000000a0: 5a11 d2bd d955 0bbe 34a4 38be 6db4 e23b
000000b0: 8798 053e 58ab f5bc 644e 05be 8b8f 96bd
000000c0: 115e ca3d 4d40 c13d 1bb3 7fbc e2bf 3b3e
000000d0: 9715 00be 2948 f03c 3755 1b3e 1ee0 1a3e
000000e0: 4bed 35bd c1aa 093e 243b fcbd d72b 273e
000000f0: 4c22 3f3c 0f0f 1d3e 3081 763d 0c77 0abc
00000100: 64b6 1abe bd7e bdbd 7dd4 093e 9867 b23d
00000110: 7f0c 45bd 1c1d acbd 4c75 063e 49d3 81bd
00000120: 7e75 babc 7388 243e d8bb 263e 3e6b f33d
00000130: bb57 b9bd c106 203e 350f e63d 788a e93d
00000140: 084c 46bd cd74 533e 17ab 9dbd c8ca 173e
00000150: 23c7 083e 7d17 85bc 8026 173e 4641 71bd
00000160: 53c1 7cbd d1f2 dfbd 63b1 ccbd c4ef ddbd
00000170: 8bf1 edbc fc5d 013e c5ff 133e e3a6 4abc
00000180: c740 693c 7ad1 bebd 6f79 06be 416d 533e
00000190: 5556 0a3e c237 cc3d 216c df3b 4392 23be
000001a0: 210e 253e 8629 cebd acd0 3a3e f3e7 bc3d
000001b0: 0246 a6bd 7c0d 033e 4590 15be f240 e6bd
000001c0: 9780 40be 80b9 383c 776f 9e3d ac6c c8bd
000001d0: 9694 203d 61c0 923b 5a01 a7bd fbee 223e
000001e0: 1698 303e 79ae 3d3e 8ad5 98bd 6eb5 883d
000001f0: c56a 2cbe 9d57 2d3e b02f 033e 28fb 23be
00000200: fee2 aabd 8c5f f5bd 1426 cfbd 1c51 383e
00000210: efa0 fa3d 0aef 2dbe 2972 143e 64d6 fc3d
00000220: e6b7 e4bd 1f19 dbbd 3a8b 513c 9707 21be
00000230: 98ec 6a3e a8a6 4abe 98af 15be b8a5 6d3b
00000240: 6fde 5dbd a3d6 09be 0128 a8bd 4d9d 5e3e
00000250: 3225 6a3d 2b3c 2c3e cc03 30be 5c82 30be
00000260: 906b 023e 7559 13be 7f17 153e e5b6 38bd
00000270: c6c9 c33d 1fed 04be a4d5 67bd 723e 1c3e
00000280: 99ae 58bd cfcc 2c3e 4a6d d33d 837f 953d
00000290: edaa 18be dc12 223e 62d9 ff3d 5423 0d3e
000002a0: af0e 2abe 5225 8cbd c991 a73d 4d2d 03be
000002b0: be66 313e 2ac6 973d a5a0 273e d3f4 003d
000002c0: 5bd8 a53d c123 ddbd abb8 3e3e 2671 2fbe
000002d0: f8fd 383e 0019 e5bd 2d77 333e edc1 ea3d
000002e0: 54f7 1f3e 4083 3e3e 1171 033e bd6a 313e
000002f0: cdf2 9fbd 29f5 563e fe1d 113e f190 523e
00000300: 5790 29be 86ec 06be 64c4 31bc 132b a13d
00000310: db78 5cbd 1209 573e d619 0ebe b1b6 1dbe
00000320: c3fe 3ebe a1b1 02bc a846 463e a45d 01be
00000330: a8c1 c4bd d01e 8dbd b18b c5bd c554 363e
00000340: 5b11 07be 1796 173e 2ed2 1a3e c138 093e
00000350: 993d 523e 97f8 de3d 7b61 333e 14c6 0738
00000360: f685 2dbe ba3d 09be f6e5 00be 2b1e b33d
00000370: 95e4 83bd e5ca 0cbe 0153 c93d 45a5 c1bd
00000380: 64d7 febd 6100 b0bd 1fa4 e73c f121 073e
00000390: 3364 513e 88bb 98bd 901e f53d e8a9 f83d
000003a0: 7710 e33d b3be 46bd 47fe 9fbd 83f1 17be
000003b0: a2a3 8ebd 9cb6 89bd 16b7 0e3e afee abbd
000003c0: c817 01bd 4e51 fbb9 7b1a 333e ba78 be3d
000003d0: 89dd dfbd 75da d7bd e39a 2b3e 5d03 053e
000003e0: f2ba abbc 83f7 9f3c f1d3 523d ed9d 603d
000003f0: f64e ad3d d336 1abe 121b a4bd f6e7 fa3d

model.4.weight f4 [128, 256]
0.0284924 0.064073384 0.020142598 0.016441453 0.004770773 0.0631625 0.0074536507 -0.03412705
0.049632356 0.0424752 0.037382692 -0.010218932 0.072095655 -0.030067764 -0.060257975 0.059526086
-0.057896405 0.047682516 -0.035253137 -0.04028218 0.03429531 -0.02631099 0.0011394651 -0.036188047
-0.04895822 0.06592131 0.0320311 -0.012325052 0.01790251 -0.045448396 -0.045796122 0.0046644853
-0.03309623 -0.010950845 -0.063912064 -0.031817563 -0.06590728 0.03747504 0.035956953 -0.031256285
-0.008695301 0.037693817 0.0012571235 -0.019793646 0.034380406 -0.052173786 0.04327123 0.04529664
-0.027147807 0.0088260835 0.04906829 0.11657944 -0.032902706 -0.002776993 -0.0036406496 0.021386797
-0.038088743 0.0289795 0.05412169 0.015965056 0.006298092 0.017579483 -0.009417216 0.04339034
-0.001563249 -0.0062542115 0.03450146 0.038535427 0.06930626 0.01050636 0.07238299 0.025784515
-0.045231067 -0.046618097 -0.057113957 0.04672569 -0.032385487 0.04474203 -0.0084231775 -0.03819622
0.035179283 0.042612694 -0.06389216 0.0110527 0.062956855 -0.016341576 -0.025364136 0.05253179
-0.012964289 -0.062347677 0.0051343436 -0.047742303 0.021736465 0.062890254 0.058442954 0.02262854
0.044765554 0.050035655 0.044859327 0.039881777 -0.005615591 -0.03586693 -0.058109853 -0.09217524
0.033904765 -0.055267267 0.033403885 -0.011974594 -0.016950116 0.012711736 0.0010257825 0.030554231
-0.028474925 -0.0042259293 -0.044119902 -0.051440567 -0.037206527 -0.03996532 -0.011011824 -0.011688288
0.0754073 0.061636176 0.029143048 -0.0010563565 -0.029716754 -0.034023967 0.045999665 0.009665384
0.031901702 -0.007508125 -0.018214514 0.014712295 -0.031546026 -0.025976665 -0.014313965 0.04408677
0.004965321 0.011499988 0.019460041 -0.013786268 0.015797384 -0.05424984 -0.026239794 -0.057022784
-0.04456942 -0.0044890703 -0.06313654 0.1167777 0.012060262 0.07188066 -0.0667879 -0.022147728
0.03661867 0.053928588 0.013753086 -0.039123874 0.050538655 -0.059565842 -0.027258104 0.011564004
-0.04491733 0.06564944 -0.005308341 -0.028649611 -0.052023254 0.028305693 -0.036281463 0.06467791
0.04783303 -0.026624968 -0.019517118 -0.016907671 0.0041872817 0.0057858163 -0.040627196 0.0041529406
-0.04870825 -0.048223842 -0.00063617545 -0.04782304 0.0038824908 -0.029972093 0.07697954 0.05635025
0.027839273 0.086467415 -0.012089857 -0.050288603 -0.018940477 0.11076771 0.009326369 -0.02680826
0.0065455036 -0.04382415 0.026760893 0.014182876 -0.0015365381 0.031228712 0.032035124 -0.03554577
-0.005233484 -0.032525852 0.07438295 0.02110135 -0.010550999 0.04666368 -0.051243547 0.021487666
0.009684268 0.010941287 0.006369588 0.043469034 0.0034370306 0.009669519 0.0013750328 0.0702691
-0.040256146 0.016435564 0.011440908 0.057574272 0.00924583 -0.05267089 -0.012153338 -0.019607494
-0.0027191613 -0.07372878 -0.037281323 0.0682066 0.054289747 0.020637613 0.0034044068 -0.023934562
-0.06335888 -0.03734946 -0.027177647 -0.020492934 0.021036137 -0.0059797904 -0.002336257 0.052102122
-0.04010226 -0.010366745 0.027362993 0.0065386514 -0.047865905 -0.045265052 0.05520563 -0.017169178
0.036185376 0.030141104 0.049608 0.019915031 0.03850087 -0.013790936 0.020861553 0.013110336
00000000: e568 e93c e838 833d 1702 a53c 3ab0 863c
00000010: 2554 9c3b 575b 813d c13d f43b cec8 0bbd
00000020: 4c4b 4b3d 7afa 2d3d 981e 193d 4f6d 27bc
00000030: e3a6 933d ac50 f6bc 11d1 76bd a0d1 733d
00000040: c824 6dbd be4e 433d 9865 10bd edfe 24bd
00000050: 3d79 0c3d 258a d7bc 1b5a 953a eb39 14bd
00000060: 6a88 48bd c001 873d 0b33 033d 04ef 49bc
00000070: 49a8 923c 1928 3abd b794 3bbd 8ad8 983b
00000080: ea8f 07bd 2c6b 33bc 54e4 82bd 2253 02bd
00000090: 65fa 86bd 6d7f 193d 9947 133d 9706 00bd
000000a0: bc76 0ebc d564 1a3d 11c6 a43a 4926 a2bc
000000b0: 78d2 0c3d 2eb4 55bd 2c3d 313d f888 393d
000000c0: 1465 debc 479b 103c d5fb 483d 34c1 ee3d
000000d0: fdc4 06bd 36fe 35bb f797 6ebb 5d33 af3c
000000e0: f102 1cbd 6b66 ed3c b5ae 5d3d 26c9 823c
000000f0: 3a60 ce3b d902 903c ab4a 1abc 12ba 313d
00000100: efe5 ccba 21f0 ccbb 6751 0d3d 53d7 1d3d
00000110: 71f0 8d3d de22 2c3c 883d 943d 0c3a d33c
00000120: 3644 39bd 9ef2 3ebd 53f0 69bd 7063 3f3d
00000130: a5a6 04bd 6b43 373d 5e01 0abc a473 1cbd
00000140: 2718 103d a68a 2e3d e5d9 82bd 6216 353c
00000150: 86ef 803d c5de 85bc 73c8 cfbc 932b 573d
00000160: 2b68 54bc 4760 7fbd ff3d a83b 6f8d 43bd
00000170: ac10 b23c 9bcc 803d e161 6f3d 7d5f b93c
00000180: 165c 373d 30f2 4c3d 6abe 373d 135b 233d
00000190: fe02 b8bb 34e9 12bd 9904 6ebd 5fc6 bcbd
000001a0: b9df 0a3d ee5f 62bd 83d2 083d 1631 44bc
000001b0: f8da 8abc e344 503c 8d73 863a de4c fa3c
000001c0: 3f44 e9bc aa79 8abb 12b7 34bd 58b3 52bd
000001d0: df65 18bd adb2 23bd f06a 34bc 3c80 3fbc
000001e0: 246f 9a3d 3776 7c3d 67bd ee3c 7175 8aba
000001f0: 8d70 f3bc b75c 0bbd 256a 3c3d 8f5b 1e3c
00000200: 5cab 023d b806 f6bb 9b36 95bc d60b 713c
00000210: 6836 01bd 04cd d4bc 1f85 6abc 5494 343d
00000220: 22b4 a23b 726a 3c3c aa6a 9f3c cddf 61bc
00000230: 8469 813c 1535 5ebd d6f4 d6bc b990 69bd
00000240: 6d8e 36bd 0d19 93bb bb4d 81bd 2629 ef3d
00000250: 6898 453c 2b36 933d 18c8 88bd 276f b5bc
00000260: 75fd 153d 39e4 5c3d a054 613c 5b40 20bd
00000270: 9f01 4f3d 50fb 73bd 634c dfbc f376 3d3c
00000280: 3cfb 37bd 3773 863d 97f1 adbb 97b2 eabc
00000290: 5616 55bd 57e1 e73c df9b 14bd da75 843d
000002a0: 91ec 433d 9b1c dabc 5de2 9fbc f581 8abc
000002b0: 7735 893b f296 bd3b b468 26bd 6415 883b
000002c0: 4d82 47bd 5d86 45bd 03c5 26ba 18e2 43bd
000002d0: 6371 7e3b 0988 f5bc 73a7 9d3d 85cf 663d
000002e0: 300f e43c d415 b13d 8914 46bc 6cfb 4dbd
000002f0: 0f29 9bbc 2eda e23d a0cd 183c ff9c dbbc
00000300: aa7b d63b f480 33bd a939 db3c 4b5f 683c
00000310: aa65 c9ba 5bd3 ff3c 4337 033d 7198 11bd
00000320: a57d abbb d439 05bd 1756 983d bddc ac3c
00000330: 19de 2cbc 6a22 3f3d c1e4 51bd e706 b03c
00000340: c4aa 1e3c 1543 333c fab7 d03b 960c 323d
00000350: ce3f 613b e76c 1e3c 723a b43a 3fe9 8f3d
00000360: a1e3 24bd e0a3 863c a572 3b3c 00d3 6b3d
00000370: d27b 173c 6ebd 57bd cb1e 47bc e59f a0bc
00000380: f533 32bb 1dff 96bd 4db4 18bd e7af 8b3d
00000390: ed5e 5e3d 3610 a93c 781c 5f3b 6a12 c4bc
000003a0: 4dc2 81bd bffb 18bd a8a3 debc cce0 a7bc
000003b0: fa53 ac3c 1ef2 c3bb e31b 19bb 0969 553d
000003c0: 4442 24bd 48d9 29bc 5b28 e03c 2f42 d63b
000003d0: 0a0f 44bd d967 39bd 4c1f 623d 60a6 8cbc
000003e0: 1e37 143d 7aea f63c c231 4b3d d924 a33c
000003f0: 17b3 1d3d 61f3 61bc d9e5 aa3c bccc 563c

model.4.bias f4 [128]
0.090906665 0.08593046 -0.13018239 0.09858555 0.10170368 0.14612837 0.1630557 0.09460374
-0.08465477 0.10370754 0.15626043 0.14084375 0.0651696 0.12685777 0.11035614 0.12922028
0.09867044 -0.029085048 0.15209468 0.08349158 0.12509142 0.1549653 0.015284787 -0.10049002
-0.03477469 0.08808609 -0.111613445 -0.05703751 -0.015950076 0.14292045 -0.019974533 -0.12068675
0.11848752 -0.11120982 -0.010747 0.013571712 -0.07074284 -0.03124157 0.16421162 0.030750223
0.1418899 0.10237969 0.090874344 0.13271107 -0.0122015 0.094823256 0.0069079814 0.011760077
0.08785113 0.013739412 0.077268034 0.11252141 0.070336625 0.005205568 -0.051165413 0.13028857
-0.0836314 0.08619196 0.084505506 0.077369615 0.123835266 -0.16745313 0.0135828955 -0.06704854
-0.033810847 -0.015543577 0.0058911853 -0.044039812 0.09473657 -0.087160334 -0.08345473 0.14220339
0.119269736 0.1468634 -0.031389106 0.09756869 -0.118434094 -0.104306705 0.10723041 0.12089529
0.113679 -0.016173307 0.09038162 0.0031059782 0.027705166 -0.12094576 0.01462121 0.01301623
0.16084166 0.009913579 0.08904167 -0.13512667 0.13233826 -0.11000606 -0.09888351 -0.12393393
-0.0746093 -0.025564004 -0.05073903 0.047039155 -0.105084255 -0.14293896 -0.08986556 -0.06532585
-0.048067823 0.14023408 0.09236316 0.11974487 -0.10799921 0.11407036 -0.07183817 0.112049446
0.14575322 -0.1329792 -0.010800076 -0.05490877 0.17948812 -0.08398292 0.19747253 0.15378019
0.0015850419 -0.15120612 0.06939398 -0.105351664 0.117211975 0.12543975 0.1307703 0.018089196
00000000: 462d ba3d 4ffc af3d 884e 05be 39e7 c93d
00000010: 054a d03d ada2 153e 13f8 263e 9bbf c13d
00000020: 7b5f adbd 9e64 d43d bc02 203e 5839 103e
00000030: a477 853d 01e7 013e 6602 e23d 5252 043e
00000040: ba13 ca3d c443 eebc b5be 1b3e a2fd aa3d
00000050: f717 003e 39af 1e3e 0b6d 7a3c b6cd cdbd
00000060: e86f 0ebd 7b66 b43d 9795 e4bd 2aa0 69bd
00000070: bca9 82bc bd59 123e a2a1 a3bc 9d2a f7bd
00000080: 96a9 f23d f9c1 e3bd 2f14 30bc e35b 5e3c
00000090: 9fe1 90bd 52ee ffbc 1727 283e e4e7 fb3c
000000a0: 964b 113e 71ac d13d 541c ba3d 69e5 073e
000000b0: cde8 47bc b232 c23d 595c e23b 57ad 403c
000000c0: 4beb b33d 451b 613c b43e 9e3d a071 e63d
000000d0: a60c 903d 7893 aa3b d392 51bd 5e6a 053e
000000e0: f046 abbd 6985 b03d 3911 ad3d f673 9e3d
000000f0: 589d fd3d d578 2bbe cb8a 5e3c bf50 89bd
00000100: 3e7d 0abd 7daa 7ebc d80a c13b 1763 34bd
00000110: 3f05 c23d 1e81 b2bd 50ea aabd c49d 113e
00000120: b143 f43d 5c63 163e dd91 00bd 18d2 c73d
00000130: 938d f2bd c19e d5bd 9e9b db3d f397 f73d
00000140: 89d0 e83d e27d 84bc 001a b93d ab8d 4b3b
00000150: f2f5 e23c 69b2 f7bd cd8d 6f3c 0742 553c
00000160: adb3 243e 906c 223c 7b5b b63d a55e 0abe
00000170: ae83 073e db4a e1bd 7083 cabd 13d1 fdbd
00000180: c3cc 98bd 9a6b d1bc bbd3 4fbd 21ac 403d
00000190: 6a36 d7bd 975e 12be 6f0b b8bd 8fc9 85bd
000001a0: c4e2 44bd 8699 0f3e e528 bd3d cc3c f53d
000001b0: b12e ddbd b99d e93d e41f 93bd 2e7a e53d
000001c0: 5540 153e b32b 08be cdf2 30bc 05e8 60bd
000001d0: bccb 373e 3dff abbd 3d36 4a3e 8e78 1d3e
000001e0: 2ec1 cf3a c7d5 1abe 6e1e 8e3d 9dc2 d7bd
000001f0: d50c f03d 4773 003e a6e8 053e cb2f 943c

model.6.weight f4 [1, 128]
-0.08860177 -0.04792632 0.090655304 -0.01392333 -0.043591313 -0.022334531 -0.1386991 -0.052875135
0.10835515 -0.08771675 -0.12211558 -0.08319179 -0.09349508 -0.07819348 -0.08209445 -0.05347259
-0.120241836 0.07665122 -0.04358526 -0.11669143 -0.067734905 -0.16102204 0.029041188 0.13492228
0.052506775 -0.023367109 0.09937961 0.050569996 0.07273329 -0.016461352 0.074119054 0.046499945
-0.120719686 0.082543656 0.025505023 0.09268052 0.09107942 0.070039 -0.10943274 0.12078523
-0.01812582 -0.05959668 -0.1011886 -0.121515036 0.046572555 -0.08922504 0.04423696 0.017861504
-0.10469262 0.009118372 -0.013003105 -0.10890733 -0.066507526 0.059413973 0.037046857 -0.014281662
0.085225955 -0.12840842 -0.118598565 -0.09433396 -0.10687829 0.05375687 0.04964039 0.12820745
0.034249775 0.09102986 0.04061179 0.036846593 -0.054172657 0.056743007 0.13902518 -0.060590595
-0.11000048 -0.10386679 0.109956995 -0.09684251 0.039336044 0.07011052 -0.09091764 -0.116481915
-0.039609812 0.047916044 -0.11210264 0.09524185 0.07848429 0.06520079 0.04105981 -0.0671087
-0.030642863 0.08267051 -0.013250283 0.08547909 -0.13207923 0.0800971 0.06640354 0.06331507
0.055840395 0.049067907 0.0518973 -0.072139785 0.09738922 0.0771641 0.04248775 0.07944385
0.09375427 -0.12301455 -0.077354215 -0.031088635 0.071846 -0.15325414 0.19383767 -0.06956342
-0.14238651 0.0844796 0.018199643 0.094179824 -0.02945341 0.037400886 -0.04375684 -0.061233893
0.026446827 0.08325503 -0.08967113 0.02969496 -0.062109884 -0.08506779 -0.05319411 0.05006635
00000000: d874 b5bd 644e 44bd 7da9 b93d ae1e 64bc
00000010: ce8c 32bd e8f6 b6bc 2307 0ebe 9993 58bd
00000020: 4ee9 dd3d d7a4 b3bd bc17 fabd 7560 aabd
00000030: 597a bfbd e723 a0bd 2321 a8bd 1306 5bbd
00000040: 5a41 f6bd 51fb 9c3d 7586 32bd ebfb eebd
00000050: 99b8 8abd f6e2 24be c9e7 ed3c 1129 0a3e
00000060: 5811 573d 616c bfbc 8987 cb3d 7c22 4f3d
00000070: 31f5 943d f5d9 86bc bbcb 973d ba76 3e3d
00000080: e23b f7bd a60c a93d e9ef d03c 49cf bd3d
00000090: d987 ba3d 9b70 8f3d 461e e0bd 3f5e f73d
000000a0: 9a7c 94bc a61b 74bd f83b cfbd e0dc f8bd
000000b0: ddc2 3e3d 9ebb b6bd d131 353d 4a52 923c
000000c0: 1669 d6bd 3965 153c fa0a 55bc ce0a dfbd
000000d0: 1935 88bd 115c 733d 72be 173d a2fd 69bc
000000e0: f28a ae3d 7f7d 03be cee3 f2bd 2a32 c1bd
000000f0: 01e3 dabd 2a30 5c3d b953 4b3d d048 033e
00000100: 7e49 0c3d dd6d ba3d 8c58 263d 74ec 163d
00000110: 26e4 5dbd 5b6b 683d 9e5c 0e3e d82d 78bd
00000120: ef47 e1bd 1db8 d4bd 2231 e13d 5e55 c6bd
00000130: d51e 213d 1b96 8f3d 0733 babd 128e eebd
00000140: e63d 22bd 9d43 443d 1296 e5bd 290e c33d
00000150: 5fbc a03d fe87 853d 552e 283d 4970 89bd
00000160: be06 fbbc 284f a93d b717 59bc a90f af3d
00000170: c73f 07be f309 a43d 94fe 873d 55ab 813d
00000180: e6b8 643d 6efb 483d 4392 543d 06be 93bd
00000190: 0074 c73d 3608 9e3d a307 2e3d 75b3 a23d
000001a0: 3d02 c03d 0def fbbd e36b 9ebd 98ad febc
000001b0: ff23 933d a7ee 1cbe 627d 463e 4477 8ebd
000001c0: c5cd 11be a403 ad3d 6b17 953c 5ae1 c03d
000001d0: 4748 f1bc ac31 193d 5f3a 33bd 64d0 7abd
000001e0: 04a7 d83c 9d81 aa3d 7fa5 b7bd d842 f33c
000001f0: ef66 7ebd 0538 aebd 11e2 59bd 5f12 4d3d
