models/discriminator_epoch_6.pth (torch, 951720 bytes, 7 tensors)

model.0.weight f4 [512, 141]
00000000: ac52 28bc d6f6 45bc f6dc 1f3d 1811 bfbd
00000010: b34b 90bd d488 943d 6885 bfbc 3c18 4d3d
00000020: 029c 12bd b327 7bbd 8b29 8cbd 0347 a33d
00000030: 93b1 91bd 242c dfbd 8382 84bd 3a33 75bd
00000040: a1ff d1bd 5d1c b63d 27c8 c73d bfef a33c
00000050: effc 26bd b19b 913d 73d8 b93c 7b5d dcbc
00000060: b034 89bd 7538 813d fbea 633d 4582 4e3d
00000070: 04c3 72bd 6002 8fbc 240e 8ebd f217 703d
00000080: df48 21bd e2a1 53bd ac67 5b3d e3bc b63d
00000090: 9453 ca3d 565e 45bd 742b 5d3d af2d 86bd
000000a0: 5f07 513d 80a8 533d 5344 a1bc 579c 463d
000000b0: 8553 26bd 3d43 e4bd 23b0 02be f783 17bd
000000c0: 6d92 1fbd 5b74 43bd 9875 93bd 12e4 a8bd
000000d0: df38 a53d 4a8b 3bbd 3eda cc3c f485 98bd
000000e0: bb1b 313c 1304 3f3d 29f9 c5bd fb63 073d
000000f0: 3854 8fbc 1295 a33d 54f7 bfbd 4f62 3dbc
00000100: c1a6 973d 6b66 56bc 6997 013d 5ed5 a2bd
00000110: c44d 4fbd 1bc0 da3c 0456 b63d eba8 afbc
00000120: 1ddd 7ebb a4e6 693d 3d7e 053d ded1 b13c
00000130: 4390 85bd dd22 593d 0f25 ab3d 10a1 72bd
00000140: 3996 4a3d 3f4c 35bc 72b7 573d 5875 503c
00000150: c926 993d 905e dfbd 6a18 563c d1d0 39bd
00000160: 4439 bb3c 080e 34bd 3797 14bc 0763 9d3d
00000170: 76e4 91bd 0bdd bdbd d435 c43c 0c04 1f3d
00000180: dc7d ed3a 9779 80bd 2e98 673c 5673 943d
00000190: 10af 0dbd 7331 b9bd c7e0 dc3c da3c 60bd
000001a0: 4a95 8cbd 43ad 50bd b182 11be 700c b1bd
000001b0: ab6c 5f3d f868 ac3c 05d7 39bd 7040 373d
000001c0: 71f2 dcbb a2dd 9b3d aded 91bd 5415 99bd
000001d0: 36e4 7739 6089 7dbd 4065 a6bd a9c4 27bd
000001e0: d51d e13d 86f1 51bc 4f9a cebd 54c6 6a3c
000001f0: 6aad 28bd ce4d 893d 97b8 acbc f1d4 82bd
00000200: 32f6 8d3d 9d90 d1ba ba29 91bd 45a5 ec3d
00000210: 5eb2 013d b0bf b5bd b9bd ecbd 7a27 143a
00000220: c000 dd3c 096c a7bc d5b1 9cbc 7b0d 903d
00000230: 6fac a9bc 1cb4 483d cfdf aa3a ac23 13bd
00000240: 7432 343c 9f52 a53c 0116 ca3c 18f0 c13b
00000250: 4c5a bbbc 924e 753c 25b8 393d 3a33 06bd
00000260: 4e12 8b3c 23d4 d73a aa18 4f3d 7867 6c3d
00000270: 8917 f13c d8ca d43c fa53 123d 138d 49bd
00000280: cdd5 eebb f051 403d 2d51 6f3c c58a 1abd
00000290: 3c17 3a3d 1ef0 7ebd d0ed 2f3b 6dda e1bb
000002a0: 1002 843d cdb1 88bd 2bbc 67bd 0423 c6bb
000002b0: fc61 2f3d 9f8b 87bd 11f0 763a 51ba 073b
000002c0: 7cbd 9838 1c82 f13c a4d4 29bd eb57 54bd
000002d0: d753 d13c ac71 743d 8502 4fbb cdc6 7fbc
000002e0: 3ac0 9f3b ab74 b43c db11 edbb 151e dabc
000002f0: 628e 4c3d f105 0cbd f936 1f3d c0b1 db3c
00000300: 28e7 a0bd 1e0b 6c3d facc 133d 3380 cfbc
00000310: dd89 5c3c df63 54bd 438d 1dbd 1bd0 703c
00000320: 9485 2f3d 04d9 06bd 29aa 58bd c63d 47bd
00000330: 4033 46bd d7d1 8d3d 153d 89bb 67e3 6c3d
00000340: 6788 cebc b9d2 dfbc 3de5 abbc 3072 bdbc
00000350: 58b3 503d b7bc 4dbd d446 6fbc 047a 8ebc
00000360: 385b 26bd 68d8 c2bd aea0 443d 406f f73b
00000370: ecc2 a7bc ade4 3dbd 5082 713a 9118 2a3d
00000380: 0be8 1d3d 761b 023c 2857 87bc 24a8 353d
00000390: f1a0 fabc a62d e7bc 9056 80bd 6da4 37bc
000003a0: 6371 7b3d f3bc f83c 6b49 3d3d d471 f53c
000003b0: 1822 bdbc f91e 2d3d 7abf 06bb bdea 703c
000003c0: fda5 e4bc 6b70 92bd e9ad 31bd e9bd 7d3d
000003d0: bae3 5bbd c89f 7c3d c497 0f3d e6b0 0f3c
000003e0: ed99 2ebb 3535 96bc d975 47bd 0655 29bc
000003f0: c88f 3a3c 40cc 19bc 7649 58bd 88b1 013d
-0.010273617 -0.012082776 0.039029084 -0.09329432 -0.070456885 0.072526604 -0.023379043 0.05007194
-0.035793312 -0.061317157 -0.06843861 0.07972529 -0.07113948 -0.10897091 -0.06470206 -0.059863307
-0.102538355 0.088921286 0.09754973 0.02001178 -0.04076856 0.07109774 0.022686219 -0.026900044
-0.066995025 0.063095964 0.055644017 0.050417203 -0.059268013 -0.017457187 -0.06936291 0.058616586
-0.039376136 -0.051668055 0.053565666 0.08922746 0.098792225 -0.04818567 0.05399652 -0.06551682
0.05103242 0.051674366 -0.0196859 0.04848894 -0.040606994 -0.11145637 -0.12762503 -0.036991086
-0.038958002 -0.047718387 -0.072001636 -0.08246626 0.08067488 -0.045787133 0.02500641 -0.074474245
0.010809834 0.046634745 -0.09666664 0.033054333 -0.017496213 0.07987417 -0.09373346 -0.011559083
0.07404853 -0.013085942 0.031638537 -0.07950853 -0.050611272 0.026702931 0.08903125 -0.021442851
-0.0038889118 0.05710472 0.032591093 0.021706518 -0.06521656 0.053011764 0.08356678 -0.059235632
0.04945967 -0.011065542 0.05266518 0.012723289 0.07478101 -0.10906708 0.013067344 -0.04536516
0.022854455 -0.043958694 -0.009069256 0.076849036 -0.071236536 -0.09270676 0.023951449 0.03882222
0.0018119174 -0.062731914 0.014135404 0.07248561 -0.03459078 -0.09042635 0.026962651 -0.054745533
-0.06864412 -0.050946485 -0.14210011 -0.086449504 0.054546993 0.021046147 -0.045371074 0.044739187
-0.0067427685 0.076106325 -0.07125411 -0.07474771 0.00023640771 -0.06189859 -0.08124781 -0.040959034
0.10992018 -0.012813931 -0.10088026 0.014329512 -0.041181006 0.06704293 -0.021084113 -0.063882716
0.06931724 -0.0015988533 -0.07088037 0.1155496 0.031664245 -0.08874452 -0.11559624 0.00056516344
0.026977897 -0.020437257 -0.019127766 0.07033821 -0.020712106 0.04899989 0.0013036671 -0.03592269
0.010998357 0.020180998 0.024668695 0.005918514 -0.022870205 0.014972346 0.04534163 -0.032763697
0.016976502 0.001646642 0.05056063 0.057715863 0.029430168 0.02597563 0.035724618 -0.049206804
-0.0072886706 0.04695314 0.014606756 -0.037729997 0.045432314 -0.062240712 0.0026844628 -0.0068924935
0.06445706 -0.06674538 -0.056575935 -0.0060466547 0.042818055 -0.066184275 0.0009419928 0.0020710418
7.283219e-05 0.029480986 -0.041462556 -0.051841658 0.025552673 0.05967872 -0.0031587195 -0.015611363
0.00487521 0.022028288 -0.0072347946 -0.026625672 0.049940474 -0.034185354 0.038870785 0.026818156
-0.078565896 0.05762779 0.036084153 -0.025329685 0.013460604 -0.051853057 -0.038464796 0.014698054
0.042852 -0.032921806 -0.052896652 -0.048642896 -0.04838872 0.069247894 -0.0041881897 0.057834055
-0.025211526 -0.02732216 -0.020983333 -0.023125738 0.050952286 -0.0502288 -0.014604289 -0.017392166
-0.040614337 -0.095139325 0.0480048 0.007551104 -0.020478688 -0.04636066 0.00092128385 0.041527335
0.03855137 0.0079411175 -0.016521052 0.044349805 -0.030594321 -0.028220009 -0.062665105 -0.011208636
0.06138743 0.030363536 0.046212595 0.029961504 -0.023087546 0.042265866 -0.0020560906 0.0147044035
-0.02791118 -0.07150348 -0.043378744 0.06194869 -0.053683974 0.061675817 0.035056844 0.008770203
-0.002664204 -0.018335918 -0.048696373 -0.010335213 0.011386819 -0.009387076 -0.052804433 0.031663448

model.0.bias f4 [512]
00000000: 15db 0d3e 3439 50be e86f 283d 3d66 1fbe
00000010: 46ed 133e 82e8 d7bc 5e30 853e b039 623e
00000020: 5417 5bbe 41e8 29be a8d5 51be 8233 373d
00000030: 4c2f 4dbe db07 81be e1fa 633e 8298 8a3d
00000040: df87 263e eadb 143e 551d f7bc 07bc b6bd
00000050: e769 65be 2c66 05be dd7d aebd 1cc7 c43d
00000060: 40fb bebd 7cc3 033e 2abd 463e 07dd 3abe
00000070: 3ff7 49be 3256 363d 8bab 24be c492 453e
00000080: 9bd9 313d 30ab 493e a895 d53d 9d05 373d
00000090: e6d9 5f3d 745e 2e3e 4fca 4f3e 9e77 27be
000000a0: 713c 3fbe 75c8 cd3d 6c3f 4bbe ecd7 823d
000000b0: fa50 30be dee2 d53d 3e05 e0bd 1606 6f3e
000000c0: 2466 2ebe 447a 7fbd fd73 e33d ef9e 33be
000000d0: 60bd 76be 7532 51be 733e 37be c0f4 973d
000000e0: 4f5f 75be 9934 503e 9780 013e 0900 ddbd
000000f0: 510c cc3d 3701 d43d 38b2 f6bd 184a 1abe
00000100: 3665 45be 1c8e 103e fa0b 4dbe 689b 1e3e
00000110: c488 ff3d ece8 3d3c f63c 4cbe 9c07 17be
00000120: 5bc1 3b3b 8c4b 4d3e 05e7 f93d 23c9 41be
00000130: 6584 c9bd ec89 19be deea 153e 75cb a3bb
00000140: 997c 253e e0ac 753e ca82 fabd 04ff 7f3e
00000150: e871 06be e933 cbbb 291e 2a3e a93f 433e
00000160: 2261 3e3e e293 593e 7c28 4ebd 16c4 a83e
00000170: 5404 543e ef80 cb3d 1004 57be 0292 2bbe
00000180: 0dea 74be addd c3bd a144 57bd 9fc4 33be
00000190: 4425 c73d f98d 6939 33df 463e 155b 443e
000001a0: 0d35 dbbc d371 48be 7d3d 46be 5bc0 443e
000001b0: 8931 5d3e ebaa 6f3e 5117 073e 2ed6 77be
000001c0: 8341 26be 6d28 db3d 639b 523e d13f 69be
000001d0: 7f3e 31be 60fc 233e b8bc 34be 4717 1c3e
000001e0: 88da 4d3e a7a7 e5bc 887b 5b3e 047b 65be
000001f0: 74fe 14be 2bc2 2e3e 57ea 3bbd ec91 8fbd
00000200: f7f7 3d3e 8b53 05be c3b1 88bd ed0f 62be
00000210: dc56 1fbe 09b4 45be 745d 623c 7365 5dbe
00000220: a79d 2dbd 5633 163e b07f 8abd 47b8 b63d
00000230: e252 4f3e 2ede 93bd e1ef 11bd af1d 26be
00000240: 5f21 a5bd c19c a63d ac51 45be 1193 34be
00000250: 15d3 c3bd 6e92 d3bd 7848 49be 1d73 f1bd
00000260: 2808 0e3e 8ec3 c3bd dcd2 4abe cc88 523e
00000270: 18af 853e 8f28 293d 3903 513e ede8 543e
00000280: 4c3e 41bd e7dc 3c3e 5ec6 46be ae8a 54be
00000290: 55cd 97bd b628 083e f5ce 103e 976b 12be
000002a0: eac8 633e bf53 113e d845 4abe c1c9 3c3e
000002b0: 82a0 b9bd 6c78 28be 04e7 1bbe 47be 403e
000002c0: 3923 71be efa2 19be d5ad 8e3d 3d64 f23d
000002d0: e753 3d3e dbb8 1e3e 5fd6 5ebe 0359 6b3e
000002e0: 5085 7b3e e4b9 0cbe 23b0 d73d 19c3 543e
000002f0: 7241 c33d f8a5 5e3e a0eb 413e fc4b b9bd
00000300: f163 073e 88ff 363e 2c9e 5dbe dc4b 36be
00000310: a7af 02be c2c8 72be 78bf 47be b08e 76be
00000320: 876c 1f3d 35e5 233e 238d 2ebe 2dd3 783e
00000330: 6eb0 333e 3974 1c3e 2ca3 28be 1ed1 523e
00000340: 232a 9c3d 68d2 cbbd 08c9 923e 6799 b6bd
00000350: db40 13be cbcc 543e 603c d03d 7b90 40be
00000360: 7521 3e3e 60f2 cc3d 4f2b 16be dbe6 b13d
00000370: 3dbc dcbd 563b 703e 9036 093e 18cb 193e
00000380: d4b1 f5bd e56b 283e 8d2a 333e 8c25 123c
00000390: 6ae4 333e f840 14be 7d88 fc3d c28f 883c
000003a0: 39fa 703e 2bc9 4abe 941c cb3d acd4 00be
000003b0: 552f 76be 4820 1a3e 407f 09be 0999 0cbe
000003c0: b90f e13d ad64 04be a12b 323e e962 3cbe
000003d0: ee1c 173e 0e00 b73c 0b40 ae3d a32c c1bd
000003e0: 0587 0bbe b7b8 65be 23c8 17be 539d babd
000003f0: f40a 77be 8ae2 a2bd ba3e 343e 8c87 8f3e
0.13853104 -0.20334321 0.041122347 -0.15566345 0.14445981 -0.026355986 0.26013464 0.22092319
-0.21395618 -0.16592504 -0.2049166 0.044726856 -0.20037574 -0.25201306 0.22263671 0.0676737
0.16262768 0.14537016 -0.030165354 -0.08922582 -0.2240368 -0.13027257 -0.085201 0.096082896
-0.09325266 0.1286754 0.19408098 -0.18248378 -0.19723223 0.044515796 -0.16081063 0.19294268
0.043420415 0.19694209 0.10428935 0.044683088 0.054651164 0.17028219 0.20292018 -0.16354224
-0.186754 0.10048 -0.19848412 0.0638884 -0.1721839 0.10443662 -0.109385 0.23342165
-0.17031151 -0.06237246 0.111061074 -0.17541097 -0.24095678 -0.20429404 -0.17894916 0.07419729
-0.23962139 0.20332564 0.1264671 -0.10791022 0.09963287 0.10351794 -0.12045711 -0.15067327
-0.1927689 0.1411671 -0.200241 0.1548897 0.12477258 0.011591177 -0.1994513 -0.14748996
0.0028649184 0.2004835 0.122022666 -0.18924384 -0.098397054 -0.1499402 0.14640376 -0.004998619
0.16160811 0.23991728 -0.12231977 0.24999624 -0.1312939 -0.0062012565 0.16613068 0.19067253
0.1859174 0.21247819 -0.050331578 0.32962102 0.20704776 0.099367015 -0.20997643 -0.16754916
-0.23917408 -0.09563766 -0.052555684 -0.17555474 0.09723905 0.000222735 0.19421081 0.1917537
-0.026758695 -0.1957467 -0.19359393 0.19214003 0.21600927 0.23405044 0.13192488 -0.24202797
-0.16235928 0.1070107 0.20567088 -0.2277825 -0.17308997 0.16014242 -0.17650115 0.15243255
0.20102894 -0.028034044 0.21433842 -0.22410208 -0.14550191 0.17066257 -0.04587778 -0.07010254
0.18551622 -0.1302015 -0.0667453 -0.22076388 -0.15560478 -0.19306959 0.013816226 -0.21620731
-0.042386677 0.1466802 -0.06762636 0.08921867 0.20246461 -0.07220112 -0.035629157 -0.16222261
-0.08063006 0.08135367 -0.19269437 -0.17634226 -0.09561745 -0.103306636 -0.19656551 -0.11789534
0.13870299 -0.095587835 -0.19806999 0.20559996 0.26110148 0.041298445 0.20411386 0.20791979
-0.04717855 0.18443643 -0.19411609 -0.20756027 -0.07412211 0.1329678 0.14141448 -0.14298855
0.22244611 0.14192103 -0.19753206 0.18436338 -0.090638176 -0.16452187 -0.15224844 0.18822585
-0.23548593 -0.1500356 0.069667496 0.11835525 0.18489037 0.15500204 -0.21761464 0.22983174
0.24562573 -0.13742787 0.10531642 0.20777549 0.09533967 0.21743 0.1893754 -0.09047696
0.13221718 0.17870915 -0.21642369 -0.17802376 -0.12762319 -0.23709396 -0.19506633 -0.24077868
0.03892186 0.16005404 -0.17046027 0.24299307 0.17547771 0.1527871 -0.16468495 0.20587584
0.076252244 -0.09952241 0.28669 -0.08915978 -0.14380209 0.20781247 0.101677656 -0.18805115
0.1856745 0.10007167 -0.14664958 0.0868661 -0.10778091 0.23460135 0.1339972 0.1501888
-0.11996809 0.16447408 0.174967 0.008920085 0.17567602 -0.14477909 0.123307206 0.016670112
0.23532952 -0.19803302 0.0991756 -0.12581128 -0.24041493 0.15051377 -0.13427448 -0.13730253
0.10989327 -0.1292903 0.17399456 -0.18397106 0.1475713 0.022338893 0.08508309 -0.09432342
-0.13625725 -0.22433744 -0.1482244 -0.091120385 -0.24125272 -0.07953365 0.17602053 0.28033102

model.2.weight f4 [256, 512]
00000000: a36a 083d 7cc7 89bc 6807 963c 12d5 273c
00000010: 1dbe 923a d690 cdbb cba3 3e3d 0f3d 053e
00000020: cd33 62bd b298 5bbd dd9c d2bc 38ad 493d
00000030: 22e8 b43c 6fb1 3dbd 79bf 863d 6549 433d
00000040: 07fd e43c a77a 223d 7632 48bc e22f 05bc
00000050: 485d 18bd 5ee3 e1bc 68de 8dbc 4d51 dd3c
00000060: 4146 e23c f1a8 47bc 92fa 843c 954d 7abd
00000070: cde8 ffbb 5b21 8c3c 562b d63b 84d4 5abc
00000080: dbd8 0b3d f4cf 4dbc db8a 13bc 6166 3c3d
00000090: 3e7a e93c 9a0e 563d beae 753d 5e2f 40bd
000000a0: a3b2 47bd 24cb b03a ec6e 34bc c7a1 753d
000000b0: 2fcd 56bd db86 873c cf30 d1bc 6ead db3c
000000c0: 279b 0eb8 6417 8fbc d008 4d3c 2a6a 44bd
000000d0: 9a68 69bd c240 89bd f234 13bd 7fed 233d
000000e0: 30d0 8abc 644b 093d a690 51bb 1a96 b7bc
000000f0: 9bfd 183d bf1a 8ebc ab6f da3b bfee dc3c
00000100: 80d5 10bc b78d 1b3d 50f1 47bd 9ba2 1e3d
00000110: 1897 a23d f8a3 b53b f49e 37bd 5952 4e3c
00000120: b664 923d 9cf7 ed3b f03a 363d bf18 70bd
00000130: c592 b73c 1e50 e3bc d808 78bc b191 903c
00000140: 1baf e73c 39f4 bb3d 9e23 1fbd 00ed 923d
00000150: c9cb 463c 8fe0 27bc e675 533d 0638 173d
00000160: 438b b53c 4fc2 563d b6b2 e0bc b63f ef3d
00000170: b89b d83c 2609 283d ce04 4dbc 6e76 de3b
00000180: 60bc 69bb a8f3 f1bc 1586 09bd b313 98bd
00000190: 19e1 183c 380e 5b3c 6399 813c 7f4a 6e3d
000001a0: d192 ef3c 0728 dabc a56e 203c 8d45 8a3d
000001b0: 5a7b 2bbc 5a5b a7bc 0c6e d63b ff1b 93bd
000001c0: a240 efbc 2cfe 043b b115 653c 9131 303c
000001d0: 12dc 183c 73d9 0e3c d6e8 4fba 210d b73c
000001e0: df4c 213d 54cd 333d b6ae 363c 1bb9 a2bc
000001f0: 788c 543c 03fe bd3c 4734 da3c 06cd 1e3b
00000200: c74c f03c 9694 4e3c 8656 12bd d41e 92bd
00000210: 106e 75bd 3e7a 31bd 6ff2 fb3c 4bc8 7cbd
00000220: 2b8e ed3c 05cc d4ba c418 e2bc be5e a5bb
00000230: 4839 443c 35e6 6bbc ab75 0cbc 77e6 6ebb
00000240: c686 e9bc d485 113d 0efa 76bd 0412 e9bb
00000250: 3d69 db3c 6a1c 283d cd07 3a3b 7581 2abb
00000260: 0c4a b03c 70ca 52bc afcb 983c fd11 0bbd
00000270: 7ef9 7a3d 5e8b 963c 3c73 2f3d 7e7d 533d
00000280: a370 fbbc da04 da3c a68f 973c ba53 b93b
00000290: 1bab ea3c 6e0f 243d 601e 8e3d 810d b9b9
000002a0: 1bfb 073d bad5 9f3b 6dcf 29bd c32e 2f3d
000002b0: aa22 28bd 2871 673c 4680 69bc dbe3 93bb
000002c0: 6007 85bd 84c8 7ebc 9b71 cb3c 9ca6 023d
000002d0: d0fc 1f3c 888d b23c 20e2 13bd 2cbd 98bb
000002e0: b2f3 b63d 738a e3bb 5853 efba 7852 d43b
000002f0: 5e38 60bb e939 db3c f9b9 b23c 1e80 cabc
00000300: 14f2 4bbc e041 b1bb 5f79 79bd ceea 54bd
00000310: f574 b1bc 6189 b4bd d769 53bd 1363 39bd
00000320: 696b 6bbc 2192 883d d4c9 863c fd46 6a3d
00000330: 29ef 323d 3d3e 8a3c a27d f9bc 189c 623d
00000340: c3b8 2d3d 3586 1ebd 9651 043e 2394 05bd
00000350: ecda 1ebd 3d04 923d 1aa7 87bc 58b9 39bc
00000360: 0f03 313c fac8 8a3d 5b26 b43c 3a57 eebc
00000370: 69be 5a3b 7623 c63d 771f ccbb e800 083d
00000380: 2a88 5bbc 5ad5 d13c 681b 913d 3955 c8bc
00000390: 808e 0c3d 6ffc 233c 28ca 5a3d ec60 1fbd
000003a0: a9b4 543b 5ae4 2fbd 8728 db3c 88b2 0abc
000003b0: 0967 2bbd fc81 6f3d e944 47bc 73a4 d3bc
000003c0: 1f8d 163d a8fc 36bd c1be 113d 94fd 8abd
000003d0: 9d49 28bc f56d 5e3d 34b7 34bc 3d6a a8bc
000003e0: cfbd 033d 19d7 e63c 7716 643c 7632 89bc
000003f0: dc4c 9bbd e89a abbc 929a b3bc 2b25 013e
0.03330482 -0.016818754 0.018314078 0.010243671 0.0011195574 -0.0062733693 0.046542924 0.13011573
-0.055225182 -0.05361242 -0.025709564 0.04923746 0.022083346 -0.046311792 0.06579489 0.047677416
0.027952684 0.03966775 -0.012219062 -0.008129092 -0.037198335 -0.027574237 -0.017317966 0.027016306
0.02762139 -0.012186275 0.016232762 -0.061109144 -0.0078097344 0.017105749 0.0065359278 -0.013356332
0.034142356 -0.012561787 -0.009005274 0.045996074 0.028500672 0.05226002 0.0599811 -0.046920173
-0.048754346 0.0013488275 -0.011012774 0.059968736 -0.052441772 0.016543796 -0.025535969 0.026816096
-3.3999935e-05 -0.017467208 0.012514308 -0.04795281 -0.05698452 -0.06701805 -0.035939164 0.040021416
-0.016944975 0.033519164 -0.0031977086 -0.022410441 0.037351232 -0.017346738 0.006666144 0.026969312
-0.008839965 0.037976947 -0.048814118 0.03872929 0.07938975 0.0055432282 -0.044829324 0.012592875
0.07148115 0.0072621834 0.0444898 -0.05861735 0.022408852 -0.027748164 -0.015138827 0.017647596
0.028281739 0.09177441 -0.038852327 0.071741104 0.012133547 -0.01024641 0.05162611 0.036918662
0.022161132 0.0524314 -0.027428966 0.11682074 0.02644144 0.04102435 -0.012513353 0.0067890203
-0.0035665259 -0.02953513 -0.033575136 -0.07425632 0.009331011 0.013370089 0.01582021 0.058176514
0.029244812 -0.026630415 0.009792005 0.06751547 -0.010466421 -0.020429302 0.0065438803 -0.07183074
-0.029205624 0.00202931 0.013982222 0.010754005 0.009329813 0.008718836 -0.00079311186 0.022345128
0.03937995 0.043896988 0.011150053 -0.019863656 0.0129729435 0.023192411 0.026636256 0.002423109
0.029333485 0.012608668 -0.035727046 -0.07134786 -0.059919417 -0.04332947 0.03075525 -0.06171445
0.028998455 -0.0016235119 -0.0275997 -0.0050466945 0.011976548 -0.014398147 -0.008572976 -0.0036453286
-0.028506648 0.03552802 -0.060297064 -0.0071127433 0.02678358 0.041042723 0.0028385997 -0.0026017104
0.021519683 -0.012865648 0.018651811 -0.0339527 0.06127309 0.018377002 0.042834505 0.05163335
-0.030693358 0.026613642 0.018501114 0.005655733 0.028646043 0.040053777 0.06939387 -0.0003529601
0.033198457 0.004877773 -0.041457582 0.042769205 -0.041048683 0.0141261 -0.014251774 -0.0045132465
-0.06495547 -0.015550736 0.024834445 0.031897172 0.009764865 0.021796003 -0.03610432 -0.004661223
0.089332 -0.0069439947 -0.0018259091 0.0064795576 -0.0034213285 0.026761012 0.021817194 -0.024719294
-0.012447853 -0.0054094642 -0.060906764 -0.05198174 -0.021662215 -0.088152654 -0.05161461 -0.0452605
-0.01436887 0.06668497 0.016453661 0.057196606 0.043685112 0.01687538 -0.030455414 0.055324644
0.04241253 -0.03870221 0.12921748 -0.032611977 -0.038783 0.07129715 -0.016559172 -0.011335693
0.010803952 0.067766145 0.021990946 -0.029094327 0.0033377653 0.096747324 -0.006229337 0.03320399
-0.013399163 0.02561443 0.070853055 -0.0244547 0.034315586 0.010008915 0.053415447 -0.03891079
0.0032456315 -0.042942382 0.026752723 -0.008465417 -0.04184631 0.058473572 -0.012162426 -0.025835251
0.036755677 -0.044674546 0.035582308 -0.067866474 -0.010271457 0.054304082 -0.011030007 -0.02055847
0.032163437 0.028178738 0.013921372 -0.016747694 -0.07583019 -0.020947888 -0.02192429 0.12611835

model.2.bias f4 [256]
00000000: 7d81 443e 9a40 3b3e d57d 23bd a7c1 e4bc
00000010: 2af6 8e3c 451c cb3d b27e 163e 6f92 bbbd
00000020: 4a22 1d3e bafe df3d 5d9b 043e 2a7e c9bd
00000030: f1c7 343e 7ef5 c7bd ee2a 08be a7c5 40bc
00000040: 33c1 d8bd bd1d 253d 852f 0cbe 72a9 f6bd
00000050: 0caa 19be 207b 2fbd 3512 0e3e 93cc 21be
00000060: 4923 96bd ccb2 563e 8f16 f33d 59b3 283e
00000070: 5712 d9bd e4a0 50be af76 283d b36c 3c3e
00000080: c8a3 be3c 8642 afbd 4336 b63b 16b2 11be
00000090: 90d0 d5bd d407 a63d 3500 94bd c01d 1bbd
000000a0: 5c4a d0bd 6ddd 05be d770 38be ccb2 b53b
000000b0: 6c9d 023e 0873 eabc 34b2 02be 11f8 97bd
000000c0: f4d4 c13d becc c73d 5119 6ebc 86c0 383e
000000d0: a61c f7bd 75bd cc3c 1f09 1a3e 0e27 193e
000000e0: 00a1 32bd 8c7c 083e 3fbb f6bd 5135 253e
000000f0: 517b 383c 7d4f 1a3e 091d 683d 4508 9dbb
00000100: 614a 1abe 3938 b5bd e143 0b3e f0ec ac3d
00000110: e703 4abd 6ab6 aabd 441d 043e b4fb 78bd
00000120: acc8 afbc 3243 213e a72a 243e 463a ea3d
00000130: 9a82 b3bd 1e76 203e 6a12 e23d 7761 e63d
00000140: b45c 42bd 4951 503e 2ef8 97bd 7d70 153e
00000150: 8cbd 063e 8dd9 77bc f2f6 153e 1b32 6fbd
00000160: 74c0 77bd 482b dbbd 1214 ccbd ac65 dabd
00000170: 7efb e8bc 3375 f53d 3dfe 103e 4510 debb
00000180: 181a b23b fd22 bdbd f102 05be b63b 503e
00000190: ca9b 093e c497 c43d 62d3 db3b 3eda 21be
000001a0: 1ef2 213e 2dde c7bd d391 373e e8c5 b93d
000001b0: 9fd2 9fbd 7b4a 003e 3096 15be 6c96 dfbd
000001c0: 13f7 3fbe 1a1a 293c 1078 a43d 8b44 c6bd
000001d0: 2020 133d 0e0a a93b 760e a3bd 2846 213e
000001e0: ca9d 2d3e 9265 3a3e e797 98bd ef58 873d
000001f0: 9e64 2cbe f47b 2a3e bf82 ff3d c132 22be
00000200: 4a75 a7bd fe7c f6bd 1a9d cebd 01d5 343e
00000210: f0c3 f53d 1d9b 2dbe e163 163e 2bd7 f63d
00000220: 81d6 dfbd e653 d4bd 724a 623c 42e4 21be
00000230: 34a4 673e ce19 49be c7f9 16be 6f6e 583b
00000240: b25a 54bd df14 0bbe e574 a5bd 3488 5b3e
00000250: a1dd 603d 7fd3 293e 7721 2fbe 9b01 31be
00000260: e485 ff3d 98ac 11be 4690 113e 36b8 3bbd
00000270: 3d30 c03d 4486 04be 8b98 65bd 362d 193e
00000280: 5214 40bd ab38 2a3e df07 d53d 2aef 9d3d
00000290: bade 16be daf4 203e e9d8 fb3d 3182 0a3e
000002a0: f6f8 29be dc75 8cbd 762c a03d b9a3 fbbd
000002b0: 7772 2e3e 25b7 853d c47d 243e 7737 fd3c
000002c0: 54df 9f3d fd8a ddbd 744e 3c3e cde8 2dbe
000002d0: 6991 353e b864 e5bd 6611 303e c687 e73d
000002e0: 9699 1b3e b99b 3b3e bb73 fe3d ac9a 2f3e
000002f0: 65b9 9abd 92dc 533e 828d 0e3e 5d98 4f3e
00000300: aa1d 27be 5de6 03be 5631 6fbc 9aca 9b3d
00000310: e622 60bd f3fc 533e b517 0cbe 249a 1abe
00000320: 66ff 3ebe 67ee 1cbc c815 433e b3e4 00be
00000330: 6ecf bebd 846e 8dbd a8f1 bfbd 1b24 333e
00000340: b952 06be 5684 143e a6eb 173e 6752 063e
00000350: c7b3 513e b756 e03d 2d8b 323e bbcc beba
00000360: 2687 2abe 06b0 09be 5cdf 00be d6af ad3d
00000370: 26c9 86bd 3bc7 0abe affe ca3d 7a46 babd
00000380: 958a febd 96ab aabd 0d64 023d 8389 053e
00000390: d488 4e3e 4d84 96bd 6d1f ef3d 1052 ee3d
000003a0: 4a57 e43d 7bca 4bbd 2ac5 9dbd 578e 17be
000003b0: aaab 8fbd 67d8 8bbd 0581 0d3e 2f2e a9bd
000003c0: cbf6 f1bc 5516 14bb 6428 303e 80a7 bc3d
000003d0: 3b52 d9bd dc27 d4bd efa2 273e 7d20 033e
000003e0: e2c1 8dbc da66 963c 7fe0 4f3d e12a 6e3d
000003f0: ea22 b73d 94b2 17be 377c a4bd b12c f63d
0.19190021 0.18286362 -0.039914925 -0.027924372 0.017451365 0.09917501 0.14696768 -0.09158789
0.15345111 0.10937257 0.12949891 -0.09838517 0.17654397 -0.09763621 -0.13297626 -0.011765874
-0.10583725 0.040311564 -0.13690002 -0.12044038 -0.15006274 -0.04284203 0.13874133 -0.15800695
-0.07330949 0.20966643 0.11869537 0.16474666 -0.10599201 -0.20373875 0.04112881 0.1840084
0.023271456 -0.0855761 0.0055606677 -0.1422809 -0.10440171 0.08106962 -0.07226602 -0.03787017
-0.10170433 -0.13072748 -0.18011795 0.005544996 0.12755364 -0.028619304 -0.12763292 -0.07420362
0.09464446 0.09755848 -0.014532403 0.18042192 -0.12066011 0.024992684 0.15042542 0.14956304
-0.043610573 0.13328761 -0.12047433 0.1613362 0.01125987 0.15069385 0.056668315 -0.0047922456
-0.15067436 -0.08848614 0.13600112 0.0844363 -0.049320128 -0.08335574 0.12901789 -0.060786918
-0.021457992 0.15748289 0.16031896 0.11436896 -0.08765145 0.15670058 0.110386685 0.11249059
-0.04745169 0.20343508 -0.074203834 0.14593692 0.13158244 -0.015127552 0.14644983 -0.058397394
-0.060486272 -0.107016146 -0.099647656 -0.106639236 -0.028440233 0.119852446 0.14159484 -0.006776842
0.0054352395 -0.09235189 -0.12989403 0.20335278 0.13438335 0.095992595 0.0067085484 -0.15805909
0.15815017 -0.097591735 0.17926721 0.09070951 -0.07803845 0.12528412 -0.14608073 -0.109173626
-0.18746595 0.0103211645 0.080307126 -0.09681042 0.03591931 0.0051586693 -0.079617426 0.15749419
0.16954723 0.18202808 -0.07450848 0.066087596 -0.16835257 0.16648847 0.1247611 -0.15839674
-0.08176668 -0.12035559 -0.100885585 0.1765938 0.12000263 -0.16953702 0.14686538 0.12052759
-0.10929585 -0.10367565 0.013811694 -0.1580973 0.22621232 -0.1963875 -0.1474372 0.0033024808
-0.051844306 -0.1358218 -0.080789365 0.21438676 0.05489886 0.16584586 -0.1710261 -0.17285769
0.124767095 -0.14225996 0.14215192 -0.045829974 0.09384201 -0.12941843 -0.05605368 0.14958653
-0.04689438 0.1662318 0.10401892 0.077116325 -0.14733401 0.15718403 0.12297232 0.13526227
-0.16598877 -0.068584174 0.0782098 -0.12287087 0.17035852 0.06529073 0.16063601 0.030910237
0.07806268 -0.108175255 0.18389302 -0.16983338 0.17731251 -0.11200851 0.17194137 0.113051936
0.15195307 0.18321122 0.124244176 0.17148846 -0.075548925 0.2068961 0.13921168 0.20272966
-0.1631991 -0.12880845 -0.014599165 0.076070026 -0.05472078 0.20701961 -0.13680919 -0.15097862
-0.18652114 -0.009578324 0.19051278 -0.12587242 -0.09316908 -0.06905845 -0.09372264 0.17494242
-0.13117494 0.14503607 0.14835986 0.13117371 0.20478736 0.109540395 0.17435904 -0.0014556864
-0.16653118 -0.13446054 -0.12585205 0.08480804 -0.06581335 -0.13552563 0.09911858 -0.090954736
-0.12428776 -0.08333509 0.031833697 0.13040738 0.20169383 -0.07349453 0.11675916 0.11636746
0.111494616 -0.049753647 -0.07703622 -0.14800392 -0.07015164 -0.06828385 0.13818748 -0.08260762
-0.029536625 -0.0022596319 0.17202908 0.092116356 -0.10611387 -0.10359165 0.16370748 0.12805362
-0.017304365 0.01835959 0.050751206 0.05814636 0.08942206 -0.14814216 -0.080315046 0.12020243

model.4.weight f4 [128, 256]
00000000: 93c2 e83c 887f 833d 7963 b63c 07bb 7f3c
00000010: 0f98 ea3b f78d 843d 72b6 043c 80c7 fdbc
00000020: 206d 4b3d a4da 303d 52a1 203d d75f 27bc
00000030: e070 943d a2d4 04bd 4b43 75bd 56dc 673d
00000040: 9e53 64bd c9c3 483d 6a23 12bd 5ca2 24bd
00000050: 10d9 0d3d 0c5c ccbc 7410 323a eaf5 11bd
00000060: 0056 4cbd fa93 883d 0970 f73c 6ad9 43bc
00000070: b0b3 9d3c 070d 28bd c3e7 3dbd 0219 a53b
00000080: c83e edbc 483d e5bb 990c 70bd a1a1 f8bc
00000090: 9340 84bd cf77 0d3d 95cf 133d 8d8b eabc
000000a0: 66fb 3bbc 30f1 1c3d 0db7 453b 92de b8bc
000000b0: c519 0c3d ea80 55bd a221 3b3d 684a 3c3d
000000c0: 1057 e7bc 841e 443c 75a1 483d 15c5 ed3d
000000d0: ed71 06bd 5a71 22bb cde7 6aba f5eb bd3c
000000e0: 1cf6 1abd 7b72 ee3c 36fb 633d 8c6e 863c
000000f0: 77bd 8c3b 5abb 8d3c 9690 56bc e01e 3c3d
00000100: e78e dab9 af3c 2dba 9ee1 2a3d 028a 183d
00000110: 767e 853d b1e0 2d3c bfc7 953d 84d5 ea3c
00000120: af78 41bd adf9 3fbd ff53 68bd 0563 363d
00000130: 2ed2 ffbc b9ae 413d 0b35 02bc 837e 19bd
00000140: 52ca 0f3d bf58 2b3d 8b7d 7fbd 5211 3c3c
00000150: 58d3 833d bea3 83bc 4f5e c5bc 7c79 503d
00000160: c8a3 3dbc 97d2 76bd 5f5f c63b 4ced 44bd
00000170: 221d b63c 44e3 643d d323 713d 88ae 993c
00000180: 0fb2 323d a6ff 413d 2504 383d dfb3 223d
00000190: 9a76 0fbb 6891 15bd 51e7 66bd e7d2 b9bd
000001a0: ba05 0b3d 408a 5abd 5c2a 093d e1cb 1ebc
000001b0: 48bb 36bc fe04 673c e580 bd3a a20c 003d
000001c0: e460 debc ed98 16bb 1506 30bd 38df 5dbd
000001d0: a8f9 1abd ca06 2fbd 8801 c2bb 30b2 34bc
000001e0: a495 9a3d 21f4 793d 23d3 ee3c fe1e e4b9
000001f0: c588 e8bc aea6 08bd 368c 3a3d 34e0 4f3c
00000200: f499 023d ca4f f4bb 8305 8bbc b9c5 5d3c
00000210: 0d78 00bd 67e4 cebc 3b4c 31bc d2e3 343d
00000220: 6222 1a3c 17a7 443c def1 a63c 9ba9 5ebc
00000230: 3748 793c 364e 4dbd 8de4 d3bc cf0b 52bd
00000240: 8679 35bd b2cf 9dbb 7373 80bd fc07 ef3d
00000250: 2581 1d3c 51a9 943d e37d 87bd dc44 aebc
00000260: 2987 163d 4f22 663d c337 563c 8847 1cbd
00000270: 9ed6 533d 6a4a 71bd a081 d6bc 8960 3a3c
00000280: e9de 35bd 3443 873d f6f7 9fbb d039 dfbc
00000290: e09c 4abd 7cd5 ee3c 4e13 11bd 0f92 883d
000002a0: b7dd 453d a3db d1bc 519f a6bc 4f2e 8dbc
000002b0: 09b8 8e3b 5591 a03b 9aa3 29bd 332a 5d3b
000002c0: 9574 3cbd f0b6 40bd d5ee 7db9 69aa 3cbd
000002d0: c583 503b f244 f5bc b3da 9b3d 612f 6e3d
000002e0: 6e0a d83c 72c1 b13d 9895 59bc 862d 4ebd
000002f0: 0d69 64bc 045a e33d 84a8 1e3c 175e d5bc
00000300: a309 203c 790c 2bbd e5b0 d63c 9a5e 733c
00000310: 626c 52b7 e530 fc3c 0f9e 053d 0e4d fcbc
00000320: 288e 93bb b451 fcbc e163 973d 847e a93c
00000330: 360d 19bc f2be 443d 94c0 40bd 605c af3c
00000340: dd55 2f3c 22e0 2f3c 5a67 d63b 2f8e 313d
00000350: a4de 963b 1a96 323c 8650 4e3b 6ab8 8b3d
00000360: 369a 1bbd 1ccd 833c 7add 443c 7cca 6a3d
00000370: 4088 2c3c 40ac 4dbd 4385 29bc ff55 8bbc
00000380: 9cf5 adba 161f 8dbd 3bba 0dbd 6d15 8d3d
00000390: 94af 5e3d 9d9a a83c 5d2c 603b 47cc d3bc
000003a0: 58c5 80bd 997c 23bd 6a28 d6bc 7afd a5bc
000003b0: 1de6 b23c 6853 acbb c0f2 0fb9 2bd8 523d
000003c0: c54d 26bd 4f9c 4fbc 5d96 e43c a942 f93b
000003d0: 711a 38bd 6a28 3bbd d14e 5d3d 5eff 71bc
000003e0: 9a8a 0a3d 2dce 0a3d 3b01 4d3d d63e b53c
000003f0: 2cf7 223d 3835 03bc 5d6e a73c ab18 4f3c
0.028413093 0.06420809 0.02226423 0.015608556 0.00715924 0.0647239 0.008100139 -0.030978918
0.049664617 0.043177262 0.039216347 -0.010215721 0.07248092 -0.032429345 -0.05987863 0.056606613
-0.055743806 0.04901484 -0.035678305 -0.0401939 0.034630835 -0.024946235 0.0006792613 -0.035634913
-0.049886703 0.06668849 0.03020479 -0.011953691 0.01925072 -0.04102805 -0.046363603 0.0050383816
-0.0289606 -0.0069958307 -0.058605764 -0.030350508 -0.06457629 0.034538087 0.036086638 -0.028630996
-0.011473512 0.03831595 0.0030168921 -0.022567067 0.034204263 -0.052124895 0.04568637 0.045969397
-0.028239757 0.011970166 0.048982102 0.11609856 -0.03282349 -0.00247868 -0.00089609326 0.023183802
-0.037832364 0.029107323 0.055659495 0.016410135 0.004295047 0.01730125 -0.013095995 0.045927882
-0.0004168667 -0.0006608469 0.04171907 0.03724099 0.06518261 0.010612653 0.07313489 0.028666265
-0.047234233 -0.04686897 -0.05672073 0.044528026 -0.031228151 0.04728577 -0.007947217 -0.037474167
0.035105057 0.04183268 -0.062375586 0.011478739 0.06436795 -0.01606929 -0.024092821 0.050897107
-0.011574693 -0.060259428 0.0060538496 -0.048077866 0.022230688 0.0558808 0.058872055 0.01875998
0.04362684 0.047362946 0.044925828 0.03972232 -0.002189076 -0.036515623 -0.056372944 -0.090734296
0.03394101 -0.0533545 0.033487663 -0.009692163 -0.01115305 0.014100311 0.0014457969 0.031262048
-0.02714581 -0.0022979334 -0.04297455 -0.054167956 -0.037835747 -0.042731084 -0.0059205927 -0.011028811
0.07548073 0.061023835 0.029153412 -0.0004351064 -0.02838553 -0.033362083 0.04554387 0.0126877315
0.031885102 -0.0074558007 -0.016970402 0.01353591 -0.03136449 -0.025255395 -0.010821397 0.04416258
0.009407612 0.012002728 0.020379003 -0.013590242 0.015214971 -0.050123416 -0.025865817 -0.051280793
-0.044305347 -0.004816019 -0.0627202 0.11671445 0.00961331 0.07258857 -0.06615808 -0.02127307
0.036749993 0.056185063 0.013074818 -0.038154155 0.051718347 -0.058908857 -0.026184857 0.011375555
-0.044402037 0.06604615 -0.004881854 -0.027249247 -0.049466014 0.029154532 -0.0354188 0.066684835
0.048307147 -0.025617426 -0.02033964 -0.017233996 0.004355435 0.0049001374 -0.04141579 0.0033747077
-0.04600962 -0.047049463 -0.00024216932 -0.046060953 0.0031816822 -0.029940102 0.07610073 0.058150653
0.02637216 0.08679475 -0.013280295 -0.050336383 -0.013941062 0.111011535 0.009683732 -0.026045842
0.009767923 -0.04175994 0.026207397 0.014854098 -1.254221e-05 0.030785033 0.03262144 -0.030798461
-0.0045030303 -0.030800678 0.07392097 0.02069021 -0.009341529 0.048033662 -0.047058657 0.021406353
0.010701624 0.01073459 0.006543082 0.043348487 0.0046041775 0.010900045 0.0031481101 0.068222836
-0.037988864 0.016089015 0.012015695 0.05732201 0.010530531 -0.0502131 -0.0103467135 -0.01700878
-0.001327205 -0.06890695 -0.03460143 0.06888852 0.054366663 0.020581538 0.003420613 -0.025854243
-0.0628764 -0.039913747 -0.026142318 -0.020262469 0.021838242 -0.0052589662 -0.00013727974 0.051475685
-0.04060151 -0.012671544 0.02790373 0.0076068235 -0.04494709 -0.04569284 0.054030243 -0.014770357
0.033823587 0.03388803 0.05005 0.02212469 0.039786503 -0.008008294 0.020438368 0.012640159

model.4.bias f4 [128]
00000000: 70ac b13d 69f4 a73d fd27 06be 4ba5 c43d
00000010: 2c5b c83d 002b 123e 179a 223e 7eab b93d
00000020: 1265 aabd c9b5 cb3d b89b 1b3e c3fb 0b3e
00000030: e900 7a3d 4559 fb3d 1883 d93d 423e 003e
00000040: 273d c13d 91dc e3bc 79ca 173e 7a4f a23d
00000050: c7d3 f73d 7044 1a3e 2647 6f3c 412d ccbd
00000060: d9a1 0fbd a39d ad3d 732d e6bd 43cc 6bbd
00000070: ca2e 74bc 1656 0f3e 671c a4bc 0e4d f7bd
00000080: 83e4 e93d d343 e4bd b517 f2bb 73f2 773c
00000090: 2a64 92bd 1e7d f7bc 44d5 233e 7b38 013d
000000a0: 0334 0e3e c554 c93d 6e84 b13d a28c 033e
000000b0: f948 09bc 6ebe b93d 28cd dd3b ded1 6f3c
000000c0: 5e52 ab3d 44a7 703c 65f7 983d 70d2 dd3d
000000d0: 89b5 873d 8037 153c 20a4 4fbd 8dad 023e
000000e0: 111c abbd 2ad4 a73d 2d5a a43d 30e9 953d
000000f0: 58fd f43d 588f 27be 6f16 663c 1179 87bd
00000100: 1014 07bd 5dc3 71bc 4909 1d3c 59d6 24bd
00000110: 2aeb b93d 10f0 b4bd a99c a9bd 2a7b 0d3e
00000120: d3a4 eb3d 8d18 123e a255 f4bc b919 bf3d
00000130: cc86 f3bd c942 d6bd d214 d33d 92ed ee3d
00000140: bc09 e13d a9d5 88bc 3174 b03d 7440 5d3b
00000150: ce2f e83c 25fb f7bd 58b4 943c b20e 173c
00000160: 3c02 213e 5ac1 3b3c 985a b13d 8d8c 0bbe
00000170: 5f23 033e 781d ddbd 4b99 cbbd b01c ffbd
00000180: dd53 96bd 377e d6bc 5444 50bd 51f9 2f3d
00000190: 8fa7 cfbd e476 13be 1b80 b9bd 0c46 87bd
000001a0: bbc7 3ebd 9241 0b3e c2c2 b43d 85c9 ed3d
000001b0: 8506 debd 93d6 e03d f9b6 95bd 8926 dd3d
000001c0: 87e1 103e dc44 09be cab6 27bc bc9b 5cbd
000001d0: 900a 343e 0c02 a9bd 5e3b 463e 605e 193e
000001e0: ba6d a13b 8b3a 1bbe 6d97 853d d670 d1bd
000001f0: f6cf e73d 0870 f83d cad8 013e c8d8 913c
0.08675468 0.082009144 -0.13101192 0.0960184 0.09783015 0.14274216 0.15879093 0.09065913
-0.08320059 0.09946782 0.1519612 0.13670258 0.061036024 0.12272886 0.10620707 0.1252375
0.09435492 -0.027815135 0.14823331 0.07925315 0.1210094 0.1506517 0.014604365 -0.09969569
-0.03506646 0.084773324 -0.112391375 -0.057567846 -0.0149037335 0.13997683 -0.020033075 -0.12075244
0.11420538 -0.11145749 -0.00738808 0.015133488 -0.07148011 -0.030211028 0.15999323 0.031548005
0.13887028 0.09830622 0.08667837 0.12846616 -0.008379214 0.09069525 0.0067688413 0.014637439
0.0836532 0.014688317 0.07469062 0.108311534 0.06626422 0.0091074705 -0.05069363 0.12761517
-0.083549626 0.08194764 0.08025012 0.073198676 0.11962384 -0.16363275 0.0140434345 -0.066148885
-0.032978117 -0.014756051 0.009584733 -0.04024348 0.09078057 -0.08834851 -0.08281834 0.13816515
0.11506047 0.14267178 -0.02982599 0.09331078 -0.11890945 -0.10461957 0.103067055 0.11666407
0.10988185 -0.016703444 0.08615912 0.003376034 0.028343108 -0.12108449 0.0181524 0.009219812
0.15723509 0.011459673 0.086598575 -0.13627835 0.12806462 -0.10796636 -0.09941348 -0.124566436
-0.073402144 -0.02618323 -0.050846413 0.042962376 -0.10139381 -0.14400822 -0.09057637 -0.06605157
-0.046577197 0.13599232 0.088262096 0.116107024 -0.10841087 0.10978427 -0.0731029 0.107983656
0.14148532 -0.13405174 -0.010236451 -0.053859457 0.17582154 -0.082523435 0.19358584 0.14977407
0.0049264105 -0.15159051 0.06523023 -0.102266 0.11318962 0.12130743 0.12680355 0.017803565

model.6.weight f4 [1, 128]
00000000: 533a b5bd 1e49 43bd c34b b03d 004e 6bbc
00000010: d080 30bd 2e25 b2bc b45f 0dbe 67df 58bd
00000020: 18c9 d03d 63f4 b2bd 150f f9bd 0ecb a9bd
00000030: 4e2f c0bd ad3c a0bd 9783 a7bd 57ab 58bd
00000040: a6ce f5bd 652d 903d 2fe7 30bd 2ca6 edbd
00000050: 4bba 89bd e330 24be 7545 c33c e304 023e
00000060: 4863 433d c161 bfbc e4fd c33d 0e2b 3b3d
00000070: 256e 883d 9ee3 7dbc 25f9 8f3d 9079 2c3d
00000080: f706 f6bd f425 a23d fe62 d63c 32bd b13d
00000090: c3ff b23d 2b84 803d 6abc debd 98db e93d
000000a0: 0b4a 94bc 568f 72bd b2f1 cebd c477 f7bd
000000b0: e049 3e3d 55b6 b7bd 6b5d 213d 9497 953c
000000c0: 097d d5bd 53c2 233c cdf1 52bc 6a5d debd
000000d0: be50 87bd 4a8b 753d ac4f 0c3d 8733 66bc
000000e0: 5d04 a43d b313 03be dee4 f1bd a113 c0bd
000000f0: 115d dabd 6b1f 5c3d 7489 493d f57c f83d
00000100: efdd ec3c 0515 ac3d 30be 283d 0e85 183d
00000110: 732f 5dbd aaf3 553d 8ad0 063e 8ad4 76bd
00000120: ac89 e0bd 3f5f d4bd cfe9 d23d bd57 c5bd
00000130: 5d77 0f3d 565a 8b3d c753 b9bd 9084 edbd
00000140: e1d9 20bd 8bf4 3b3d ca82 e5bd 566a bb3d
00000150: e97b 923d c7f3 7b3d 4977 2c3d 6758 8fbd
00000160: 79cf f7bc 5ac8 9b3d 9db5 5ebc 3421 a83d
00000170: 0bf1 06be 4cb0 983d b44a 823d deff 723d
00000180: 59f1 493d 8131 383d f427 453d a895 93bd
00000190: 7a74 c63d 9ddb 993d 8451 1f3d 59c8 9a3d
000001a0: 5efd b33d b979 fabd 9ada 9dbd 0be4 fabc
000001b0: ca10 8b3d c68a 1cbe 49aa 3e3e 0ada 8dbd
000001c0: eb14 11be 6160 a03d 4dd9 673c a4c5 b43d
000001d0: 9d4c e8bc fb4e 183d 26da 30bd 0082 7abd
000001e0: 357e dd3c c705 9c3d 49e6 b6bd 333f f03c
000001f0: 0707 7ebd 84f9 adbd 502f 59bd 2f0d 433d
-0.08849015 -0.04767715 0.086082004 -0.014361858 -0.043091595 -0.021746244 -0.13806039 -0.052947428
0.101946056 -0.08738019 -0.1216108 -0.08290683 -0.09384023 -0.07824073 -0.08179396 -0.052897777
-0.12002306 0.07039908 -0.043189224 -0.116039604 -0.06724986 -0.16034274 0.02383683 0.12697177
0.047702104 -0.023362042 0.0956991 0.045695357 0.066616334 -0.015496163 0.070299424 0.04210812
-0.12013047 0.07917395 0.02617025 0.08678664 0.08740189 0.06275209 -0.10875781 0.11418837
-0.018101713 -0.059218727 -0.101046935 -0.1208339 0.04645717 -0.08970324 0.03939573 0.018260755
-0.10424239 0.009995061 -0.012875033 -0.10857661 -0.06607197 0.05994729 0.03425567 -0.014050371
0.08008645 -0.12800483 -0.11811231 -0.09378744 -0.10662282 0.0537409 0.04920335 0.12133209
0.02891442 0.08402447 0.041197002 0.037236266 -0.05400033 0.05223433 0.13165489 -0.060261287
-0.10963759 -0.10369729 0.10298502 -0.096358754 0.035025943 0.068043396 -0.090491824 -0.1159755
-0.039270286 0.04588751 -0.11206587 0.09151141 0.0715254 0.06151178 0.042105947 -0.06999283
-0.030250298 0.076065734 -0.013593105 0.08209458 -0.13177888 0.07455501 0.06361905 0.059326045
0.049302433 0.044969086 0.048133805 -0.07206279 0.09690185 0.07512591 0.0388961 0.075577445
0.0878856 -0.12230248 -0.077077106 -0.030626317 0.06790312 -0.15287313 0.18619646 -0.06926353
-0.14168136 0.07830883 0.01415093 0.088267595 -0.028356845 0.037184697 -0.043176793 -0.061159134
0.02703772 0.076182894 -0.08930642 0.02932701 -0.06201842 -0.08494857 -0.053023636 0.047619995
