models/discriminator_epoch_2.pth (torch, 951720 bytes, 7 tensors)

model.0.weight f4 [512, 141]
00000000: de2c 46bc 5972 4f3b d531 223d 748f b6bd
00000010: 93ca 5dbd 4ab6 653d 0522 13bd 7560 173d
00000020: b838 0ebd 5d8a 37bd 2bb2 9cbd c7b4 7a3d
00000030: 793a a1bd 0d00 c3bd 5569 38bd 870a 40bd
00000040: eb0b acbd e302 8c3d 8e85 c23d 5342 d93c
00000050: 100d 87bc e346 913d f55e b53c 9584 bbbc
00000060: f127 8dbd 0e36 903d 3c9b 423d 53ae 563d
00000070: ff80 3fbd 912a c7bb cdd4 8dbd 0adb 743d
00000080: 411f 11bd e216 42bd e6b5 3c3d b287 b73d
00000090: afb1 893d dffb 7ebd 6223 733d ff39 60bd
000000a0: d4f6 e53c b6b9 3c3d d860 38bc 4b1a 463d
000000b0: f7b0 0abd 87d5 cbbd f971 c8bd 1f2f 0ebd
000000c0: 8538 ccbc 9e87 48bd b029 62bd f003 55bd
000000d0: 679c ae3d 02ee 77bd 7864 ce3c 450a 9dbd
000000e0: 48cd 6e3b dfb8 4f3d c8bd aebd caca 873c
000000f0: c2b6 a1bc 1b52 a73d 7fc7 92bd 63e8 b8bb
00000100: a497 8e3d c2a4 11bb 3d0a a43c 9def b1bd
00000110: bc5d 53bd 96e8 843c 92d3 a63d 7ab6 68bc
00000120: 705c f2bc 61e3 6f3d 1146 2c3c f366 983c
00000130: 1fdc 34bd 93d7 513d 5518 a63d 4fce 7dbd
00000140: 449d df3c ac38 ff3b a444 393d f226 b53b
00000150: 52d8 623d 54d0 b8bd 295c f43c 556b 7fbd
00000160: 072f f83c d5ee 2ebd e63b 91bc 18e2 a93d
00000170: e701 68bd f7f6 a8bd 9dc0 9c3c db5a 093d
00000180: 931d 853c a1ea 40bd 16d6 733c cb74 9b3d
00000190: 2e5a 58bc 9bd3 f5bd 781f c53c 5ca3 3abd
000001a0: e041 86bd f3ae 23bd 5026 02be db6a c9bd
000001b0: e5d5 5b3d d44f 933c e2af 9dbd 493f 2a3d
000001c0: a82a a5bb f85c 9f3d 7c42 86bd 9283 71bd
000001d0: 0c0f 77ba 76f3 37bd eb4c 73bd 0aa2 31bd
000001e0: 1461 d73d 5212 6fb9 fb9d 97bd 2bde 6b3c
000001f0: 513e 36bd 2326 8c3d 6219 2abc 4c00 72bd
00000200: ecc0 7b3d 2faa 943b 0213 6ebd ba9d d33d
00000210: e03d 073d 3adc a1bd 01a5 debd 633f d3bc
00000220: 744b fe3c b27c 07bd a4b9 f8bb 44dd 6d3d
00000230: 9252 91bc 7cc1 4a3d 9900 0cbb e70d 14bd
00000240: 693a cd3a bbd5 963c 2b39 b23c dec8 3e3b
00000250: 7d1f c7bc 6429 ae3c 9a15 2b3d cd28 ffbc
00000260: 4836 a03c ba16 703b 2aa4 403d fb69 5f3d
00000270: eadc 033d 7d0b b93c 7642 203d b18a 35bd
00000280: a236 34bc 5dbf f93c 0217 063c 7c85 33bd
00000290: 1cd9 1b3d 9946 8cbd 4fb3 20bb 45ba 38bc
000002a0: 7b82 6e3d 1147 a0bd 43bd 84bd 4578 d2bb
000002b0: 7154 113d b695 8cbd 7fd3 9bbb 35ba 0bbb
000002c0: fcfb 9abb a44c c63c 225a 41bd 8118 67bd
000002d0: 5896 d03c 32a1 743d 1361 60bb bbeb 91bc
000002e0: 0ce3 fe3a 3243 be3c 4385 f7bb f89e fdbc
000002f0: 2b93 743d e681 10bd 4aab 263d 9cf3 f03c
00000300: 248f abbd c7a7 7d3d 1e4a 273d cb46 dbbc
00000310: 7cba 5e3c 3155 55bd ae78 42bd d14e 263c
00000320: 0190 273d 5103 dbbc 0194 4bbd 332e 49bd
00000330: 0d89 5fbd 6319 853d 8b2f 22bc c1db 743d
00000340: 3a28 bebc d386 b8bc 23cc b2bc dfb3 a0bc
00000350: 00b4 5c3d 7097 47bd f86c 6abc 8853 9bbc
00000360: fca0 17bd 9568 b4bd 7a4a 3d3d a7a0 803c
00000370: 15f7 b2bc 5c7b 34bd 5af9 66b9 e76b 153d
00000380: b2ef 103d 9f44 e33b fe49 94bc 662b 393d
00000390: 4683 e9bc ec66 cabc 6235 7bbd 0afe a3bb
000003a0: f9aa 753d 8b00 bc3c 9573 533d bf3c ee3c
000003b0: 863c bbbc c9b7 193d c9b9 9dbb 8224 3f3c
000003c0: fa4a fdbc b8f0 9bbd fe99 35bd fc90 5d3d
000003d0: 1e5e 6bbd 4f63 843d 47bc 193d c56c 843c
000003e0: afc6 23bb 84dc 60bc 985f 49bd bcf5 2fbc
000003f0: 4d00 e23b 53ea e7bb c64e 76bd eae7 073d
-0.012095658 0.003165385 0.039598305 -0.0891408 -0.054148268 0.056082048 -0.035921115 0.036957223
-0.03472206 -0.044809688 -0.0765117 0.06120756 -0.07872481 -0.09521494 -0.045022327 -0.04688504
-0.08400711 0.06836488 0.0949813 0.026520884 -0.01648572 0.07093599 0.022140006 -0.022890368
-0.06892384 0.0704156 0.047511324 0.052412342 -0.04675388 -0.0060780724 -0.06925354 0.059779204
-0.035430197 -0.047385104 0.04607191 0.08961429 0.067233436 -0.06225192 0.059359916 -0.05474281
0.028071798 0.046075545 -0.011253558 0.04836492 -0.033860173 -0.099528365 -0.097873636 -0.034712907
-0.024929294 -0.04895746 -0.055215538 -0.05200571 0.08525925 -0.060529716 0.025194392 -0.076679744
0.0036438275 0.050713416 -0.08532292 0.01657619 -0.019740466 0.08169957 -0.07166957 -0.005642937
0.06962517 -0.0022223447 0.020024413 -0.08688281 -0.051603064 0.016224187 0.081458226 -0.014203662
-0.029585093 0.058566455 0.010514752 0.018603778 -0.044155236 0.05123098 0.0811011 -0.06196433
0.02729667 0.0077887382 0.045231476 0.0055283243 0.05538208 -0.090241104 0.029829102 -0.06235822
0.030295862 -0.042708237 -0.017728757 0.08295077 -0.05664244 -0.0825023 0.019134814 0.033533912
0.016249454 -0.04709876 0.014882585 0.07590636 -0.013205094 -0.12003251 0.024062857 -0.045565948
-0.065555334 -0.039961766 -0.12709928 -0.09834834 0.053670783 0.017982401 -0.076995626 0.04156426
-0.0050404854 0.07781404 -0.0655565 -0.058963366 -0.00094245444 -0.044909917 -0.059399527 -0.043367423
0.10516563 -0.00022799641 -0.07403179 0.014396231 -0.044493023 0.068432115 -0.010382028 -0.059082314
0.06146328 0.004536889 -0.058123596 0.10332818 0.033017993 -0.07903333 -0.10871316 -0.025787061
0.031041838 -0.033077903 -0.0075904895 0.058072343 -0.017739568 0.049500927 -0.002136266 -0.03614607
0.0015657666 0.018412462 0.021755775 0.0029111425 -0.024307007 0.021259971 0.041768648 -0.031147385
0.019557133 0.003663464 0.04703156 0.05454443 0.032193102 0.022588486 0.039125882 -0.04432172
-0.010999354 0.030486757 0.008184196 -0.043828472 0.03804885 -0.06849403 -0.0024520939 -0.011274879
0.058229905 -0.07826055 -0.06481411 -0.0064230287 0.03548092 -0.068644926 -0.004755437 -0.0021320705
-0.004729746 0.024206467 -0.047205098 -0.056419853 0.025462314 0.05972404 -0.0034237548 -0.0178126
0.0019446327 0.0232254 -0.007553728 -0.030959591 0.059710663 -0.03528013 0.040690698 0.029413037
-0.08376911 0.061927583 0.040842168 -0.026767155 0.013594266 -0.052083198 -0.04747837 0.010150627
0.040908817 -0.02673498 -0.049701694 -0.049116325 -0.05457406 0.06498983 -0.00989903 0.059779886
-0.02321254 -0.022525227 -0.021825856 -0.01961702 0.0538826 -0.048728406 -0.014308207 -0.01896073
-0.03701876 -0.0880901 0.046213605 0.015701605 -0.021846334 -0.044062957 -0.000220274 0.036479857
0.03538484 0.0069356705 -0.018101688 0.045207404 -0.028504979 -0.02470728 -0.061330207 -0.005004649
0.059977505 0.022949478 0.0516239 0.0290817 -0.022856008 0.037528787 -0.004813407 0.011666419
-0.03091954 -0.07614273 -0.04433631 0.054093346 -0.057462804 0.06464254 0.03753307 0.016165147
-0.002499025 -0.01372445 -0.04916343 -0.01073974 0.0068970085 -0.007077494 -0.060133718 0.033180155

model.0.bias f4 [512]
00000000: c6f6 073e 0ab2 45be ed55 4d3d c9e4 02be
00000010: b396 003e 2dbf 8cbc f55a 823e 5989 583e
00000020: 170b 43be 13c8 21be 7738 38be 9d8f 9a3d
00000030: 0396 42be fe0e 65be d1f5 573e 1536 893d
00000040: fe9e 193e 5580 0c3e 2a6a 26bb a891 5bbd
00000050: 98ad 45be 975b d0bd 57ed a4bd 0171 bd3d
00000060: f89d 54bd 0e91 f03d 7da7 3e3e 4fc2 2fbe
00000070: 842a 3bbe 5ce8 e93c 0210 27be 184e 3e3e
00000080: 859a 413d aa17 393e 3c16 c83d a8de 593d
00000090: 26de 5d3d 6cb5 253e 1e61 453e 7385 1cbe
000000a0: deb0 32be b8c7 bf3d 239e 38be b346 6c3d
000000b0: 01c3 1dbe 0660 be3d b277 ebbd 0134 663e
000000c0: 56d3 1dbe 48d3 55bd 3b69 d33d 2f1c 24be
000000d0: e89d 66be c5f7 49be 7d70 29be f6a7 6c3d
000000e0: 41a2 68be 59a5 463e fc74 fd3d 3f0f b2bd
000000f0: 8ad6 b93d 56ca c83d c38d cdbd abc8 07be
00000100: 53e0 2cbe d2f4 0c3e f186 42be 7d34 0f3e
00000110: 256d f93d c7e1 373d 6e11 42be fb57 fabd
00000120: b0ae 7bbb 5faa 3c3e cc14 013e f184 2cbe
00000130: 338f 8dbd 19e7 07be 9d16 133e 10cc 6ebc
00000140: 8f68 213e fc34 6b3e 7f50 d7bd 1800 773e
00000150: f0e3 cabd 9cbd a73c cd38 213e 9627 343e
00000160: 1292 3a3e 84d9 503e d4f4 afbd 451c a03e
00000170: 04be 4a3e cf95 d03d 4e76 4abe 052d 18be
00000180: 7255 62be da35 89bd dd1a 96bd bfba 1ebe
00000190: 9ed9 b73d 6f1a 2a3b 53a4 413e a77e 383e
000001a0: 49b0 c8bc e685 2fbe fb3e 36be aedf 383e
000001b0: 0999 593e 6fd9 643e 190d 033e 8f42 5fbe
000001c0: 5c8e 0abe 6446 dc3d 4924 4e3e 7558 49be
000001d0: ca66 2abe 8a17 103e 6081 35be 33af 0c3e
000001e0: bf55 473e 0c3a 17bd f8cf 4b3e e6e1 45be
000001f0: 2ca7 11be 57b8 253e 413b 58bd c676 c4bc
00000200: ebe5 343e 9ece eabd e327 73bd fcbc 54be
00000210: 8f61 0dbe 0816 37be 5cbf 99b7 9a54 3dbe
00000220: f897 18bd ab56 033e da37 2bbd 27d9 ef3d
00000230: 8a72 443e 85ac 9bbc 0c47 dbbc 9288 25be
00000240: 937b 79bd 89a4 a93d 4cca 2abe 1666 19be
00000250: d221 c1bd ec59 c2bd b15b 2fbe d077 e9bd
00000260: d511 0a3e 791d 9fbd 8246 45be b834 583e
00000270: fdfd 7d3e 80fd e33c 9700 3f3e af8a 453e
00000280: 95c7 f1bc f640 2a3e 83d5 38be e88c 42be
00000290: 7018 9ebd 36c4 093e 8b95 093e ccdb 1fbe
000002a0: ba0a 5c3e 1f2a 053e ffb3 34be 8924 363e
000002b0: fa1d 9bbd 9e49 14be e220 05be 46fe 323e
000002c0: e449 52be e0de 0cbe da24 9e3d 887c f23d
000002d0: 1a10 2d3e 6777 183e cf4b 45be dd21 633e
000002e0: 9ce7 6e3e f2ca dcbd d01c cb3d 0ce7 573e
000002f0: 7444 c33d f8d1 533e 610f 373e 62c3 8bbd
00000300: 9b29 0a3e b6d0 2c3e a7c8 3fbe 8f87 1dbe
00000310: ec7d cebd 3e75 59be 8261 3fbe e71b 69be
00000320: db7c 143d 5dac 123e 84be 0ebe 3227 6e3e
00000330: efae 273e d993 123e 3896 1abe a9b2 523e
00000340: 0041 8c3d 645f bcbd 8e77 8a3e 3ddf 9bbd
00000350: dceb 00be f6a5 503e 7415 db3d a020 25be
00000360: f7d8 3d3e 50e4 b23d eb08 0abe 34f0 d33d
00000370: 0ca6 b4bd 2f8e 603e 1bd4 f53d e947 103e
00000380: 9705 10be 86d7 1d3e cd04 2b3e 4f8b 1f3d
00000390: a1cd 2e3e a5be 18be b7bb db3d 5ed7 033d
000003a0: 8425 663e 7dc7 33be 15eb c43d dd7e d4bd
000003b0: d15f 5bbe 1fcb 153e 30f3 dbbd e81d f5bd
000003c0: cc1e dd3d e98c d3bd e6b7 2e3e 5fdb 22be
000003d0: f5ae 173e 8e39 a63c dd60 ae3d 0679 84bd
000003e0: 0837 ecbd c2bb 5cbe b10d 05be 436b 52bd
000003f0: a08f 5cbe 61e2 c4bd 21ce 343e f575 883e
0.1327773 -0.19306198 0.050130773 -0.12782587 0.12557487 -0.017181003 0.2546002 0.21146144
-0.19047199 -0.15798979 -0.1799029 0.07546923 -0.19002537 -0.22369 0.21089865 0.066997685
0.15002057 0.1372083 -0.0025392869 -0.053605705 -0.19304502 -0.101737194 -0.080530815 0.092500694
-0.051908463 0.11746417 0.18618579 -0.17163967 -0.18277937 0.02855318 -0.163147 0.18584478
0.047266502 0.18075433 0.09769866 0.053190857 0.054166935 0.16182488 0.19275329 -0.15285282
-0.17450282 0.09364265 -0.18029074 0.05768461 -0.1540642 0.09295659 -0.114974394 0.22480775
-0.1541265 -0.052203447 0.103228055 -0.16026376 -0.22521174 -0.19723423 -0.16546817 0.057777368
-0.22718145 0.19399013 0.123758286 -0.08694314 0.09074123 0.098042175 -0.100368045 -0.13260143
-0.16882448 0.13765267 -0.18996789 0.13984866 0.12179021 0.044893052 -0.18951961 -0.12223812
-0.0038403682 0.18424366 0.1260559 -0.16847588 -0.06912079 -0.1327175 0.14364095 -0.0145750195
0.15762542 0.2296943 -0.105134 0.2412113 -0.09906757 0.020476155 0.15744324 0.17593226
0.18219784 0.20395476 -0.08591619 0.31271568 0.19799048 0.10184824 -0.19771692 -0.14860924
-0.22102907 -0.066997245 -0.073293425 -0.15500925 0.08977054 0.0025955697 0.18910341 0.18017064
-0.024498122 -0.17140922 -0.17797463 0.18054077 0.21249785 0.2234857 0.12797965 -0.21802734
-0.13530868 0.107556134 0.20131029 -0.1966265 -0.16640773 0.1407148 -0.17725134 0.13738708
0.19466303 -0.036920592 0.19903553 -0.19324455 -0.14223927 0.16183601 -0.052790884 -0.023982417
0.17665832 -0.1146519 -0.05936421 -0.20775217 -0.13806747 -0.17879498 -1.832813e-05 -0.18489304
-0.037254304 0.1282603 -0.04180131 0.117113404 0.19184318 -0.019003162 -0.026767276 -0.16165379
-0.060908865 0.08283336 -0.16678733 -0.14980349 -0.09430279 -0.094898075 -0.17124821 -0.113998055
0.13483365 -0.07769293 -0.19265178 0.2111386 0.2480392 0.02783084 0.18652569 0.19291185
-0.029514113 0.16626343 -0.18050198 -0.18999064 -0.07719505 0.13453755 0.13435952 -0.1561119
0.21488467 0.13004349 -0.17646788 0.17787375 -0.07574077 -0.14481208 -0.13000825 0.1747981
-0.20536 -0.13756895 0.07721873 0.11840159 0.16900674 0.14889298 -0.192672 0.22180887
0.2333054 -0.10780896 0.09917605 0.21084231 0.09534541 0.20685565 0.1787696 -0.06824376
0.13492434 0.16876492 -0.18728887 -0.15383743 -0.100826114 -0.2123613 -0.1868954 -0.2276455
0.036251884 0.14323564 -0.13939863 0.2325714 0.16375326 0.14314212 -0.15096366 0.20575966
0.06848335 -0.09197882 0.27044338 -0.07610939 -0.12589973 0.20375809 0.10697451 -0.16125727
0.18539797 0.087349534 -0.13479964 0.103485495 -0.088207334 0.21929239 0.120033465 0.14089932
-0.14064632 0.15414247 0.1670105 0.038951214 0.17070629 -0.14916475 0.10729163 0.032187812
0.22475249 -0.17556567 0.09615151 -0.1037576 -0.2142327 0.14628266 -0.10739744 -0.11968595
0.1079689 -0.10329611 0.17062339 -0.15903996 0.14812835 0.020291116 0.08514569 -0.06468396
-0.11533934 -0.21555999 -0.12993504 -0.051371824 -0.21539164 -0.09613491 0.17656757 0.26652494

model.2.weight f4 [256, 512]
00000000: 5a99 dc3c 622e 85bc b72f 343c 4591 bc3b
00000010: 30f9 b1b9 619a 32bc a776 243d f41b fd3d
00000020: e54e 4fbd 7167 46bd 2593 9cbc 4f27 1e3d
00000030: efda 013d cf5d 31bd f656 7e3d 6c8d 263d
00000040: e2b6 363c d96d 0c3d 4935 4bbc 146e 71ba
00000050: cd76 abbc 94f0 c1bc 280a 8cbc ad6c 473c
00000060: 42a1 cd3c 1001 edbc e30a 813c d941 55bd
00000070: 6f20 2abc 1515 ef3b d767 bf3b 252f 97bc
00000080: 17f3 813c a1a3 94bc 1178 4ebc 9a97 3a3d
00000090: eb7a c93c 65c5 3d3d daa1 643d 90b6 09bd
000000a0: 3ab6 35bd 4ac9 f53b e171 86bb 06a7 753d
000000b0: 7228 40bd 824a 2b3b 7d44 e2bc 52ec 983c
000000c0: 9235 7e3b 1c16 a3bc e62c f8ba 02ef 07bd
000000d0: b47a 3fbd e10d 8dbd f074 02bd 006b 823c
000000e0: 04c7 39bc 6557 073d 44e1 11bb 03cc a2bc
000000f0: 74b6 d13c 8df6 e7bc 7a14 183c e4c3 cd3c
00000100: 60a5 36bc 66ba 1a3d d068 47bd 8323 b13c
00000110: 86c8 a13d 0bc8 4a3b 77d5 3bbd 6571 133c
00000120: 4c89 413d 3bc4 36bc 8983 163d c10d 3fbd
00000130: c0d8 a03c 5f00 02bd e4a0 88bc 7b88 643c
00000140: abb0 5f3c f453 ac3d 4d31 1abd 715a 833d
00000150: fd9e 753c 2b90 1dbc 3562 223d a93b e63c
00000160: 9049 b13c 167f 4e3d 41c1 14bd 0c5b dc3d
00000170: 8103 a73c a755 853c d7cf d6bb 0301 bc3c
00000180: 34fc e03b bc89 02bd b1b7 0cbd 71c9 84bd
00000190: a5bc 413b 2b0c 71bb 524b 5e3c 874e 3f3d
000001a0: 6f09 013d 1dd5 dbbc eeba cf3b 4c6a 803d
000001b0: 3c21 17bc 39ee bebc 16f3 dd3b 7655 82bd
000001c0: 39e2 9bbc a0e9 9abb 1587 3b3c 1903 4c3c
000001d0: 84ce 3c3c 7395 b1bc 68f8 563c 9c10 703c
000001e0: 864c b93c d898 183d e0eb a63b 2465 70bc
000001f0: 5bf4 5c3c 7c76 983c 696e bf3c 6dea babb
00000200: 4b7d c73c 773f 483c 8cca 18bd c31e 76bd
00000210: a8ca 57bd a307 26bd 597c a33c 1fbe 57bd
00000220: c11b 253d 28d7 1abc d956 c1bc 1a7e b4bb
00000230: ab39 4e3c 4f99 87bc 0417 1abc 685f 57bb
00000240: a55e debc ef0b c73c 8d13 5abd 5549 f1bb
00000250: 8bf5 bb3c 572b 163d 1d8b 5f3a 7bef aeba
00000260: aa17 9a3c e53e 60bc acd0 a33c 5761 12bd
00000270: 9387 693d 5565 383c 8dae 473c 4d02 3f3d
00000280: 33c0 23bd 662a a83b 42ac 993c 809d 843c
00000290: c787 cd3c 9c11 153d ff13 693d 3ddb d3ba
000002a0: c6c5 ca3c 57a6 91bb 00c2 24bd 33b9 0b3d
000002b0: 9a24 2cbd 6d99 043d bf2c 4db9 16c3 36bc
000002c0: 7bd5 62bd 4363 29bc 2ef6 cc3c 921d d03c
000002d0: 0448 a03b 32b1 d53c c24c 15bd 8294 bcbb
000002e0: 76af ae3d 7334 a4bb 92e3 15bc fa75 1c3c
000002f0: a0e4 d7ba 54df 953c 63f4 863c 1f2a ddbc
00000300: c2c6 83bc 42c5 0bbc daad 7abd ad39 54bd
00000310: 4a76 abbc ae39 adbd 7179 f9bc a269 2cbd
00000320: e4e0 b2bc 4366 2e3d 5f4b 583c bc43 583d
00000330: eca6 363d 9b04 843b 1d16 f2bc 95d7 3d3d
00000340: 2b5b d53c fa2b 39bd 4180 013e 41ea c6bc
00000350: 6806 dabc 9c23 8c3d 8374 4dbc 708e 3dbc
00000360: 4e8f 983b 0923 5c3d 8683 9a3c 436b 08bd
00000370: 64dd 9ebb 951e ba3d f2d9 92bc 49db 033d
00000380: 6752 0cbc 1fce b7bb 4d93 4f3d 7263 00bd
00000390: 2c9d 033d 5b3f 323c c0ca 493d 6e11 27bd
000003a0: 6bfd c13b abdd eabc 0622 d43c a196 39bc
000003b0: 14c9 0fbd e8a2 3c3d e1f9 2ebc 4514 ebbc
000003c0: 59b5 e23c b346 4bbd 995f 0d3d 8245 70bd
000003d0: 4c05 34bc b1b1 083d 3176 64bc bd8a cfbc
000003e0: efa0 fc3c a0de e73c 741f 663c bf94 99bc
000003f0: 1302 97bd 8301 b7bc ed5e 04bd aeef f43d
0.026928592 -0.016257469 0.010997704 0.005754622 -0.0003394573 -0.010901065 0.04015222 0.12358847
-0.05061235 -0.048438493 -0.019113133 0.038611706 0.031702932 -0.043302353 0.06209465 0.040662214
0.011152001 0.034284446 -0.012402841 -0.00092098233 -0.020930672 -0.023674287 -0.017094687 0.012171906
0.025101308 -0.02893117 0.015752262 -0.05206475 -0.010383709 0.0072962143 0.005841236 -0.018455097
0.015862985 -0.01814443 -0.012601868 0.045554735 0.024594745 0.04633083 0.055818416 -0.03362137
-0.044363238 0.007500802 -0.004102931 0.05997374 -0.04691357 0.002613694 -0.027620548 0.018667374
0.0038789255 -0.019908004 -0.0018934279 -0.03318692 -0.04674788 -0.06887413 -0.0318498 0.015920162
-0.011338953 0.03304233 -0.0022259513 -0.019872671 0.025599696 -0.028315807 0.009282226 0.025117822
-0.011147827 0.03777542 -0.04868394 0.021623379 0.07899575 0.0030941989 -0.045857873 0.008999203
0.047250077 -0.011155183 0.036746535 -0.046643976 0.019634604 -0.031738635 -0.016678281 0.013948555
0.013652961 0.0841445 -0.037644673 0.06413735 0.014991519 -0.009616892 0.03964444 0.02810462
0.021641523 0.050414167 -0.036317114 0.10759553 0.020387413 0.016276194 -0.006555538 0.022949701
0.0068660025 -0.031869635 -0.03435487 -0.064837344 0.0029561904 -0.0036780934 0.013567762 0.04670575
0.031503137 -0.026835019 0.0063394224 0.062702745 -0.009224232 -0.023306953 0.006773363 -0.06363957
-0.01902877 -0.0047275573 0.01144578 0.01245191 0.011523847 -0.021677708 0.013120748 0.0146523975
0.022619497 0.03725514 0.0050940365 -0.014672551 0.013485993 0.018611185 0.023368077 -0.0057042153
0.024351737 0.012222162 -0.03730254 -0.06008793 -0.052683502 -0.040534627 0.019956755 -0.052671548
0.04030967 -0.009450711 -0.023600983 -0.0055081965 0.012586991 -0.016552595 -0.009404901 -0.0032863263
-0.02714474 0.024297683 -0.0532413 -0.007363478 0.022944232 0.036662426 0.00085275044 -0.0013346517
0.018810112 -0.01368687 0.019996963 -0.03573736 0.05701406 0.011254628 0.012187612 0.046633054
-0.039978217 0.0051320074 0.018758897 0.016188383 0.025089158 0.036393747 0.056903835 -0.001616336
0.024752509 -0.004444878 -0.040224075 0.034112167 -0.042027093 0.03237288 -0.00019566993 -0.011154911
-0.055379372 -0.010338607 0.025019731 0.025404725 0.0048913974 0.02608547 -0.036450155 -0.005755008
0.0852956 -0.0050111352 -0.009148495 0.009549612 -0.0016471334 0.018294968 0.016473955 -0.026997624
-0.016085986 -0.008530917 -0.061200954 -0.051812816 -0.020930428 -0.08458267 -0.030453416 -0.042092927
-0.021835752 0.042577993 0.013201564 0.05279897 0.044592783 0.0040288693 -0.02955156 0.046348173
0.026044449 -0.045207955 0.12646581 -0.024281623 -0.026614383 0.068427294 -0.012539986 -0.011569604
0.004655755 0.05374435 0.018861543 -0.033305418 -0.004848169 0.09087864 -0.01792619 0.03219155
-0.008564568 -0.0056092883 0.050677586 -0.03134484 0.032132313 0.010879363 0.049265623 -0.040788107
0.0059201024 -0.028670153 0.02589513 -0.011327417 -0.035103872 0.046053797 -0.010679693 -0.028696189
0.027674364 -0.04962797 0.034514997 -0.058660038 -0.010987591 0.033372585 -0.013944195 -0.02533471
0.030838458 0.028304398 0.014045585 -0.018747685 -0.073734425 -0.022339588 -0.03231709 0.11959778

model.2.bias f4 [256]
00000000: 8fcb 303e 6f63 273e 41af 28bd 5509 67bc
00000010: fbbc 4c3c 9387 ad3d 7773 063e 2007 92bd
00000020: a15c 093e 9d7c ca3d 1bac f53d f1f6 9fbd
00000030: dc08 233e e26e b2bd 6c94 debd aa92 0cbc
00000040: 0495 afbd d861 183d 982d edbd a9cb cdbd
00000050: 07e5 0cbe ab3b 29bd 18e5 fb3d 0418 0bbe
00000060: cffe 7ebd 47d2 433e caa0 c93d a176 173e
00000070: f9eb bbbd aeaf 3dbe 5b7c c83c 947d 2b3e
00000080: 93d4 943c 12f8 84bd 8520 65bb 171c 07be
00000090: bdce d7bd dee1 9f3d 98cc 4fbd 695d 83bc
000000a0: 3ed9 bdbd 55a6 e7bd fc1c 1ebe 27b1 043c
000000b0: 282b e33d 538c 8bbc d190 d3bd 76e6 57bd
000000c0: 2bb9 a03d d176 b43d eec3 323a 1374 273e
000000d0: 977a dcbd f6f1 d53c 0eec 063e 375c 093e
000000e0: f3dc d5bc b0ee f03d 9e00 dabd 5fe1 153e
000000f0: cee4 583c d253 0a3e bf54 423d 8dda 3ab9
00000100: b813 0dbe a9af 83bd c68f ff3d 4d85 a93d
00000110: a21c 1dbd 3cbb 84bd 8fa7 e53d 1c2e 1dbd
00000120: 0017 2fbb 26e7 0d3e 9065 143e 5a3b d13d
00000130: 2ad9 9fbd df1a 163e 6f2b c53d 66fb c83d
00000140: 2147 dabc dd5e 3e3e ca18 5dbd 531a 023e
00000150: 4a2a ec3d cf7e 7ebb bdd5 073e d76a 34bd
00000160: fab2 54bd 018d afbd 8d99 c9bd 902f b8bd
00000170: 6e5a 5fbc eefe e63d bf25 ff3d 6a56 d03b
00000180: c052 463c eddf a9bd 7785 e3bd 63e3 3d3e
00000190: c616 f33d 2006 aa3d 065c cb3b 3069 14be
000001a0: 94e2 0f3e 1c6a 99bd 5ec9 243e bbca 953d
000001b0: 8e1b 59bd e238 da3d de9d 03be 3b83 bebd
000001c0: eca3 2abe a0e5 a13c 3094 993d 3774 afbd
000001d0: 2fac da3c 6f23 cabb 4b05 5ebd ce12 113e
000001e0: db66 1a3e 4aff 253e 1500 47bd afe0 913d
000001f0: 1407 19be 9f3e 193e c7c0 dc3d 1ba6 0cbe
00000200: f754 98bd af98 cfbd d1ad a0bd cfa6 223e
00000210: 20fc cf3d dba9 16be abc8 073e 69ba d23d
00000220: 9b20 b5bd 58e3 b1bd 7175 693c 6559 16be
00000230: 2abb 543e f975 32be 2325 03be 0ea6 cbbb
00000240: cc9b 1dbd 0a39 f5bd 6b84 84bd 202b 493e
00000250: 4155 703d 415b 193e 00ec 24be 597d 22be
00000260: 859e de3d 6604 f2bd 7b3c fc3d f98d cdbc
00000270: 8a39 a73d 4067 edbd 5612 1abd 5c9c 063e
00000280: 6301 f1bc de1e 163e dc8b bc3d 1312 8a3d
00000290: 879c f9bd bfa4 133e 4efb dd3d 10b0 f03d
000002a0: 18d3 1cbe a299 52bd d818 943d 1f36 efbd
000002b0: f27d 1d3e 0f80 8e3d c7b4 113e 7fd2 943c
000002c0: f0d1 733d e3f7 abbd e495 2b3e 507e 1dbe
000002d0: 21a5 223e 6d12 bebd 031d 1e3e 4ac5 c03d
000002e0: 9465 053e 8057 293e 1a07 dc3d d9a4 1e3e
000002f0: 1c12 4cbd 5029 413e 5d7d f93d 654f 3d3e
00000300: 7c4c 10be 84f8 e3bd 1f53 ddbb 1e44 8b3d
00000310: 4c7d 10bd 44f7 413e 3735 fabd 68ab 03be
00000320: d627 22be 0c51 e23b 42d2 313e a7b9 debd
00000330: 9fe5 95bd e656 53bd a767 8ebd d4b1 203e
00000340: da8d e1bd 8879 023e f525 083e 188b e93d
00000350: 4a47 403e a74f d13d 1cb0 213e 2b98 fc3b
00000360: 07e6 14be 13c0 f3bd 8831 cfbd 6853 8c3d
00000370: e987 2ebd 59f0 ebbd b963 bb3d ca46 91bd
00000380: 196e e6bd 539a 61bd ff14 c53c 0261 f23d
00000390: 2991 3d3e e6f5 8bbd d517 ca3d da32 c83d
000003a0: 7b25 d63d 142a 0bbd 8c9f 9ebd 939c 02be
000003b0: 10b3 52bd ee40 65bd 0150 f83d a95e 82bd
000003c0: 11c7 02bd 17e7 4a3b 9f93 1f3e d165 aa3d
000003d0: 2369 afbd 8832 c0bd 2571 133e 7489 e33d
000003e0: 6bfd 3ebb 1105 0f3c 6765 8e3d 8b85 343d
000003f0: 5110 9f3d 7cf9 03be fd02 70bd efcb d43d
0.17265151 0.16346525 -0.04118276 -0.014101346 0.012496228 0.08473124 0.13129984 -0.07130265
0.13414241 0.09887049 0.11995717 -0.07810772 0.15921348 -0.087125555 -0.10868153 -0.008579889
-0.08573344 0.037202686 -0.11580962 -0.10048611 -0.13759242 -0.04131667 0.122995555 -0.1358338
-0.062254723 0.19123183 0.09845121 0.14791347 -0.091758676 -0.18524048 0.02447336 0.16747123
0.01816777 -0.06492628 -0.003496201 -0.13194309 -0.10537479 0.078067526 -0.050732225 -0.016035752
-0.09269951 -0.11311022 -0.15440744 0.008098877 0.11092216 -0.017034685 -0.10330356 -0.05271002
0.07847818 0.08811725 0.0006819357 0.16352873 -0.1076557 0.026116353 0.13175985 0.13414083
-0.026106333 0.11764276 -0.10644649 0.14636753 0.013238145 0.13508537 0.0474441 -0.00017819759
-0.13777053 -0.06429989 0.124785945 0.08277378 -0.038357385 -0.064810246 0.112136 -0.03837405
-0.002671659 0.13857707 0.14491868 0.102163985 -0.07805093 0.14658688 0.09627425 0.098135754
-0.026645245 0.18590875 -0.05397872 0.12705354 0.115315035 -0.0038832908 0.13265128 -0.044047203
-0.051928498 -0.08571816 -0.098437406 -0.08993447 -0.0136324 0.11279093 0.12458371 0.0063579576
0.01210469 -0.082946636 -0.11109441 0.18543772 0.11869578 0.083019495 0.0062060384 -0.14493251
0.14051276 -0.07490942 0.1609244 0.073140584 -0.053004794 0.10655381 -0.1285319 -0.09302374
-0.16664094 0.019762814 0.07498968 -0.08567088 0.026693432 -0.006168775 -0.054204267 0.1416733
0.15078299 0.16210666 -0.048584063 0.07122933 -0.14944106 0.14965294 0.10778957 -0.13735239
-0.07438081 -0.10136544 -0.07845653 0.15883945 0.10155511 -0.14713232 0.13260143 0.10289461
-0.088441096 -0.086859405 0.014249192 -0.14682539 0.20774522 -0.17427815 -0.12807135 -0.0062148636
-0.038478658 -0.1197377 -0.06470569 0.19645357 0.058675054 0.14976217 -0.16105652 -0.15868129
0.10870079 -0.11817245 0.12316223 -0.025092112 0.081652716 -0.11591959 -0.037615143 0.13145584
-0.029419607 0.14660212 0.092063636 0.06741729 -0.12188058 0.14418314 0.10838948 0.11752331
-0.15314901 -0.051416047 0.07231301 -0.11680245 0.15380076 0.06958019 0.14229117 0.018166779
0.059526384 -0.0839689 0.16756397 -0.15380216 0.15883304 -0.09280858 0.15440755 0.0941263
0.1302703 0.16537285 0.10743542 0.15492572 -0.049821958 0.18863416 0.12182114 0.18487318
-0.14091676 -0.11131385 -0.0067542936 0.06800102 -0.035275742 0.1894198 -0.12217181 -0.12858355
-0.15835509 0.006906634 0.17365363 -0.10875254 -0.073191874 -0.051596545 -0.06953364 0.15692836
-0.11013384 0.12741673 0.1329573 0.11403483 0.18777195 0.102202706 0.15789837 0.0077085695
-0.14540873 -0.119018696 -0.10116869 0.06851846 -0.042610083 -0.11520452 0.0914988 -0.0709358
-0.11251468 -0.055078816 0.024057863 0.11834909 0.18512405 -0.06834011 0.09867827 0.09775324
0.104563676 -0.033975676 -0.07745275 -0.12755041 -0.0514403 -0.055970125 0.121246345 -0.06365711
-0.031928126 0.0030960494 0.15583657 0.08320201 -0.08564975 -0.09384638 0.1439863 0.111102015
-0.0029142748 0.008729235 0.06952935 0.04407267 0.07766784 -0.1288814 -0.0585966 0.1039046

model.4.weight f4 [128, 256]
00000000: 419b c43c 7379 593d 9a44 c43c 7eee 843c
00000010: b5f8 5d3c 3ea7 853d cbcd 173c 1fa9 aabc
00000020: c91f 4c3d f41b 363d a08b 203d f69d 29bc
00000030: 1ed2 8f3d df26 0ebd c7ae 74bd 4229 573d
00000040: 72c3 4ebd 37a1 4f3d 1797 0bbd 9576 16bd
00000050: aa06 0d3d 7c1c bcbc 39fc e8b9 1e11 17bd
00000060: 854e 4fbd 1437 7f3d 1011 e03c f46f 33bc
00000070: dc66 ab3c f283 08bd 1dbb 2ebd fc8d 543b
00000080: 91be bbbc f428 7d3b 3d87 5dbd 583b e5bc
00000090: 6a9e 81bd df86 f73c efab d73c 6dca a8bc
000000a0: cd39 37bc 65e0 233d 0660 7f3b f9ad dbbc
000000b0: 513a 0e3d 59a9 54bd 5f11 3f3d 414e 453d
000000c0: 2955 f8bc cb30 563c af0a 493d 7dfc e43d
000000d0: ad0c 05bd 9b85 95bb 9f04 013b 7481 eb3c
000000e0: 60f2 17bd 6e3f e63c dbf3 6f3d 1e36 8b3c
000000f0: 9670 f639 8f84 863c 7636 e9bb c2c0 4a3d
00000100: 66b1 31ba 69b4 a93c bf50 423d 2556 0d3d
00000110: 1bf0 703d 9e94 2f3c d74f 983d bd42 343d
00000120: e559 5bbd b392 41bd 9db4 64bd 34b9 293d
00000130: 915d eebc f6d4 4a3d 8ab9 13bc 9e04 14bd
00000140: c064 0f3d 3446 293d 4c47 78bd c02e 723c
00000150: 4883 863d 8e52 6dbc 42f4 a2bc 4902 473d
00000160: 0d7b 09bc 457b 52bd d954 e33b 9c1a 40bd
00000170: ac74 9f3c 05b0 7f3d 489e 753d 2d85 c63c
00000180: 469f 1f3d 652f 373d c826 453d 14c4 103d
00000190: 836f a638 1d94 1cbd e45f 5ebd 3837 acbd
000001a0: 20e8 033d 6af5 52bd 77e4 073d 842c abbb
000001b0: 2f3c cb3b ad0c 4e3c c117 c83a 43b5 053d
000001c0: 0721 c5bc fca8 0abb 07a0 26bd 742c 6fbd
000001d0: 4e78 18bd 2a64 1ebd aa6c 813b bfe3 21bc
000001e0: c57f 943d 0ac7 733d f5b0 e83c 3acc 5cbb
000001f0: 0f23 e5bc 239b 00bd 3250 333d 20ef 803c
00000200: 1c59 013d 2396 0fbc 1c3d 82bc abdf 393c
00000210: 3216 02bd 295e bdbc c4f6 03bc 9de3 2e3d
00000220: d670 ca3c 3dba 4d3c 4042 de3c 0feb 59bc
00000230: d597 3c3c 268d 08bd 491a d3bc 3899 32bd
00000240: 669f 34bd 8423 a8bb 886e 82bd ce14 e23d
00000250: e6ef bd3b 6366 953d 722f 84bd bdbd 98bc
00000260: 7ebd 153d 9a0c 723d 39df 293c 5619 1cbd
00000270: 7b3a 503d dc68 6cbd 93dc c2bc 6065 363c
00000280: b012 2abd d3d7 813d 078f 8aba 2eec dcbc
00000290: e3ba 21bd de87 003d 0abd 08bd 3fe8 8a3d
000002a0: 0ad3 4a3d ccb5 e5bc e0a1 b9bc 5f72 39bc
000002b0: 0bc3 6d3b a16f f53a 08bd 2fbd e6ca d03b
000002c0: 1591 28bd 7327 43bd 761c 20ba 46a7 35bd
000002d0: ccd8 a23a 11a6 f9bc 4e7d 953d d51f 7f3d
000002e0: 4f6e c83c 4527 ac3d 0670 6fbc 990e 54bd
000002f0: 092a edba f4d4 d43d f7ce 1f3c 99ed d5bc
00000300: 92d7 6e3c 80ac 27bd b97b c13c 1a33 583c
00000310: a1f8 cabb 5dad e33c 72fc 0a3d 1917 7abc
00000320: 28c7 42bb c459 15bd c85a 963d cc59 a93c
00000330: 2423 20bc 602a 533d 8570 0cbd cc7b 903c
00000340: c7ea 5a3c 778d 293c f375 cf3b 3635 2e3d
00000350: ed0b 063c 7cd1 413c 62af e33b 830b 823d
00000360: 28f7 13bd 0955 823c 652a 5d3c 1443 683d
00000370: 3a39 343c 9353 51bd 6bad 8fbb 2a98 6cbc
00000380: 46fd 1f3a 5d72 84bd 0086 03bd fb22 8c3d
00000390: 905b 563d 9ba5 a03c 9dbc 213b 45fa e8bc
000003a0: 241b 75bd b5fc 41bd a10f d0bc c210 a2bc
000003b0: 86ca 9d3c 2d57 f4bb 007b 553b 8b3e 4f3d
000003c0: 30dd 1cbd 487d 80bc b2e2 df3c 1af9 1e3c
000003d0: 2e1e 18bd 8610 3ebd 6994 533d 409e 30bc
000003e0: 5cac ff3c 6bf8 183d d753 3d3d 7ad4 c83c
000003f0: 58df 303d 2afc 633c 31eb a73c dc2f 3d3c
0.023999812 0.05309434 0.023958493 0.016227003 0.013548066 0.065260395 0.009265373 -0.020832596
0.049835 0.044460252 0.039195657 -0.010352602 0.070224985 -0.03470504 -0.059736993 0.05252958
-0.05047936 0.050690856 -0.034079637 -0.036734182 0.034430183 -0.022962801 -0.0004443841 -0.03688156
-0.05061199 0.062308386 0.027351886 -0.010951985 0.02092307 -0.033328958 -0.042658914 0.0032433262
-0.022918018 0.0038629146 -0.05408405 -0.027982399 -0.06329043 0.030215679 0.026327102 -0.020604337
-0.011183214 0.04000892 0.0038967147 -0.026816355 0.034723584 -0.051919315 0.046647426 0.048170332
-0.030314045 0.013073157 0.049082454 0.11180971 -0.03248279 -0.004563046 0.0019686592 0.028748251
-0.03709638 0.028106418 0.058582168 0.016993579 0.0004700466 0.01642063 -0.007117088 0.049500234
-0.00067784486 0.02071591 0.047440287 0.034505982 0.058822732 0.010716585 0.07437103 0.04400896
-0.053552527 -0.047259044 -0.05583631 0.04143639 -0.02909735 0.0495195 -0.009016404 -0.036137216
0.035008192 0.041326717 -0.06061487 0.014781654 0.06568009 -0.014485015 -0.019891862 0.048586164
-0.008391154 -0.05138709 0.006937605 -0.046900377 0.019464813 0.062423725 0.059965402 0.024233425
0.038970254 0.044722933 0.048132688 0.035343245 7.9362675e-05 -0.03822719 -0.054290667 -0.0840897
0.032203794 -0.051503576 0.033176865 -0.0052238125 0.006202243 0.012576264 0.0015265868 0.032643568
-0.0240636 -0.0021157851 -0.040679958 -0.058392003 -0.037224106 -0.038669743 0.0039497213 -0.009880959
0.072509326 0.05951599 0.028404692 -0.0033691064 -0.027970819 -0.03139795 0.043777652 0.015739024
0.031579122 -0.008763823 -0.01589828 0.0113448305 -0.03175945 -0.023116188 -0.008054439 0.042697538
0.024712007 0.01255661 0.0271312 -0.013300671 0.011510809 -0.033337735 -0.02576937 -0.043603152
-0.044097327 -0.005131187 -0.063687384 0.110391244 0.0057964204 0.07294919 -0.06454362 -0.018645162
0.036557667 0.05909405 0.010368162 -0.0381101 0.05083702 -0.05771719 -0.023786819 0.011132568
-0.041521728 0.06339993 -0.001057119 -0.026968088 -0.03948487 0.031379573 -0.033383407 0.06782579
0.04951767 -0.028040789 -0.022660196 -0.011318772 0.0036279585 0.0018725285 -0.042904884 0.0063718436
-0.041153986 -0.047645044 -0.00061077566 -0.044348978 0.001242423 -0.030474694 0.072992906 0.062286217
0.024466662 0.084059276 -0.014614111 -0.051771734 -0.0018094192 0.1039218 0.009753934 -0.026114272
0.014577763 -0.040935993 0.023618566 0.013195777 -0.0061941897 0.027792627 0.033932157 -0.015264296
-0.0029720757 -0.03646256 0.07341534 0.020672701 -0.009774003 0.051554084 -0.034286994 0.017637156
0.013361639 0.010348669 0.0063311993 0.042531215 0.008181554 0.01182973 0.0069483975 0.06349852
-0.03612438 0.015909689 0.013498877 0.056704596 0.010999972 -0.051105093 -0.0043846867 -0.014440576
0.00061031093 -0.064671256 -0.032110214 0.068426095 0.052333415 0.019610217 0.0024679073 -0.02843965
-0.059840336 -0.04736014 -0.025398077 -0.019783381 0.01926161 -0.007456681 0.0032574534 0.050596755
-0.03829688 -0.015684739 0.027329776 0.009702945 -0.037138157 -0.046402477 0.051655207 -0.010779917
0.031210117 0.037346285 0.046222534 0.02451538 0.043181747 0.013915101 0.02049789 0.011547055

model.4.bias f4 [128]
00000000: e347 913d 3109 833d 57d7 01be bf89 a93d
00000010: 0de6 a43d 057d 043e 4802 113e 295d 9a3d
00000020: 2b94 aebd 28c0 993d 745d 033e bf3c f73d
00000030: bd36 353d 11b2 db3d a2d2 b43d 75a2 e03d
00000040: 293f 953d 730e 10bd 1c30 073e 2d90 7b3d
00000050: cbc5 d43d 24ea 043e 82c2 553c ecc3 d0bd
00000060: 0570 0bbd 037a 913d 87ef e3bd eee6 5bbd
00000070: b5c9 88bc 7ffe fe3d 4535 8ebc 456d 00be
00000080: 39a4 bb3d d555 e0bd df1c 653b 7999 783c
00000090: fd74 90bd 70b3 04bd bc5b 123e d5ce e13c
000000a0: 010b fb3d 0e30 a23d 11bf 903d 6c5f e53d
000000b0: bd93 253a 775e 983d 7a49 143c bb40 b53c
000000c0: c888 8b3d 130b 993c eca5 803d 7973 bc3d
000000d0: 697a 523d 3f0e 943c 13c5 4bbd 1d7d eb3d
000000e0: edef b6bd 1f3b 843d 7b87 773d c65b 6b3d
000000f0: 82eb ca3d 59a2 17be 83e6 803c 9255 8abd
00000100: 4b5e fabc de3c 67bc 38ec 963c 1ec2 ffbc
00000110: 7601 9b3d 8684 b2bd 151d acbd 18da ef3d
00000120: 3928 ca3d d937 023e bce4 03bd ed4e 963d
00000130: d8cf e9bd 0c31 cfbd 0b32 b53d aa37 ca3d
00000140: 240e bf3d bad8 60bc 3524 893d ed5f 8e3b
00000150: 2388 e03c e98d fabd 33f5 d63c 518e a8b8
00000160: ea7e 103e 1576 4c3c 2c70 8a3d 57ed 07be
00000170: 7314 e43d f808 eebd e6cc cabd 5245 f7bd
00000180: 522c 9bbd 9c70 cabc 0d60 41bd 2fcb dc3c
00000190: fac6 b8bd 113c 16be 9fd2 b3bd 009e 80bd
000001a0: 7d7b 3ebd c583 f63d 2dbc 923d 0202 cb3d
000001b0: 7c6c dfbd e3fe b73d 1bbd 97bd b3b3 bc3d
000001c0: ad6c 003e 8e1b 07be 2ec7 e0bb b8d2 63bd
000001d0: 54b9 233e b1ed 8fbd b2e0 313e b8ae 083e
000001e0: e25f 5d3c f1e2 19be 7ad3 403d fcf3 b8bd
000001f0: 5bff c33d 19c9 d93d 8178 e23d 1cc2 973c
0.070937894 0.063982375 -0.12679802 0.08278226 0.08051691 0.12938316 0.14161026 0.075373
-0.085243545 0.07507354 0.12828618 0.12072133 0.044241656 0.10727323 0.088292375 0.10968486
0.072874375 -0.03517003 0.13201946 0.061416794 0.103892885 0.12979943 0.013046863 -0.10193619
-0.034042377 0.0710335 -0.111296706 -0.05368703 -0.016697744 0.12450885 -0.017359385 -0.12541683
0.09162182 -0.10953871 0.0034959835 0.0151733095 -0.07053564 -0.032397687 0.14292806 0.027564446
0.12257958 0.07919322 0.07067693 0.11199841 0.0006316265 0.07439893 0.009050721 0.022125592
0.06813198 0.018682038 0.06281647 0.09201712 0.05138627 0.0180732 -0.04974849 0.11498473
-0.08932481 0.06456589 0.06043194 0.05746057 0.09908201 -0.14808024 0.015734917 -0.067546025
-0.03056254 -0.014113633 0.018423185 -0.031220492 0.07568638 -0.08716683 -0.084039845 0.1171152
0.09870953 0.12716617 -0.03220056 0.07339273 -0.11416596 -0.10116777 0.088474356 0.09873898
0.09328869 -0.013723547 0.06696359 0.0043449313 0.027408665 -0.122340985 0.026239967 -8.037373e-05
0.14110914 0.012479325 0.06759676 -0.13274132 0.11136713 -0.116228044 -0.099023625 -0.12073769
-0.07576813 -0.0247119 -0.04721074 0.026952354 -0.09022327 -0.14671351 -0.08780407 -0.06280136
-0.046504486 0.12036852 0.07164798 0.09912492 -0.109093636 0.08984163 -0.07409116 0.092139624
0.12541457 -0.13194105 -0.0068596816 -0.05562088 0.15988666 -0.07027758 0.1737087 0.133479
0.01351163 -0.15027978 0.04707668 -0.09030911 0.095701896 0.106340595 0.110581405 0.018525176

model.6.weight f4 [1, 128]
00000000: f382 adbd 9592 29bd 63ae a63d 144b 73bc
00000010: 1aca 1abd 6449 a0bc 6c5d 06be ae49 4fbd
00000020: a77c 9f3d 92f3 8fbd 93f1 d6bd ff2a a0bd
00000030: b36c bdbd 3516 9ebd b393 9ebd 9281 45bd
00000040: 1522 e2bd 4a7a 6a3d 0167 23bd 772d e1bd
00000050: 709b 80bd f7cc 14be 9c77 c73b fa74 a53d
00000060: 6e90 2d3d a6b8 b9bc 3b4e bc3d 59a3 193d
00000070: d99d 6a3d ab57 40bc 7ef7 833d b63c 173d
00000080: ade3 d4bd 3a75 9a3d 3147 dd3c bdcd 923d
00000090: e486 a93d 874a 3a3d 27bf d1bd 85b1 9d3d
000000a0: 2c9d 81bc 33af 5abd 453c c4bd 150f eabd
000000b0: c1da 3b3d dfc9 afbd ad0e de3c 492f 933c
000000c0: 0982 ccbd 7688 423c 20bd 44bc aee7 d1bd
000000d0: a19f 83bd db3a 743d ff37 043d 460e 53bc
000000e0: 0e95 6b3d e227 fbbd b9db e1bd 1b63 b9bd
000000f0: 897e c3bd b2dc 4e3d 878d 4c3d 465e de3d
00000100: 3742 8c3c e170 673d ab7b 293d fb2e 163d
00000110: 102c 57bd 66bf 3d3d a232 a23d 1687 5abd
00000120: 5b1d d9bd d3c4 cdbd 4344 a63d d0ff babd
00000130: 179b f73c 4a23 853d 8830 b5bd 9758 e2bd
00000140: 5fc5 0cbd 606d 273d a268 ddbd a5f2 af3d
00000150: f6b8 fc3c a15d 6a3d d0f1 303d 3648 9bbd
00000160: 7a9b dbbc 0aad 6a3d c436 31bc ecbc 9e3d
00000170: a5f6 febd 008b 8c3d f3a9 723d 5fe1 603d
00000180: 7672 233d 0ecd 213d f792 343d eb56 8cbd
00000190: 724d be3d 9c40 943d 39f3 103d 34b6 903d
000001a0: ae84 9d3d 45c5 efbd f189 95bd 54a2 d7bc
000001b0: a33c 703d af00 0ebe 3a9e f33d 3827 87bd
000001c0: fe5c 0abe f479 8b3d 9c88 213c a7b0 a23d
000001d0: d6d3 c7bc 7eb6 053d aa9d 18bd aade 6ebd
000001e0: ba14 e53c d27f 593d 6fae acbd 9966 dd3c
000001f0: 0f99 6fbd 9de4 a8bd d96d 4abd 7d15 273d
-0.08472242 -0.041399557 0.081387304 -0.014849443 -0.037790395 -0.019566245 -0.13121575 -0.050607376
0.077874474 -0.07028879 -0.104952954 -0.07820701 -0.09249248 -0.077190794 -0.07743015 -0.04821927
-0.11041657 0.05724553 -0.039893154 -0.10995 -0.06279647 -0.14531313 0.0060872566 0.08078952
0.042374067 -0.022671055 0.09194609 0.037509296 0.05727944 -0.011739652 0.0644369 0.036923133
-0.10394988 0.075418904 0.027011486 0.07168148 0.082776815 0.04548123 -0.102415375 0.07699875
-0.015822016 -0.05338974 -0.09581808 -0.11428658 0.045862917 -0.08583426 0.027106607 0.017966883
-0.0998574 0.011873355 -0.012007982 -0.102492675 -0.06426931 0.05962644 0.032279965 -0.012881821
0.057515197 -0.122634664 -0.11028237 -0.09052106 -0.09545619 0.05050344 0.04993966 0.10857825
0.017121417 0.056504134 0.041377705 0.036665898 -0.052532256 0.04632511 0.07919814 -0.053351484
-0.10601302 -0.10047307 0.08118489 -0.091308236 0.03022532 0.065008715 -0.08847147 -0.110520534
-0.034367915 0.040875793 -0.10810973 0.08591203 0.030849915 0.057218198 0.04319936 -0.075821325
-0.026807535 0.05729393 -0.01081628 0.07750878 -0.124493875 0.0686245 0.059244107 0.05490243
0.03990408 0.039502196 0.04408547 -0.06852516 0.09292115 0.07238886 0.035388205 0.070660025
0.07691322 -0.11707548 -0.07301701 -0.026322521 0.058651578 -0.13867448 0.11895414 -0.06599277
-0.13512036 0.0681037 0.00985923 0.0794385 -0.024393003 0.03264474 -0.037259735 -0.058317818
0.027963985 0.053100415 -0.08431708 0.027026461 -0.058495577 -0.082467295 -0.049421165 0.040791977
