models/discriminator_epoch_4.pth (torch, 951720 bytes, 7 tensors)

model.0.weight f4 [512, 141]
000000 3d 3e 69 bc 18 2d 3b 3b f8 8e 20 3d a5 0f b2 bd
       -0.01423603 0.0028560814 0.039198846 -0.0869439
000010 2d 17 58 bd e5 e1 80 3d 5b 4a 23 bd 83 93 1c 3d
       -0.052756477 0.06293086 -0.039865833 0.038226616
000020 0e e2 21 bd d5 f5 4f bd 59 3e 9b bd f8 38 8a 3d
       -0.039522223 -0.050771553 -0.07580251 0.06749147
000030 90 51 a0 bd 08 0a cd bd d0 69 6e bd e5 40 42 bd
       -0.07828057 -0.10011679 -0.05820638 -0.04742517
000040 dd fd bd bd 8d 76 92 3d e6 fb cb 3d b3 09 c4 3c
       -0.09276936 0.07151518 0.09960155 0.023930406
000050 cc 2f e6 bc e6 6c 9f 3d fa 07 e6 3c ac dd fd bc
       -0.028098963 0.077844426 0.028079975 -0.03098949
000060 ab fe 96 bd 7c 05 8f 3d 4b 00 6d 3d a6 49 4d 3d
       -0.07372793 0.06983468 0.057861608 0.050119065
000070 32 7d 5a bd c6 4f 52 bc b3 19 8b bd f1 cc 76 3d
       -0.05334205 -0.012836402 -0.06792011 0.06025404
000080 bc 77 0f bd c1 e5 47 bd 22 16 59 3d 0c ba c0 3d
       -0.035026297 -0.048803095 0.052999623 0.094104856
000090 b9 3d 8c 3d 5a 3a 8b bd 0b c6 65 3d 29 59 49 bd
       0.0684771 -0.06798239 0.05609707 -0.049157295
0000a0 c4 ac 0f 3d 6b b0 45 3d f0 5f 0d bc dd 5a 2a 3d
       0.03507687 0.04826395 -0.00862883 0.04159056
0000b0 4c 8e 24 bd 08 86 ca bd 92 a7 d6 bd c5 b8 29 bd
       -0.040174767 -0.09888846 -0.1048118 -0.041435976
0000c0 02 52 0a bd 41 59 50 bd 0a 29 9b bd 42 78 73 bd
       -0.033769615 -0.05086637 -0.07576187 -0.05944086
0000d0 88 5f ad 3d e1 cf 7a bd 30 f8 c7 3c c7 f6 9b bd
       0.08465487 -0.061233405 0.024410337 -0.076154284
0000e0 b9 af da 3b 24 de 51 3d f5 b2 b7 bd 4b ab 70 3c
       0.00667378 0.05123724 -0.0896968 0.014689277
0000f0 52 c6 db bc 00 8d b0 3d e5 16 a4 bd e4 5c c9 bb
       -0.026827965 0.086206436 -0.08012179 -0.0061451066
000100 da 43 99 3d 06 a0 27 bc 7d a4 f7 3c 86 7b a5 bd
       0.07483645 -0.010231024 0.030229801 -0.08080201
000110 28 6b 4e bd 92 f3 a3 3c d4 24 ab 3d ac 42 94 bb
       -0.05039516 0.020013604 0.08356634 -0.0045245495
000120 30 5d e8 bc c4 fe 80 3d 3b a2 7f 3c 23 a7 84 3c
       -0.028364748 0.06298593 0.015602644 0.016192978
000130 c4 89 75 bd 56 a0 5b 3d da 91 a8 3d c1 ba 6c bd
       -0.059945837 0.053619705 0.08230944 -0.05779529
000140 a0 77 f4 3c f0 52 08 bc 00 2a 63 3d 0d cd b9 3b
       0.029842198 -0.008320555 0.055459976 0.005670196
000150 d5 be 76 3d 34 97 ba bd 38 6f b0 3c 8b 3a 8a bd
       0.060240585 -0.09110871 0.021537408 -0.067494474
000160 2d c4 e5 3c 1f f6 3c bd 53 63 77 bc 7e 46 b0 3d
       0.028047645 -0.046133157 -0.015099364 0.08607195
000170 bf 1a 83 bd 57 31 ae bd f9 83 dd 3c c2 9d 09 3d
       -0.06401586 -0.085055046 0.027040469 0.033597715
000180 eb 87 9d 3c bb 0d 4c bd 79 f4 4d 3c ca a1 96 3d
       0.01922985 -0.049817782 0.012570494 0.073550776
000190 84 f2 b0 bc 87 77 d7 bd bb 1f d8 3c f1 97 54 bd
       -0.021600015 -0.10520845 0.026382318 -0.051902715
0001a0 de b6 8c bd ec 64 22 bd 79 e4 0e be 50 fb b1 bd
       -0.06870817 -0.039647028 -0.13954343 -0.08690512
0001b0 f6 be 43 3d 7a 2a 0d 3c 04 ea 95 bd 79 6e 1c 3d
       0.047789536 0.008616084 -0.073200256 0.038191292
0001c0 6d 11 87 bb f3 5e a5 3d eb 50 88 bd 24 1d 73 bd
       -0.0041219504 0.08074751 -0.06656059 -0.059353963
0001d0 71 59 f8 3b 48 30 46 bd 68 46 7e bd 57 66 35 bd
       0.0075790216 -0.04838589 -0.062078863 -0.044287052
0001e0 13 e5 d1 3d 00 db ea bb ce 32 9c bd 3b 57 0e 3c
       0.102487706 -0.00716722 -0.07626878 0.00868779
0001f0 42 9b 2c bd ee ff 8d 3d 8b 2b 1c bc 3d 0b 69 bd
       -0.042140253 0.0693358 -0.009531866 -0.056895483
000200 85 8f 78 3d 90 43 37 3b 03 c0 8d bd 4f 1c c8 3d
       0.060683746 0.0027963854 -0.06921389 0.097710244
000210 23 d9 26 3d 50 47 8b bd 24 40 ce bd 38 7c d3 bc
       0.04073442 -0.06800711 -0.100708276 -0.025816068
000220 62 22 09 3d 65 08 bf bc 81 3a 6f bc 2e 18 78 3d
       0.033480056 -0.023319433 -0.014601351 0.060569935
000230 19 dc af bc 9b 74 4a 3d 38 9c 0d 3b fd 65 12 bd
       -0.021467255 0.04942761 0.0021608006 -0.035741795
000240 8c eb b4 3b f3 0b 98 3c b2 e2 bc 3c 41 ab 81 3b
       0.0055212434 0.018560385 0.023057315 0.0039571826
000250 5b 05 c4 bc ab e2 9f 3c e2 19 2e 3d eb 46 ef bc
       -0.023928335 0.019517263 0.042505153 -0.029208621
000260 bf e3 88 3c a6 8f cc ba 38 35 45 3d 0e 10 6a 3d
       0.01671016 -0.0015606775 0.048146456 0.057144217
000270 5d c6 03 3d 38 34 c4 3c 3c bb 20 3d 1d 66 39 bd
       0.032171596 0.023950681 0.03924106 -0.0452634
000280 d1 18 2e bc 7c 5f 14 3d 85 a2 0f 3c 9a 40 2d bd
       -0.010626034 0.036223873 0.008766775 -0.042297937
000290 02 72 1c 3d 73 0f 8a bd 0c cf a2 bb 3a f3 fb bb
       0.038194664 -0.06741228 -0.0049685296 -0.007688907
0002a0 c6 e5 75 3d b8 f3 9c bd f9 68 7e bd 61 61 32 bc
       0.060033582 -0.07663673 -0.06211183 -0.010887475
0002b0 58 03 1f 3d 23 c5 91 bd 51 da 43 bb a0 8d 12 3a
       0.03882155 -0.07117679 -0.0029884765 0.0005590562
0002c0 4c b5 74 bb 02 5c cd 3c 6e a6 40 bd 80 a5 62 bd
       -0.0037339507 0.025068287 -0.04703372 -0.055333614
0002d0 b5 99 b4 3c aa 16 72 3d a0 cc 04 bb 78 67 72 bc
       0.02204595 0.059103645 -0.0020263568 -0.014795177
0002e0 5d 7f 8b 3b a4 00 af 3c aa ed 15 bc 03 57 e4 bc
       0.0042571262 0.02136261 -0.009150902 -0.027873522
0002f0 9b 3b 6b 3d 21 d3 12 bd e6 6b 21 3d f8 6f 07 3d
       0.05742989 -0.03584588 0.03940954 0.033065766
000300 d3 93 a3 bd 32 75 7e 3d 5d ef 18 3d d9 cc ea bc
       -0.079871796 0.062123485 0.03733765 -0.028662132
000310 33 3f 70 3c 27 59 52 bd cb 2b 33 bd 48 54 1a 3c
       0.014663505 -0.051354554 -0.043742936 0.009419508
000320 55 4b 1d 3d bc 9c ec bc 12 3e 4b bd c6 65 4b bd
       0.03840192 -0.02888333 -0.04961974 -0.049657606
000330 4e 34 50 bd 32 90 86 3d 2e 86 ff bb 4e 17 6d 3d
       -0.05083113 0.06570472 -0.007797978 0.057883553
000340 80 f2 bf bc bd 04 da bc 9e 6c 94 bc 5f 0b a7 bc
       -0.023431063 -0.026613588 -0.018118199 -0.020391164
000350 00 e2 52 3d df b3 3b bd 8f 5f 72 bc 74 69 81 bc
       0.05148506 -0.045825835 -0.014793291 -0.015797354
000360 25 5c 0c bd cb f6 b6 bd fc d6 45 3d c6 0d 2c 3c
       -0.034267563 -0.08933791 0.04830073 0.010501331
000370 10 91 af bc 12 58 31 bd 2c bb 27 3b f8 48 0d 3d
       -0.021431476 -0.04329688 0.002559374 0.034493417
000380 1a 27 0e 3d 0f c6 ad 3b 04 da 8c bc f8 40 35 3d
       0.03470526 0.0053031514 -0.017193802 0.044251412
000390 4e 0c df bc e1 95 da bc d8 cd 72 bd 2e e1 0d bc
       -0.027227547 -0.026682796 -0.05927834 -0.008659644
0003a0 c9 27 7a 3d 16 fd d9 3c e0 0a 43 3d e5 74 d3 3c
       0.0610731 0.026609939 0.047617793 0.025812576
0003b0 33 8f b5 bc 4f fb 18 3d 4d d6 e5 bb 39 10 53 3c
       -0.02216301 0.03734904 -0.007014072 0.012882286
0003c0 f2 a2 f1 bc 6a 59 98 bd 38 34 43 bd d3 35 6f 3d
       -0.029496644 -0.074389294 -0.04765722 0.05840094
0003d0 fc 3f 5f bd 9d cb 80 3d 58 24 01 3d 00 ac 44 3c
       -0.05450438 0.06288836 0.0315288 0.012003899
0003e0 6e b8 97 bb 09 ed 8e bc e5 eb 4b bd 1a 3f 1d bc
       -0.00463014 -0.017447012 -0.049785513 -0.009597564
0003f0 02 63 09 3c 91 a3 08 bc 23 11 72 bd a5 0b 01 3d
       0.008385422 -0.0083397785 -0.059098374 0.031505246

model.0.bias f4 [512]
000000 f0 2c 0c 3e 81 e5 4e be 5c c8 2d 3d 8c 8a 10 be
       0.13689017 -0.20204736 0.042427406 -0.14115351
000010 17 55 09 3e 83 42 b7 bc f4 83 83 3e 68 90 60 3e
       0.13411365 -0.022370582 0.2568661 0.21930087
000020 a9 48 50 be ef d3 28 be a9 db 47 be 18 45 64 3d
       -0.20340218 -0.16487096 -0.19517387 0.055729955
000030 e2 ae 48 be 5c 4f 75 be f6 a7 60 3e 80 e2 8c 3d
       -0.19597962 -0.23956054 0.21939072 0.06879139
000040 65 c2 20 3e af af 14 3e 62 23 67 bc a4 2d 9e bd
       0.15699156 0.14520143 -0.014107557 -0.07723549
000050 32 4f 56 be 6c d9 ec bd e1 c1 a0 bd f1 e7 bf 3d
       -0.20928648 -0.115649074 -0.078494795 0.09370411
000060 35 30 85 bd 0b 47 f8 3d 27 b3 44 3e c5 a3 37 be
       -0.065033354 0.12122925 0.19208966 -0.17933567
000070 9f db 43 be 9a b6 13 3d a9 d2 2a be 24 70 40 3e
       -0.19126748 0.036062814 -0.16681923 0.18792778
000080 c2 f3 2e 3d 13 b3 44 3e ce 9f d5 3d f7 42 6b 3d
       0.042712934 0.19208936 0.10430871 0.05743691
000090 db 30 6c 3d fa 37 2e 3e e7 39 4a 3e d5 27 20 be
       0.05766378 0.17013541 0.1974865 -0.15640195
0000a0 c6 7c 37 be ee 01 ce 3d 78 58 42 be 50 ea 83 3d
       -0.17918691 0.10058962 -0.1897906 0.06441176
0000b0 9a 02 2b be b6 7c de 3d 1d 26 ed bd 21 80 6c 3e
       -0.16700211 0.108636305 -0.11579535 0.23095752
0000c0 c6 a2 25 be 66 83 61 bd 5b 3c e6 3d 77 db 2f be
       -0.16175374 -0.055056952 0.11241981 -0.17173563
0000d0 4c a5 6f be cd 1d 4c be a2 e1 31 be 6b 44 8a 3d
       -0.234029 -0.19933243 -0.17371228 0.06751331
0000e0 ab 33 6f be 4e 76 4e 3e 4e c1 03 3e ec 97 c5 bd
       -0.23359554 0.20162317 0.12866709 -0.096481174
0000f0 82 8d c0 3d 76 1a d1 3d ef 03 e4 bd ed 67 10 be
       0.094019905 0.10210125 -0.11133563 -0.14102145
000100 b5 a1 39 be dc 08 13 3e 86 fc 45 be ae 6a 1c 3e
       -0.18128093 0.14358848 -0.19334611 0.1527507
000110 c8 02 fc 3d 8d 35 d8 3c 5f 9a 44 be 1b f7 0b be
       0.12305218 0.026392723 -0.19199513 -0.13668482
000120 e5 10 3f 3b ab ee 4a 3e 23 1f ff 3d 80 4e 3f be
       0.0029154357 0.19817607 0.12457111 -0.18682289
000130 fa 02 af bd 3a 2b 11 be e7 d1 13 3e 1e 14 80 bc
       -0.085454896 -0.14176646 0.1443554 -0.015634593
000140 ae e7 28 3e 10 f5 73 3e 2f eb ee bd 6a 99 7e 3e
       0.16494629 0.23823953 -0.116659515 0.2486321
000150 9c 79 f4 bd bd ef 74 3b 97 8d 27 3e ec 23 3c 3e
       -0.11937258 0.003737434 0.16362606 0.18373078
000160 e0 7c 40 3e 59 66 57 3e 11 05 93 bd 78 8f a5 3e
       0.18797636 0.21035136 -0.07178701 0.3233602
000170 31 2f 55 3e 9b 7c d6 3d f1 19 4d be ad 8a 20 be
       0.20818783 0.10472985 -0.20029427 -0.156779
000180 0d ab 6c be a8 d3 b2 bd 7b 29 6d bd 44 36 2c be
       -0.23112126 -0.087317765 -0.057900887 -0.16817576
000190 d3 93 ca 3d 6a f3 f5 3b 9d f9 43 3e a9 32 3e 3e
       0.098914765 0.007505824 0.19138189 0.18574013
0001a0 69 6f 16 bd 0b b4 3d be c0 f6 3e be d8 72 42 3e
       -0.036727343 -0.18525712 -0.18648815 0.18989122
0001b0 da f5 5f 3e 12 f2 6b 3e 1d e3 07 3e 59 3c 6e be
       0.21871129 0.23041561 0.1327023 -0.23265208
0001c0 b4 36 23 be 89 77 ea 3d d3 48 53 3e 25 4e 58 be
       -0.15938836 0.11448581 0.20633249 -0.2112356
0001d0 3d 7f 2b be 19 bd 1d 3e 73 26 2f be 44 5e 18 3e
       -0.16747756 0.15404166 -0.17104511 0.1487971
0001e0 8b 67 50 3e ed cd f1 bc 07 d3 58 3e fc db 56 be
       0.20351999 -0.029517138 0.2117425 -0.20982355
0001f0 5a a9 0e be 02 02 2d 3e 05 d2 4e bd 8f 0c 2c bd
       -0.1393179 0.16895297 -0.05049326 -0.042004164
000200 a6 36 40 3e 89 13 f9 bd 83 1d 82 bd fd dd 59 be
       0.18770847 -0.12161929 -0.06353285 -0.21276088
000210 6e 67 17 be 72 84 40 be a8 83 94 3c dc e2 51 be
       -0.14785549 -0.18800524 0.018129185 -0.20496696
000220 97 c4 1b bd 11 4a 12 3e 8c 60 6e bd 6d c8 de 3d
       -0.03802928 0.14286067 -0.058197543 0.10878072
000230 11 7e 4c 3e c3 cb 2f bd 48 f8 ff bc c5 9a 21 be
       0.19969966 -0.04291893 -0.03124632 -0.15781696
000240 04 5b 93 bd d5 b0 a9 3d 1e 62 35 be 6b c6 28 be
       -0.07195094 0.08285681 -0.1771321 -0.1648194
000250 d6 a9 cc bd 47 13 d9 bd d9 c5 3c be 12 0b f1 bd
       -0.09993331 -0.1059938 -0.18434848 -0.117696896
000260 bd 3f 11 3e 26 ac b3 bd 64 00 4e be de 8b 5d 3e
       0.1418447 -0.08773069 -0.20117337 0.21635386
000270 9c 97 84 3e 95 57 14 3d 03 88 4a 3e 68 24 4f 3e
       0.2589692 0.036216337 0.19778447 0.20228732
000280 1b e0 3d bd 49 a7 40 3e 4a 80 3f be 29 cd 4c be
       -0.0463563 0.18813814 -0.18701282 -0.20000137
000290 0d 01 ac bd 47 1b 07 3e 14 1d 0e 3e da 5b 21 be
       -0.08398638 0.13193999 0.1387828 -0.15757695
0002a0 84 15 60 3e 05 9a 0c 3e bd 09 40 be 6d 77 3b 3e
       0.21883208 0.13730629 -0.18753715 0.18307276
0002b0 b5 c8 a5 bd fd 7c 1f be ad 33 15 be 52 59 40 3e
       -0.080949225 -0.15575023 -0.14570494 0.18784073
0002c0 b2 fe 64 be 2b 7d 11 be 49 47 a3 3d 7e 84 f1 3d
       -0.22362784 -0.14207904 0.07972581 0.11792849
0002d0 3f 2d 3b 3e bd 70 1e 3e dc 12 52 be 80 88 68 3e
       0.18278979 0.15472694 -0.20515007 0.2270832
0002e0 c0 4e 7a 3e 0f 4e fc bd a6 ec d7 3d e7 2a 59 3e
       0.24444103 -0.12319576 0.10543184 0.21207772
0002f0 03 41 c7 3d a9 b3 59 3e 80 1c 3e 3e fd 35 a6 bd
       0.09729197 0.21259941 0.1856556 -0.08115766
000300 bc 85 09 3e bb d2 31 3e 7b a5 4f be 0f 7d 2b be
       0.13429922 0.17365544 -0.2027797 -0.16746925
000310 85 fc e8 bd 8b d3 67 be 68 f1 47 be 01 85 6f be
       -0.11376289 -0.22639291 -0.19525683 -0.2339058
000320 08 91 16 3d bb 67 1a 3e 9a c2 1d be 93 65 74 3e
       0.036759406 0.15078633 -0.15406266 0.23866872
000330 fd df 2d 3e 5e 7a 1d 3e 73 f5 23 be fe 9c 50 3e
       0.16979976 0.1537871 -0.160116 0.20372388
000340 21 29 98 3d b3 37 d4 bd 1d 40 8f 3e c5 83 ac bd
       0.0742972 -0.10362186 0.27978602 -0.084235705
000350 40 62 0b be 3d a2 56 3e 6e 9b dd 3d 05 f4 32 be
       -0.13611698 0.20960326 0.108206615 -0.17475899
000360 ba 2b 41 3e ef fe bf 3d db 90 14 be cb 22 ce 3d
       0.18864337 0.093747966 -0.14508383 0.1006523
000370 6c 16 c8 bd 20 aa 69 3e 3b 41 04 3e 1e 7d 18 3e
       -0.09769902 0.22818804 0.12915508 0.14891478
000380 f6 00 12 be da 3b 23 3e 2a 83 2e 3e 61 d6 0c 3d
       -0.14258179 0.159408 0.17042223 0.034384135
000390 2f 4a 30 3e 34 ad 1a be b8 28 f4 3d 98 2f e3 3c
       0.17215799 -0.15105134 0.11921829 0.027732655
0003a0 fe cb 6f 3e ed 8e 3e be dd 0d c0 3d fd 9f e7 bd
       0.2341766 -0.1860921 0.09377644 -0.11309812
0003b0 69 84 6a be 05 4b 1b 3e 35 a0 fb bd 3c 5c 03 be
       -0.22902073 0.15165336 -0.122864164 -0.12828153
0003c0 4f bd ea 3d bc fa ec bd cb 54 35 3e f2 2f 30 be
       0.11461889 -0.11571261 0.17708127 -0.1720579
0003d0 b3 e6 1c 3e 5b 8e ba 3c 75 39 b5 3d b3 d2 a2 bd
       0.1532238 0.022772959 0.0884885 -0.07950344
0003e0 38 7e ff bd e8 a9 61 be e8 03 12 be e8 bd 8b bd
       -0.12475246 -0.2203747 -0.14259303 -0.06823331
0003f0 c4 02 69 be 91 0b c9 bd a0 33 33 3e e9 4d 8d 3e
       -0.22754961 -0.09816659 0.17500162 0.27598503

model.2.weight f4 [256, 512]
000000 17 22 f0 3c 6f 38 8a bc 67 fb 20 3c 47 20 90 3b
       0.02931313 -0.016872613 0.009825564 0.004398379
000010 c5 b5 2f 3b 48 15 23 bc 53 b0 36 3d bc db 03 3e
       0.0026811224 -0.009953804 0.04460175 0.12876791
000020 62 60 63 bd a0 bd 50 bd 93 2a c9 bc e8 7a 1e 3d
       -0.05551184 -0.05096209 -0.024556434 0.03869143
000030 3f 73 df 3c 44 3a 3f bd 2d 51 85 3d e6 3a 3b 3d
       0.027276633 -0.046686426 0.06509624 0.045710467
000040 0c 6b 85 3c 9d 20 25 3d a7 49 56 bc c4 b9 b3 bb
       0.016286395 0.040314306 -0.0130790835 -0.0054847915
000050 65 3d f6 bc 4f e7 e4 bc ab ac 99 bc 4d 2b b7 3c
       -0.030058572 -0.027942328 -0.018759092 0.022359515
000060 d0 3d c5 3c e0 c0 a3 bc 5e 4a 75 3c 58 50 69 bd
       0.024077326 -0.01998943 0.014971344 -0.056961387
000070 2a 9b 37 bc 63 90 5c 3c b8 bb d9 3b 57 82 9f bc
       -0.011206428 0.013462159 0.0066446923 -0.01947133
000080 81 bd b9 3c 4a 8d 79 bc ab 80 4c bc fd b3 3e 3d
       0.02267337 -0.01523144 -0.012481849 0.04655837
000090 dd 4d d2 3c ac 2a 43 3d 21 e0 72 3d 2b 2f 2b bd
       0.025671894 0.047648117 0.059295777 -0.04179303
0000a0 f3 a2 4a bd 9e 03 f7 3b ae 4b 06 bc b5 00 6e 3d
       -0.049471807 0.007538273 -0.008196754 0.058106143
0000b0 db 8e 56 bd d0 bb 54 3c 84 a7 de bc 59 7f c1 3c
       -0.05238233 0.012984231 -0.027179487 0.023620294
0000c0 79 65 e0 ba 35 88 a9 bc be e8 ce 3b d2 56 2a bd
       -0.0017120085 -0.020694831 0.006314366 -0.041586705
0000d0 29 ee 5e bd 82 57 8f bd 1b 78 14 bd ec bf c3 3c
       -0.054426346 -0.06999113 -0.036247354 0.023895226
0000e0 8a 3a 71 bc b5 1b 07 3d 3b 4a 0a bb 9a 58 b4 bc
       -0.014723429 0.032985408 -0.0021101374 -0.022014905
0000f0 fa 24 d1 3c 20 7d cc bc 27 38 d1 3b 64 7c d3 3c
       0.025530327 -0.024962008 0.0063848677 0.02581615
000100 2b 79 3a bc cf e1 1b 3d 95 1f 4e bd 3e 5c de 3c
       -0.011381428 0.038057145 -0.050323088 0.027143594
000110 04 cd a6 3d c3 c2 00 3c a7 c8 3b bd 6e 5d fc 3b
       0.081445724 0.007858935 -0.045845654 0.0077015674
000120 89 b5 81 3d 42 96 9e 3a a5 a8 13 3d 7f 1f 58 bd
       0.06333453 0.0012099224 0.036049504 -0.052764412
000130 a7 1c a2 3c 46 e2 f3 bc f1 da 7a bc 0b bb 7e 3c
       0.019789053 -0.029770982 -0.015310989 0.015547524
000140 d6 6a ae 3c 28 b6 b6 3d da d5 23 bd 16 97 8a 3d
       0.021291178 0.08921462 -0.039998867 0.067670986
000150 64 bf 13 3c f0 fd 3d bc 4c c1 31 3d a0 84 06 3d
       0.009017799 -0.011596188 0.043397233 0.032841325
000160 2a 63 bd 3c 62 61 57 3d 31 b3 08 bd 0b 46 ea 3d
       0.023118574 0.052583106 -0.033374015 0.11439141
000170 3b a3 d1 3c 80 f3 cd 3c f0 89 63 bc 1d 80 65 3c
       0.02559053 0.025140524 -0.013887867 0.014007595
000180 98 a8 d7 39 f8 83 07 bd 8a 32 08 bd fb ed 95 bd
       0.00041133608 -0.03308484 -0.033251323 -0.07320782
000190 ee ea 85 3b dd c7 ee 3b 1d 9e 77 3c e0 3a 54 3d
       0.0040868437 0.007287009 0.015113381 0.05181396
0001a0 6c bd ef 3c 12 a3 e9 bc da c7 ea 3b 57 4f 89 3d
       0.029265128 -0.02852014 0.0071649374 0.06704586
0001b0 58 a7 3e bc 57 34 b3 bc 7b 4e ba 3b b4 f9 8f bd
       -0.011636578 -0.021875544 0.005685625 -0.07030049
0001c0 63 fc c1 bc a1 93 a3 3a 1b 88 46 3c a9 13 60 3c
       -0.023679918 0.001247991 0.012117411 0.013676562
0001d0 bb 87 4e 3c 72 92 56 bb e3 40 60 3b b9 d3 ec 3c
       0.012605603 -0.0032741097 0.0034218363 0.028909551
0001e0 45 43 f5 3c 2d 62 22 3d 91 b7 75 3c 3d 44 8d bc
       0.029939303 0.03964441 0.014997379 -0.017244453
0001f0 c2 c0 61 3c d9 3d b2 3c ca b0 b9 3c 27 48 0c 3a
       0.013778867 0.021758007 0.022667307 0.00053513277
000200 62 8c f0 3c 35 4f 22 3c 7f 44 25 bd a1 74 8c bd
       0.029363815 0.00990658 -0.040348526 -0.06858183
000210 84 8f 77 bd 01 56 2d bd 2e 17 08 3d a7 c3 6a bd
       -0.0604396 -0.042318348 0.03322523 -0.057315495
000220 6e 7c fd 3c 4b d8 dc bb d9 74 b1 bc a4 7c 06 bc
       0.030943122 -0.0067396513 -0.021662163 -0.008208428
000230 c4 f6 34 3c 3c 2f 91 bc ba 5a 2d bc fc 89 28 bb
       0.011045162 -0.017722718 -0.010580713 -0.002571701
000240 a3 c0 f0 bc 4c 2f ca 3c 00 c9 7d bd a7 a6 29 bc
       -0.029388731 0.024680756 -0.061959267 -0.010354674
000250 17 5a b4 3c 89 bf 2e 3d 9a 7b 70 b8 3f a0 3d bb
       0.022015614 0.04266313 -5.7335572e-05 -0.0028934625
000260 bb d0 97 3c ee 29 75 bc 11 02 9b 3c 1f 60 0e bd
       0.018532148 -0.01496361 0.018921884 -0.034759637
000270 21 77 83 3d 0a 79 70 3c 6f bb 04 3d 1f f8 54 3d
       0.064192064 0.014677295 0.032405313 0.05199444
000280 d4 33 17 bd 42 6d 9b 3c dd 68 89 3c eb 7e eb 3b
       -0.03691466 0.018972997 0.016773636 0.0071867607
000290 40 42 dc 3c 55 59 10 3d c6 f4 71 3d 01 4f 1a ba
       0.02688706 0.035241444 0.059071325 -0.0005886406
0002a0 db cc d7 3c 22 a7 3b 37 40 e2 30 bd 5a f2 1c 3d
       0.0263428 1.1184982e-05 -0.04318452 0.038317062
0002b0 30 f5 28 bd 7e 50 ac 3c 29 92 22 bc 88 4d 9e bb
       -0.041249454 0.021034475 -0.009922543 -0.00483102
0002c0 d2 68 7b bd f7 61 4f bc d8 6e dc 3c 1d 24 d7 3c
       -0.06137926 -0.012657634 0.026908323 0.026262337
0002d0 2c be 46 3c 8a 04 b0 3c a6 ef 17 bd 73 b2 8c bb
       0.012130301 0.02148654 -0.03709378 -0.0042937337
0002e0 80 37 b6 3d 96 1b c5 bb da de 00 bc 24 86 e3 3b
       0.088973045 -0.0060152514 -0.007865632 0.006943481
0002f0 9a 2c 7e bb 50 ca c3 3c a0 fa 90 3c d0 14 fb bc
       -0.0038783909 0.023900181 0.017697632 -0.030649573
000300 20 6e 57 bc e8 4a f8 bb 8d a3 7a bd b3 90 61 bd
       -0.013148814 -0.007577289 -0.06119113 -0.055069637
000310 6b 55 a4 bc 63 88 b2 bd 24 4e 1d bd 32 a0 36 bd
       -0.020060262 -0.0871742 -0.0384046 -0.044586368
000320 66 86 9e bc f1 6b 51 3d 63 c2 68 3c b3 f4 6c 3d
       -0.019351196 0.05112833 0.014206502 0.05785055
000330 15 94 43 3d 53 2e 30 3c 9c e7 fd bc 7d 61 4f 3d
       0.047748644 0.010753232 -0.030994229 0.05063008
000340 9e 98 eb 3c 6c 10 30 bd f3 8e 04 3e e7 95 dd bc
       0.028759297 -0.04298441 0.12945156 -0.027049018
000350 e7 58 01 bd 81 4e 93 3d 9a 34 5b bc 16 93 51 bc
       -0.031578925 0.07192708 -0.01337924 -0.012791416
000360 35 71 d5 3b 50 80 76 3d 9a 11 a4 3c f0 83 12 bd
       0.0065137395 0.060180962 0.020027924 -0.035770357
000370 7e 68 92 bb 69 7e c8 3d cc 8f 0e bc b9 ca 06 3d
       -0.004468023 0.09789736 -0.008701276 0.032908175
000380 e6 41 06 bc b5 19 16 3b 40 9b 6e 3d 72 c4 ef bc
       -0.008194422 0.0022903506 0.058253527 -0.029268477
000390 c0 4c 0a 3d 8c 5f 2a 3c 62 0e 6e 3d 80 22 1b bd
       0.0337646 0.010398757 0.058119185 -0.0378747
0003a0 2a aa 27 3c a2 73 18 bd 66 53 c8 3c eb 61 31 bc
       0.010233441 -0.03721965 0.02445383 -0.010826568
0003b0 29 5e 26 bd 4b 62 4d 3d 16 6f 58 bc cc 6a f9 bc
       -0.040617142 0.050142568 -0.013210079 -0.030446433
0003c0 b1 03 f5 3c 07 17 49 bd db 5b 19 3d c3 0a 81 bd
       0.029908987 -0.049094226 0.037441116 -0.06300881
0003d0 f0 c1 1b bc c2 5b 04 3d 02 31 2e bc 25 21 c8 bc
       -0.0095066875 0.03231407 -0.010631802 -0.024429867
0003e0 fb 70 e4 3c 9b af e3 3c 19 ae 49 3c ac 04 a3 bc
       0.027885905 0.027793696 0.0123095745 -0.019899689
0003f0 86 da 9e bd 28 ac b2 bc 4d 09 0a bd b4 4e 01 3e
       -0.07756524 -0.021810606 -0.033700276 0.12627679

model.2.bias f4 [256]
000000 4b 29 3c 3e c1 5c 32 3e 04 ae 12 bd ad 84 97 bc
       0.18375127 0.17418195 -0.035810485 -0.018495882
000010 2b 27 55 3c 2e 24 bd 3d c9 78 10 3e e3 1b b0 bd
       0.013009827 0.09235416 0.14108576 -0.08599069
000020 8a d1 14 3e 24 c3 de 3d a0 d9 00 3e 10 e6 b6 bd
       0.14533058 0.10877064 0.12583017 -0.089306
000030 2a 9c 2c 3e ef 6f bb bd c6 82 f9 bd 09 c8 0e bc
       0.16856447 -0.09152209 -0.12183146 -0.008714684
000040 e4 25 c3 bd 9d ea 23 3d 8a 2b 01 be b5 b2 e3 bd
       -0.095287114 0.040018667 -0.12614265 -0.1111807
000050 cc 3e 10 be 85 35 0d bd 4f e8 05 3e 63 c7 14 be
       -0.14086455 -0.03447487 0.130769 -0.14529185
000060 fa 74 85 bd 9f a1 4e 3e a5 27 e8 3d 27 06 21 3e
       -0.06516452 0.20178841 0.113356866 0.15725003
000070 9a 2c c9 bd 27 2a 48 be 06 f3 23 3d a4 dc 34 3e
       -0.0982296 -0.1954733 0.040026687 0.17662293
000080 50 cc 9d 3c f2 9c 9c bd 94 93 0a bb e5 97 0d be
       0.019262463 -0.076471224 -0.0021145092 -0.13827474
000090 aa f1 d1 bd 71 0f ab 3d 50 30 81 bd 12 04 fd bc
       -0.10251172 0.083525546 -0.06308043 -0.03088573
0000a0 e0 00 c4 bd 7a 0d f9 bd c1 33 2d be e3 c5 0f 3c
       -0.095704794 -0.121607736 -0.16914274 0.008775207
0000b0 b8 ff f7 3d dc d4 a5 bc 87 88 eb bd 7a 74 85 bd
       0.12109321 -0.0202431 -0.1150065 -0.06516357
0000c0 b1 c3 b3 3d f5 35 c3 3d 8c 76 bc bb 95 f0 30 3e
       0.087775595 0.09531776 -0.0057514366 0.17279275
0000d0 17 32 e9 bd 8f c2 04 3d 75 dc 14 3e 56 1d 14 3e
       -0.11386507 0.032412108 0.14537223 0.14464316
0000e0 59 4e 17 bd cf 93 04 3e de 52 f7 bd e5 dc 1e 3e
       -0.036939953 0.1294701 -0.120763525 0.15513952
0000f0 58 66 8a 3c ca 1b 13 3e a9 a7 75 3d eb 43 ca bb
       0.016894504 0.1436607 0.059974346 -0.0061726472
000100 28 88 10 be e3 a1 a4 bd 3a a2 0d 3e 80 10 b9 3d
       -0.1411444 -0.0803869 0.13831416 0.0903635
000110 8d 44 2f bd a8 09 96 bd 25 d2 f9 3d 52 22 5f bd
       -0.042789984 -0.073260605 0.12198285 -0.05447609
000120 66 68 56 bc 91 45 19 3e f5 4c 1d 3e 54 db e4 3d
       -0.013086414 0.14967944 0.15361388 0.11174646
000130 13 fe b4 bd 0d ff 1c 3e ba 4b d6 3d 86 8c d9 3d
       -0.08837523 0.15331669 0.104636624 0.10622506
000140 5f 9a 12 bd 81 c4 48 3e ff 5f 89 bd 68 2a 0e 3e
       -0.03579175 0.1960621 -0.06707763 0.13883364
000150 09 e9 00 3e cd 7d 10 bc f7 7e 14 3e c8 4e 48 bd
       0.12588896 -0.008819056 0.14501558 -0.048903257
000160 9f 47 5d bd 2d 02 ca bd 67 96 be bd c7 37 c9 bd
       -0.05402338 -0.09863696 -0.09306031 -0.09825092
000170 4f a4 97 bc cf ee f7 3d 72 67 09 3e 55 b4 be ba
       -0.018510966 0.12106096 0.13418368 -0.0014549593
000180 d9 fd 20 3c 31 6e b1 bd 10 5e fa bd b3 dd 47 3e
       0.009826147 -0.086635955 -0.12224972 0.19518165
000190 8f ea 06 3e c5 d1 bd 3d 62 9b 88 3b 11 0c 1a be
       0.13175415 0.09268526 0.0041689137 -0.15043665
0001a0 f2 0d 1a 3e d6 bf ad bd 4e 78 2f 3e df 22 af 3d
       0.15044382 -0.084838554 0.17135736 0.08551573
0001b0 89 1d 90 bd a7 aa f1 3d 56 fb 0c be 6d e1 d4 bd
       -0.070368834 0.118001275 -0.13767752 -0.10394559
0001c0 ee c3 37 be e1 9f 73 3c 7d 9e a9 3d 6a fb b8 bd
       -0.17945835 0.014869661 0.08282182 -0.090323284
0001d0 b3 fa 14 3d ee 46 49 3b c4 b3 91 bd c2 e9 1a 3e
       0.036371898 0.0030712443 -0.07114366 0.15128234
0001e0 df f7 25 3e 61 cb 31 3e 35 04 6e bd a9 17 9c 3d
       0.16207837 0.17362739 -0.05810948 0.076217
0001f0 14 2e 22 be fa 39 23 3e 44 79 f0 3d 41 f9 17 be
       -0.1583789 0.15940085 0.117418796 -0.14841177
000200 f5 cb 9c bd 38 96 da bd bc 92 ba bd ae 46 2c 3e
       -0.07656089 -0.10673183 -0.091100186 0.16823837
000210 47 5e e7 3d e9 f0 1f be b4 31 12 3e 99 ea e6 3d
       0.11297279 -0.15619244 0.14276773 0.11275215
000220 6e f9 d4 bd 0b a0 c0 bd f1 3d a8 3c a7 30 19 be
       -0.103991374 -0.09405526 0.020537348 -0.14959966
000230 e2 3b 5f 3e 69 87 42 be 92 48 0d be 90 6d ca bb
       0.21800187 -0.18996967 -0.13797215 -0.0061776116
000240 b1 73 2a bd 7d 5d 01 be c1 10 90 bd d9 8b 53 3e
       -0.04161424 -0.12633319 -0.070344456 0.20658816
000250 85 49 7e 3d 71 2c 23 3e 51 8f 2a be ce 23 27 be
       0.062081832 0.15934922 -0.16656233 -0.16322252
000260 0d f4 f4 3d da de 05 be 93 e1 08 3e 00 9f 07 bd
       0.119606115 -0.13073292 0.133673 -0.03311062
000270 c9 74 bd 3d 31 5f f6 bd 25 af 45 bd b7 48 12 3e
       0.092507906 -0.12029875 -0.048262734 0.14285551
000280 a1 54 26 bd 63 7b 21 3e 46 2b cb 3d 8b af 96 3d
       -0.040608052 0.15769725 0.09920363 0.07357701
000290 75 c2 0f be 96 2f 1c 3e 19 6a ef 3d 78 a6 02 3e
       -0.14039023 0.15252528 0.116901584 0.12758815
0002a0 91 bc 20 be ce 2f 6c bd 03 fa a8 3d 76 9c f5 bd
       -0.15696932 -0.057662778 0.08250811 -0.11992733
0002b0 1d bd 26 3e d1 9e 96 3d d9 de 1c 3e a0 d1 02 3d
       0.16283078 0.073545106 0.15319385 0.031938195
0002c0 9d 45 96 3d a7 11 c9 bd 59 cd 35 3e 8f e5 26 be
       0.073374964 -0.0981782 0.17754115 -0.16298507
0002d0 23 b7 2d 3e d3 cc cf bd 40 93 27 3e ac bc d9 3d
       0.16964392 -0.10146489 0.16364765 0.106316894
0002e0 f7 f5 10 3e 32 fe 33 3e e5 95 f5 3d 7b f3 29 3e
       0.14156328 0.17577437 0.11991481 0.16596787
0002f0 5a bd 86 bd a0 af 4b 3e 6d 44 07 3e 79 ad 47 3e
       -0.06579085 0.19891214 0.13209696 0.19499768
000300 21 9f 1e be 5c a5 f1 bd a6 68 16 bb 63 d2 98 3d
       -0.1549039 -0.11799118 -0.002295056 0.07462003
000310 fc ed 2d bd e5 08 4c 3e 51 2b 07 be 27 f0 13 be
       -0.042463288 0.19925268 -0.13200118 -0.1444708
000320 3f 59 32 be 85 fd 30 3b 00 3a 3b 3e 47 6b f6 bd
       -0.17416857 0.0027006578 0.18283844 -0.1203218
000330 2a 2a ae bd 22 d6 69 bd fd 21 b1 bd ef ff 2a 3e
       -0.08504136 -0.05708898 -0.08649061 0.16699193
000340 35 ab fa bd d8 84 0c 3e 02 49 10 3e 84 b6 fd 3d
       -0.122396864 0.13722551 0.1409035 0.12388328
000350 45 a3 4d 3e 6d cf da 3d 64 6c 2e 3e 1a f8 86 3b
       0.20081814 0.106840946 0.17033535 0.0041189315
000360 c2 ed 20 be 29 ea 01 be 69 38 e7 bd 1f 86 9d 3d
       -0.15715697 -0.12686981 -0.11290056 0.07691597
000370 f0 22 60 bd 3a 64 00 be a3 6f c9 3d d7 82 ab bd
       -0.05472082 -0.12538233 0.09835746 -0.08374565
000380 be 93 ed bd 41 34 8e bd d1 e2 04 3d b7 af 00 3e
       -0.11600445 -0.069435604 0.03244287 0.1256703
000390 cd 0d 47 3e 92 f3 93 bd f6 19 e2 3d 07 41 e2 3d
       0.19438858 -0.07224192 0.11040108 0.11047559
0003a0 dc 8d e1 3d 6f 86 2e bd e4 10 95 bd 73 f7 0d be
       0.11013386 -0.042608675 -0.07278612 -0.13863926
0003b0 d2 ba 72 bd 95 af 66 bd 7b 1f 08 3e 97 a9 91 bd
       -0.059260197 -0.05631979 0.13293259 -0.07112425
0003c0 9e 15 10 bd 54 b1 79 3b 6a e0 28 3e d9 fe c1 3d
       -0.035176866 0.003810008 0.16491857 0.094724365
0003d0 e3 9f c5 bd 9b 32 c7 bd 38 33 1e 3e 04 bd fa 3d
       -0.096496366 -0.09726449 0.15449226 0.12243083
0003e0 15 11 85 bc 67 ab f1 3b 93 e6 87 3d 67 3f 5e 3d
       -0.016243497 0.007375169 0.066357754 0.054259684
0003f0 14 fb b2 3d 64 79 11 be 1d c2 8b bd 91 fd e8 3d
       0.087392956 -0.14206463 -0.068241335 0.11376489

model.4.weight f4 [128, 256]
000000 b7 33 f2 3c 5f 6b 83 3d e3 51 c0 3c db c5 84 3c
       0.029565675 0.06416964 0.023476547 0.016207626
000010 19 a3 54 3c 55 f6 86 3d 73 c5 29 3c 28 b3 c4 bc
       0.012978339 0.06589953 0.010362017 -0.02401121
000020 91 a1 5a 3d 4a 66 36 3d ad 1a 23 3d 28 3a 32 bc
       0.053376738 0.044531144 0.039820362 -0.010878123
000030 20 92 98 3d 7f 6e 0f bd 4c 0a 77 bd bb ab 57 3d
       0.07449746 -0.035017487 -0.060312554 0.05265401
000040 08 c2 59 bd 89 3d 50 3d 7f 8e 0e bd 15 1c 1b bd
       -0.05316356 0.050839934 -0.034803864 -0.037868578
000050 5c 47 0b 3d fe 41 c2 bc f4 ad 1d b7 fb af 19 bd
       0.0340036 -0.023713108 -9.398431e-06 -0.037521344
000060 b4 b7 4f bd 6f 64 8b 3d f1 b0 e8 3c 8b ab 11 bc
       -0.050712302 0.068062656 0.028404685 -0.008890997
000070 33 8a a2 3c 2b 14 12 bd 95 ee 2d bd e0 22 92 3b
       0.01984129 -0.035663765 -0.042463858 0.004459724
000080 9e b5 bd bc 7c 57 03 3a 0a e5 5e bd 6a ec f4 bc
       -0.02315789 0.00050102896 -0.054417647 -0.029897887
000090 67 7e 82 bd ad 2c fb 3c 2d 2a dd 3c 90 46 c3 bc
       -0.063717656 0.030660952 0.02699765 -0.023837358
0000a0 ee 70 49 bc 08 1d 22 3d 89 2d 38 3b 2f e6 d8 bc
       -0.012294991 0.039578468 0.0028103313 -0.026476948
0000b0 56 0a 12 3d 2c e8 54 bd e0 06 3d 3d 66 f3 41 3d
       0.03565439 -0.05197923 0.046149135 0.047351263
0000c0 2c c3 f4 bc f7 72 58 3c 1b 34 49 3d 67 6b ed 3d
       -0.029878221 0.0132110035 0.049121957 0.11592751
0000d0 53 37 06 bd 7b 13 92 bb 2d 5b 8f 3b 0b ee ed 3c
       -0.032767605 -0.0044578887 0.0043748827 0.029044172
0000e0 49 29 1c bd a6 80 eb 3c 4d d4 6e 3d 35 c6 92 3c
       -0.03812531 0.028747868 0.058307935 0.017916778
0000f0 f1 07 4b 3a ad b2 8d 3c 7e 17 f4 bb 47 47 49 3d
       0.0007745019 0.017297113 -0.0074490895 0.04914024
000100 32 cc 1c bb c5 f0 57 3c 69 e1 40 3d fe 5d 0f 3d
       -0.002392542 0.0131799625 0.047089968 0.035001747
000110 2d de 70 3d 4e 74 2a 3c 65 8d 9a 3d 41 2e 1e 3d
       0.058805633 0.010403706 0.075465 0.03861833
000120 e7 97 5d bd af ab 39 bd 53 ae 61 bd 77 ee 2c 3d
       -0.054099943 -0.045329746 -0.05509789 0.042219605
000130 b6 ac f1 bc 5a 08 4d 3d d4 85 09 bc c7 5c 11 bd
       -0.0295013 0.050056793 -0.0083937235 -0.03548887
000140 12 44 0f 3d f0 57 32 3d d5 18 7f bd e8 7b 82 3c
       0.034977026 0.043540895 -0.06227954 0.015928224
000150 06 d3 8a 3d 7d bc 6c bc 23 50 9d bc 5b 73 45 3d
       0.06778531 -0.014449236 -0.019203251 0.048205715
000160 c5 c2 1b bc a2 c3 5e bd 3b d1 d3 3b 52 1f 42 bd
       -0.009506886 -0.05438579 0.006464151 -0.04739315
000170 e1 4d 9f 3c ba 75 85 3d 8b ac 7f 3d 59 35 c7 3c
       0.019446315 0.06516595 0.06242041 0.02431743
000180 aa 42 20 3d 23 f5 36 3d f4 ae 45 3d 43 49 24 3d
       0.039126076 0.044667374 0.04826255 0.04010893
000190 90 2b 46 3a 82 ea 19 bd cb b4 5e bd bb 4d b3 bd
       0.0007559592 -0.03757716 -0.054371636 -0.0875506
0001a0 21 a6 15 3d 22 df 54 bd 69 a7 12 3d 45 75 88 bb
       0.036535386 -0.05197061 0.035804186 -0.0041643702
0001b0 0c c3 d9 3a 56 43 86 3c d7 b6 84 3a 29 a3 01 3d
       0.0016613915 0.01638953 0.0010125291 0.031649742
0001c0 aa eb d0 bc e1 0a f6 ba de cc 25 bd ba f4 6f bd
       -0.025502998 -0.0018771553 -0.04047858 -0.058583
0001d0 68 13 18 bd 09 01 20 bd dc d0 37 3b 3a e4 12 bc
       -0.037127882 -0.039063487 0.0028048074 -0.008965546
0001e0 32 ad a1 3d d5 7b 78 3d a6 75 e7 3c 22 c2 53 bb
       0.078943625 0.06066497 0.028254341 -0.0032311757
0001f0 12 85 f1 bc 6f 21 fa bc aa 05 35 3d 6a 5e 61 3c
       -0.029482398 -0.03053352 0.044194855 0.01375542
000200 9a f2 00 3d ee 7a 11 bc 72 b3 8c bc d7 1e 51 3c
       0.031481363 -0.008879406 -0.01717541 0.0127637
000210 47 26 f3 bc 93 f7 c3 bc 9f 61 01 bc f8 6d 3c 3d
       -0.029681338 -0.023921764 -0.00789681 0.046003312
000220 25 b1 8d 3c 7e 63 49 3c 0d 4c cb 3c 0c 5c 61 bc
       0.017296383 0.012291787 0.024816537 -0.013754856
000230 6b 45 77 3c 05 16 22 bd 77 46 d7 bc 84 d6 33 bd
       0.015092234 -0.03957178 -0.026278717 -0.04390575
000240 56 52 35 bd 67 38 b1 bb a0 62 83 bd a7 fb f0 3d
       -0.044267975 -0.005408335 -0.064152956 0.11766749
000250 27 09 d2 3b 1b 7a 98 3d d9 f0 85 bd b9 bd ac bc
       0.0064097825 0.07445165 -0.06540079 -0.02108656
000260 a7 6a 18 3d 35 bf 6d 3d 16 37 69 3c 51 ad 1e bd
       0.037211087 0.058043677 0.014234325 -0.038739506
000270 46 5b 54 3d d8 26 70 bd 2a d1 c8 bc 0a d0 50 3c
       0.051844858 -0.058630794 -0.0245138 0.012744913
000280 ee da 2a bd b7 0e 88 3d a8 d8 43 ba 96 a7 da bc
       -0.041712694 0.06643432 -0.0007470944 -0.02669124
000290 7d 84 2f bd 79 87 02 3d 56 24 05 bd 23 05 90 3d
       -0.04285096 0.031867478 -0.032505356 0.0703223
0002a0 bd a5 47 3d fb 5e fc bc 45 e4 b6 bc 99 8f 5b bc
       0.048742045 -0.030807009 -0.022325644 -0.013400936
0002b0 f9 c7 d3 3b d9 72 0d 3b 5a 25 2d bd ca 9c dd 3b
       0.0064630476 0.0021583347 -0.04227195 0.0067630755
0002c0 29 dd 1d bd 43 6a 44 bd 49 3f b4 38 4b 59 39 bd
       -0.038540993 -0.0479529 8.5948566e-05 -0.045251172
0002d0 f6 57 1a 3b 0c 6b ff bc 87 2d 9a 3d 1f ce 83 3d
       0.0023550964 -0.031178974 0.07528215 0.06435799
0002e0 11 68 cc 3c 66 e2 b2 3d a0 8e 5b bc a0 c0 51 bd
       0.024951966 0.08734588 -0.013400704 -0.051209092
0002f0 29 5a c7 bb fb 00 e2 3d ed 5a 2b 3c 76 04 bc bc
       -0.006083746 0.11035343 0.01045869 -0.022951346
000300 80 98 48 3c 0c d4 2a bd 58 f2 c3 3c da b7 5e 3c
       0.01224339 -0.04170613 0.02391927 0.013593638
000310 41 e2 b5 bb 8c 9e f7 3c 0f 50 09 3d b9 cd 9b bc
       -0.005550653 0.030226968 0.033523615 -0.019018995
000320 12 92 70 bb 35 b6 13 bd 01 dc 97 3d 4e b6 a7 3c
       -0.0036708158 -0.036062438 0.07415009 0.020472672
000330 fb 9e 28 bc 21 5c 4c 3d cc 91 24 bd a1 8d a9 3c
       -0.01029181 0.04989255 -0.040178105 0.020697417
000340 17 ed 47 3c 08 d9 4b 3c 07 bd ee 3b 67 6c 2f 3d
       0.012202523 0.012441881 0.0072857174 0.04282799
000350 a2 2a 17 3c 3d c4 47 3c a7 78 05 3c e1 41 82 3d
       0.009226473 0.012192783 0.008146442 0.06360222
000360 e8 4a 18 bd b8 11 7d 3c bd 56 4e 3c be e6 6a 3d
       -0.03718081 0.015446119 0.012593922 0.05734896
000370 49 3e 2c 3c c6 c8 53 bd 66 93 9a bb c7 3b 80 bc
       0.010512897 -0.051705144 -0.0047172783 -0.015653504
000380 e0 eb 2e b9 7b 40 89 bd 6f 86 02 bd 9a 76 8d 3d
       -0.00016681803 -0.06701752 -0.031866487 0.06907387
000390 d1 e0 63 3d 5e ce 9f 3c 7c 24 a4 3b 21 48 e5 bc
       0.055634324 0.019507583 0.005009232 -0.027988495
0003a0 7c 8c 73 bd 42 56 40 bd a8 b8 d2 bc 88 28 a7 bc
       -0.05946015 -0.04695726 -0.025722817 -0.020405069
0003b0 2a 73 98 3c 8b a3 05 bc 4a c6 8a 3b 81 28 4f 3d
       0.018609602 -0.008156667 0.0042350637 0.050575737
0003c0 e0 32 1e bd eb cf 7d bc 03 29 eb 3c 8c 9e 28 3c
       -0.038622737 -0.015491466 0.02870608 0.010291707
0003d0 2e 31 26 bd 72 4a 42 bd 2c cf 59 3d 4c b5 15 bc
       -0.040574245 -0.047434278 0.05317609 -0.009137463
0003e0 55 32 fe 3c 64 a3 16 3d f5 3d 3f 3d 30 64 cb 3c
       0.03102986 0.036776915 0.046689946 0.024828047
0003f0 b4 65 31 3d 7d 69 8f 3b c3 59 a5 3c 83 dd 49 3c
       0.043309882 0.004376589 0.020184403 0.012320879

model.4.bias f4 [128]
000000 72 8e 9d 3d 35 b3 94 3d 84 45 04 be 2f c9 b5 3d
       0.07693185 0.072607435 -0.12917143 0.08876263
000010 ec 59 b5 3d b2 0d 0a 3e 02 25 18 3e 50 88 a6 3d
       0.08855042 0.13481787 0.14857867 0.08131468
000020 52 97 ab bd 61 f1 b5 3d 63 ad 10 3e d3 ee 01 3e
       -0.083784714 0.0888393 0.14128642 0.1268876
000030 e2 fc 50 3d bd 1a e7 3d bb 0f c5 3d 48 41 ed 3d
       0.051022418 0.11284397 0.09622141 0.11584717
000040 3f 35 ab 3d 3e 85 f9 bc 7c 51 0e 3e b8 72 8d 3d
       0.08359765 -0.030459043 0.13898271 0.069066465
000050 50 95 e3 3d cb 8c 0f 3e 07 ed 91 3c 3d 06 d0 bd
       0.111124635 0.14018552 0.017813219 -0.1015744
000060 a2 82 0d bd fa ec 9c 3d d0 92 e2 bd 6a b1 61 bd
       -0.03454841 0.07662387 -0.110631585 -0.055100836
000070 d1 dc 89 bc 9e 5b 08 3e 0b d7 8f bc 4f 4c f7 bd
       -0.016828926 0.13316199 -0.017558595 -0.120751016
000080 dc fe d3 3d 41 bc e1 bd cc 09 bd 39 a4 88 74 3c
       0.10351345 -0.11022235 0.00036056188 0.014925156
000090 3b d2 8c bd ba 42 02 bd 81 7e 19 3e 3c d7 fb 3c
       -0.06876036 -0.031801917 0.14989664 0.03074228
0000a0 c6 95 06 3e 4d 37 b5 3d 74 44 9d 3d 75 79 f2 3d
       0.13143072 0.088484384 0.07679072 0.11839572
0000b0 1f 06 96 ba 00 8f a5 3d ce 75 20 3c 05 c0 a7 3c
       -0.0011445916 0.08083916 0.009793712 0.020477304
0000c0 b6 1c 97 3d 83 40 95 3c 7a 58 8b 3d 7e 71 c9 3d
       0.07378523 0.018219238 0.06803985 0.098361
0000d0 85 27 68 3d f6 96 88 3c 6b 19 43 bd f3 c9 f7 3d
       0.056678314 0.016673546 -0.047631662 0.12099066
0000e0 56 09 a5 bd cd fa 92 3d 0e 14 8f 3d f7 c8 81 3d
       -0.08058421 0.07176743 0.06986247 0.06337159
0000f0 2d de df 3d d1 45 1e be ec 95 a0 3c ad be 8c bd
       0.109310485 -0.1545632 0.019602738 -0.06872306
000100 88 40 f9 bc ce d0 75 bc c4 a3 88 3c 2c 57 05 bd
       -0.030426279 -0.015003396 0.016679652 -0.032553837
000110 c1 c7 a6 3d 80 67 b5 bd ee 23 ad bd 0f 77 03 3e
       0.08143569 -0.08857632 -0.08454119 0.12838386
000120 20 31 d7 3d 9a 0b 08 3e bd 2c fd bc 29 a5 a9 3d
       0.10507417 0.13285676 -0.030905122 0.08283455
000130 9e 67 ed bd 20 a3 d0 bd 2c 47 bf 3d c6 19 da 3d
       -0.11592029 -0.101873636 0.09339747 0.10649447
000140 1a 5f ce 3d a5 ce 67 bc bb 84 9b 3d e2 45 a4 3b
       0.10076733 -0.014148389 0.07593676 0.0050132135
000150 42 e1 e0 3c b7 94 f6 bd bf 54 cb 3c b2 6a 48 3a
       0.027451161 -0.12040084 0.024820684 0.00076452934
000160 0c 18 18 3e df 51 34 3c bc 8c a2 3d 1f 1a 0a be
       0.14852923 0.011005848 0.07936999 -0.13486527
000170 e3 7d f1 3d 17 e6 e2 bd 04 2f c6 bd 05 22 fb bd
       0.11791589 -0.110790424 -0.09676936 -0.12262348
000180 bd 49 9b bd 64 5e cb bc 7a a9 4a bd 8c 48 08 3d
       -0.07582424 -0.024825282 -0.04947803 0.03327231
000190 6d 6a bf bd 22 3c 12 be 9e c5 b3 bd 54 5e 83 bd
       -0.09346471 -0.14280751 -0.08777927 -0.06414476
0001a0 de e8 42 bd 43 13 01 3e 8f b2 a0 3d c1 f5 db 3d
       -0.04758536 0.12605004 0.07846557 0.10740233
0001b0 27 62 dc bd 00 5c cb 3d ac a0 96 bd 9f 72 c9 3d
       -0.107609086 0.09929657 -0.073548645 0.09836315
0001c0 80 91 06 3e 07 2f 09 be 0b cd ed bb 24 f4 5e bd
       0.13141441 -0.13396846 -0.007257109 -0.05443205
0001d0 4f 22 2b 3e a8 5c 9b bd 73 a1 3c 3e 2e 8f 0f 3e
       0.16712306 -0.07586032 0.18420963 0.14019462
0001e0 cd 44 40 3c 31 ac 19 be 14 03 62 3d 03 4e c1 bd
       0.011735153 -0.15007092 0.055178717 -0.09438708
0001f0 60 ef d3 3d 7d a0 e4 3d 98 53 f0 3d b8 cd b4 3c
       0.103483915 0.11163423 0.11734694 0.02207075

model.6.weight f4 [1, 128]
000000 74 a9 b6 bd e4 54 44 bd 5a 9c ab 3d 91 41 87 bc
       -0.08919039 -0.04793252 0.08379431 -0.016510757
000010 55 c1 2f bd 33 c5 b0 bc 15 b5 0c be 53 57 5d bd
       -0.042908985 -0.021578407 -0.13740952 -0.054038357
000020 b1 f2 b6 3d aa df b3 bd e3 1f f9 bd c0 18 aa bd
       0.089330085 -0.08782895 -0.12164285 -0.08305502
000030 a5 1d c4 bd 8e e1 a3 bd ca 3e a8 bd 30 bc 55 bd
       -0.09575967 -0.080020055 -0.08215101 -0.052181423
000040 09 1f f7 bd 2b 61 81 3d f5 7c 31 bd 6c 80 ec bd
       -0.12066466 0.063173614 -0.04333206 -0.11547932
000050 96 f7 89 bd b8 d9 23 be 09 ab 60 3c c3 7b dd 3d
       -0.067366764 -0.16001022 0.013712653 0.10814621
000060 2f 46 39 3d 1e 26 c8 bc d7 5c c0 3d 2c b7 2a 3d
       0.045232948 -0.024432238 0.09392708 0.041678593
000070 5a c6 7a 3d 9d 9c 72 bc 31 5e 8a 3d 6c 83 22 3d
       0.06122432 -0.014807847 0.06756247 0.039676115
000080 16 cb f5 bd ad 24 9f 3d c1 ec e6 3c 70 8b a1 3d
       -0.12001626 0.07770667 0.028189065 0.07887924
000090 63 24 af 3d de 61 5a 3d e5 b7 dd bd ae b1 c8 3d
       0.08551862 0.05331599 -0.10826091 0.09799515
0000a0 d5 76 9a bc e6 e8 72 bd 1e f3 cf bd f9 9e f6 bd
       -0.018855492 -0.05930414 -0.10153793 -0.120420404
0000b0 6a 08 40 3d 86 19 bc bd 51 66 08 3d 5b 5a 9e 3c
       0.046883024 -0.09184556 0.0333007 0.019330194
0000c0 e7 76 d5 bd 7c f1 46 3c e4 ba 5c bc c3 ed de bd
       -0.104230694 0.012142535 -0.013472293 -0.10885193
0000d0 7c 10 87 bd c4 00 7f 3d e8 b8 0b 3d 9b 77 6e bc
       -0.06594941 0.06225659 0.034111887 -0.014554883
0000e0 92 59 8e 3d fc 2a 03 be b0 19 f1 bd 9b 61 c0 bd
       0.06950678 -0.12809366 -0.117724776 -0.09393617
0000f0 a0 23 dc bd 47 17 61 3d 8d f5 53 3d 1f 5d e9 3d
       -0.107489824 0.05495384 0.051747847 0.113947146
000100 bc d0 b6 3c 64 30 90 3d ee fa 2d 3d 2a c0 18 3d
       0.02231633 0.0704048 0.042475633 0.037292637
000110 b2 18 62 bd 5d d4 4a 3d ee 57 e8 3d 34 83 79 bd
       -0.055199333 0.04951893 0.11344896 -0.06091614
000120 99 c1 e1 bd 7e 15 d6 bd 05 8d ba 3d 3d eb c5 bd
       -0.11023254 -0.10453318 0.091089286 -0.09664009
000130 80 72 06 3d a4 39 89 3d e8 4a b9 bd bc fa ec bd
       0.03282404 0.06700447 -0.0904749 -0.11571261
000140 cb db 1f bd 90 37 34 3d cc a3 e8 bd 22 e1 b6 3d
       -0.03902797 0.0439983 -0.11359367 0.089296594
000150 85 c1 60 3d 49 15 74 3d 42 dd 36 3d b9 bf 9b bd
       0.054872055 0.05959061 0.0446446 -0.076049276
000160 0c 94 f8 bc c5 56 86 3d ea 3e 7d bc e8 bb a3 3d
       -0.030344032 0.06559519 -0.015456894 0.07994825
000170 ee f9 06 be 66 63 92 3d e6 5d 7c 3d d4 9c 6b 3d
       -0.13181278 0.07147865 0.061612986 0.05752261
000180 83 51 34 3d e7 cf 2d 3d d3 2d 3f 3d 13 95 95 bd
       0.044023048 0.0424346 0.04667456 -0.07303824
000190 fe db c5 3d bf b7 97 3d ef e1 19 3d ea 62 96 3d
       0.09661101 0.07408094 0.037568983 0.07343085
0001a0 64 94 a7 3d a4 73 f9 bd c8 c8 9f bd 37 ca fa bc
       0.081826 -0.1218026 -0.07801968 -0.030614002
0001b0 ac f7 81 3d 77 09 1d be df 11 2a 3e a7 df 8e bd
       0.06346068 -0.15335642 0.1660838 -0.06976252
0001c0 3f 79 10 be 85 00 95 3d 37 ed 4b 3c c4 b7 aa 3d
       -0.14108752 0.0727549 0.012446693 0.08335832
0001d0 47 2e de bc a7 22 1a 3d a9 15 2f bd dc c8 7f bd
       -0.027121676 0.037630703 -0.042745266 -0.062447414
0001e0 4c b9 eb 3c 9a 15 83 3d 2b cc b7 bd 57 7a f2 3c
       0.02877488 0.064006045 -0.08974489 0.029599352
0001f0 26 af 80 bd b1 bb ae bd 0a 75 5c bd 23 b2 36 3d
       -0.06283407 -0.08531893 -0.053822555 0.04460348
